results/baseball1/Baseball/Baseball-1681.pt (torch, 993328 bytes, 13 tensors)

network_body._body_endoder.seq_layers.0.weight f4 [128, 805]
000000 51 1c 10 bc 64 c9 c0 bc 4b e2 ab bb 94 0c 7f bc
       -0.008795814 -0.02353353 -0.005245482 -0.015566964
000010 c1 b4 11 3d 6e bf 7c bd 4e 49 65 3d a4 23 33 bb
       0.03557277 -0.061706 0.055978112 -0.0027334476
000020 fd e0 71 bd 5c b9 29 bd df e5 47 bc 6d 81 be 3c
       -0.059052456 -0.041436538 -0.012200802 0.023255074
000030 19 dc 69 bc 0d 76 2f bd 18 2c 32 bc 4c cb 85 bc
       -0.014273667 -0.04283719 -0.010874771 -0.016332291
000040 ea d0 04 3d d7 46 c3 3c 16 13 c2 3b 5b e6 b6 bc
       0.0324258 0.02383749 0.0059226854 -0.022326639
000050 33 dc 3c bc 7d 0b db bc fd e5 13 3c cd 4c 1e 3d
       -0.011527109 -0.026738876 0.009027001 0.03864746
000060 b3 55 30 3c 55 94 47 bd 9a a7 5d 3d 06 0b a2 bb
       0.01076262 -0.048725445 0.054114915 -0.0049451618
000070 07 22 27 39 ae df 4b bd 4f 39 1c 3d 8a 16 89 bc
       0.00015939037 -0.049773864 0.03814059 -0.01673438
000080 6c 79 fc 3c ad f4 d4 3c 54 d2 50 3c cc 5b b5 bd
       0.030819617 0.025995577 0.012745459 -0.088553995
000090 9b 4a ca 3c e6 33 31 bc 53 b9 e8 3c b2 23 98 bc
       0.024693778 -0.010815596 0.028408682 -0.018571708
0000a0 51 75 af 3c c8 1a 19 3d 85 c9 0d bd d5 cb 00 3c
       0.021418246 0.037379056 -0.034616012 0.007861097
0000b0 53 61 40 3b 7b 60 bb 3b 6b c1 6a bc e9 2f a9 bc
       0.0029354885 0.0057182885 -0.014328341 -0.020652728
0000c0 96 26 fd 3b cd c4 52 3c 41 e1 45 bd e9 2f ce 3c
       0.007725547 0.012864304 -0.048310522 0.02516933
0000d0 cd 80 44 bb 8c d2 71 bc 46 16 96 3d 09 7c 10 bb
       -0.0029983998 -0.014759671 0.07328467 -0.0022046587
0000e0 a5 3f 67 bc b9 40 d6 3c 66 52 08 bb 86 77 2d 3c
       -0.014114295 0.026153909 -0.0020801066 0.010587579
0000f0 1e de 77 bd c7 aa e8 bc 4a 81 0e bc f9 20 0f 3d
       -0.06051456 -0.028401745 -0.008697817 0.034943555
000100 33 b4 5b 3d ca 51 46 3b e9 97 5b bb 89 8d c7 bd
       0.05363865 0.0030261152 -0.0033507294 -0.097437926
000110 b7 6f ee 3b 41 3b cc ba d7 23 29 3c dc d8 e6 bb
       0.007276501 -0.0015581624 0.010323486 -0.0070448946
000120 d3 4a f3 bb ff e8 51 bc 1d 34 ae bc 56 99 83 bc
       -0.007424691 -0.012811898 -0.021265084 -0.016064327
000130 48 28 9f 3d cc 0f ec bc 4f ab 48 bd f9 43 0c bd
       0.07771355 -0.028816126 -0.048991498 -0.03424451
000140 f6 df 08 3d 5d 84 36 bc 41 83 53 bd e3 d3 81 bd
       0.03341671 -0.011139956 -0.051638845 -0.06339242
000150 ab 42 1f 3c f7 cb 02 bd 04 ea 2a bd 43 e1 93 bc
       0.009720485 -0.031932797 -0.04172708 -0.01805175
000160 95 32 f5 3b 7b e9 b0 bc f3 00 90 bd 71 8f b0 3c
       0.0074828365 -0.021595707 -0.07031431 0.021552773
000170 41 9c 4c 3c 1a 4f f8 bc 70 fd 7c 3c 47 c2 8c 3b
       0.012488426 -0.030311156 0.015441284 0.0042956206
000180 78 31 62 3a e3 ea 23 bb 4a b6 34 bd 0f eb 29 3d
       0.0008628587 -0.002501183 -0.044119157 0.041483935
000190 50 01 2b 3c e1 7d 6d 3c 42 66 0c 3d f4 76 4e 3c
       0.010437325 0.014495344 0.03427721 0.012601603
0001a0 11 ea ba ba ff c9 a2 3d f8 86 77 3c d6 fe 09 bc
       -0.0014260431 0.07948684 0.015107863 -0.008422574
0001b0 5c 10 50 3b d9 fc 37 bc 38 ad 51 3b 48 00 94 3a
       0.0031748032 -0.011229717 0.0031994116 0.0011291588
0001c0 8c d9 83 bd ed 0e c1 3c ae e4 d1 3c 55 16 e9 bb
       -0.06437978 0.023566687 0.025621738 -0.007113258
0001d0 1c b0 15 bd 4a bc 76 bc 4c f1 9c 3b cb 3e 6f 3c
       -0.036544904 -0.01505954 0.004789507 0.014602373
0001e0 c1 53 33 3c 25 5b e6 bc 7a db 1a 3d 0f e0 b5 bc
       0.010945261 -0.028119633 0.037806965 -0.022201566
0001f0 88 a1 02 3d 2e aa 00 bd c1 54 ba bc 1e 53 09 3d
       0.03189233 -0.031412296 -0.022745492 0.033526532
000200 46 f3 e9 bc 4f b4 00 3d 67 9e 53 bc 68 4b 88 bc
       -0.028558385 0.031421956 -0.012916184 -0.016637519
000210 4c b4 4b 3d 40 37 db bc 21 58 92 3c 39 49 67 bc
       0.04973249 -0.026759744 0.017864289 -0.014116579
000220 fe 68 07 bb 71 b7 b3 3d bc ee 35 bd eb b4 23 3d
       -0.0020661945 0.08775223 -0.044417128 0.03996746
000230 b1 4c a4 bc 2b bc 13 3c c5 ab 28 bd 87 67 a1 bb
       -0.0200561 0.009017031 -0.041179437 -0.0049256715
000240 fc 46 04 3d 1b 6a 95 38 c6 38 5e 3d 1b e9 94 bd
       0.03229426 7.124637e-05 0.054253362 -0.07271024
000250 cb 7f da bb fc 33 3a 3c f8 da 12 bc ff dd 1d bd
       -0.006668066 0.011364933 -0.008963339 -0.03854179
000260 0f dc d2 3c ae b3 6f 3d 9d 03 fb 3b 8b 7d f3 bc
       0.025739698 0.058520965 0.007660343 -0.02972295
000270 ec 85 05 bc 1b 32 1b bd a6 63 dc 3b db 10 9c bd
       -0.008149605 -0.03788958 0.006725746 -0.076204024
000280 22 05 26 bc df 96 d8 3c c9 b5 94 bd 85 b8 5b bc
       -0.01013306 0.026439128 -0.07261235 -0.013410692
000290 1c 79 38 3b 5b 26 0c ba 8b 45 b4 bc 97 11 2f bb
       0.0028148359 -0.00053462916 -0.022005817 -0.0026713365
0002a0 e6 52 75 bc ca 75 03 bd ad ee a9 bd b1 b6 c3 3a
       -0.014973378 -0.032094754 -0.08297477 0.0014931766
0002b0 f7 e7 c4 3c 27 10 b9 3b 3d 09 1d bd f7 bf 43 3d
       0.02403639 0.0056476775 -0.03833889 0.047790494
0002c0 1c 51 29 bd f8 da 44 3d fa 66 98 3c 64 2b 98 3d
       -0.041337118 0.048060387 0.01860379 0.07430151
0002d0 68 71 27 bc a9 ff 77 3c c8 99 f9 3c 7b 9c 73 3b
       -0.010219909 0.015136638 0.030468836 0.0037172127
0002e0 52 83 76 3d 67 9b 00 bd 15 39 3a 3c 09 d2 1d 3c
       0.06018383 -0.031398203 0.0113661485 0.009632596
0002f0 d7 46 c2 3b 27 8b c8 bc c2 d7 3d bd dd 22 68 3a
       0.005928855 -0.024480416 -0.04634834 0.00088552927
000300 bd 5f 58 bd 56 6a ad 3c d0 d5 4a 3d 71 cf dd b9
       -0.05282568 0.021168869 0.049520314 -0.0004230696
000310 43 be 40 bc 00 71 49 bc e9 b6 71 3d 4b f7 0f bd
       -0.011764112 -0.012295008 0.059012327 -0.035147946
000320 3e bc 1b bd 81 d7 52 3a e4 9a 22 3d 07 6a f2 3c
       -0.03802132 0.0008042977 0.039698496 0.029591573
000330 d1 3d 02 bc d3 5e 0e bd 8e a8 4b 3c c5 9c bf 3c
       -0.0079493085 -0.0347584 0.012430323 0.023390183
000340 0f 4b e2 ba a7 35 55 bd fd 39 67 3d 33 2e c2 3d
       -0.0017264801 -0.05205312 0.056451786 0.09481468
000350 4e 2e c7 bc 33 3f 0b bc 4f 3d 09 3c 54 46 97 bc
       -0.024314072 -0.008498955 0.0083764335 -0.018466152
000360 ad f0 8f 3c c3 e2 26 3d da d7 9c 3d b0 98 f1 bc
       0.017570818 0.0407436 0.07658358 -0.029491752
000370 d4 1b 6b 3d bc 6c 5b 3b ec e7 14 bc 7f 02 60 3d
       0.057399586 0.0033481559 -0.009088498 0.05468988
000380 cc 26 05 bd 36 64 80 bc 77 f5 e3 bc 4c 0c 06 bc
       -0.032507703 -0.015672784 -0.027827008 -0.008181643
000390 08 f9 c1 3c 2e b1 5f 3d 5c cb 02 3d 72 f6 f9 bc
       0.023678318 0.05461233 0.03193222 -0.030513022
0003a0 ea 6a d7 bc b7 1b 76 3c 54 54 a2 3c 94 83 6f 3c
       -0.026296098 0.015021256 0.019815601 0.014618773
0003b0 97 92 0b 3d 9a 53 8e 3c a4 13 92 3c 7b 42 16 bc
       0.034075346 0.017373849 0.017831631 -0.009171124
0003c0 00 58 b4 3c 1e 01 11 bc b6 9d ed b9 24 5a 67 ba
       0.022014618 -0.008850364 -0.00045321666 -0.00088253827
0003d0 f2 30 65 3c fa 64 53 3c 57 8b 2d bd 17 2d 51 3c
       0.01398872 0.012902493 -0.042369213 0.012767098
0003e0 da 04 44 3b 9d b3 97 bc 1f 9a 01 3c 43 1e 51 bb
       0.0029910118 -0.018518263 0.0079102805 -0.0031908907
0003f0 bd 42 b1 bc 43 3a 1e bc 80 2d d3 bb 87 89 1e bc
       -0.021638269 -0.009657445 -0.006444633 -0.009676344

network_body._body_endoder.seq_layers.0.bias f4 [128]
000000 00 00 00 00 00 00 00 00 00 00 00 00 00 00 00 00
       0.0 0.0 0.0 0.0
000010 00 00 00 00 00 00 00 00 00 00 00 00 00 00 00 00
       0.0 0.0 0.0 0.0
000020 00 00 00 00 00 00 00 00 00 00 00 00 00 00 00 00
       0.0 0.0 0.0 0.0
000030 00 00 00 00 00 00 00 00 00 00 00 00 00 00 00 00
       0.0 0.0 0.0 0.0
000040 00 00 00 00 00 00 00 00 00 00 00 00 00 00 00 00
       0.0 0.0 0.0 0.0
000050 00 00 00 00 00 00 00 00 00 00 00 00 00 00 00 00
       0.0 0.0 0.0 0.0
000060 00 00 00 00 00 00 00 00 00 00 00 00 00 00 00 00
       0.0 0.0 0.0 0.0
000070 00 00 00 00 00 00 00 00 00 00 00 00 00 00 00 00
       0.0 0.0 0.0 0.0
000080 00 00 00 00 00 00 00 00 00 00 00 00 00 00 00 00
       0.0 0.0 0.0 0.0
000090 00 00 00 00 00 00 00 00 00 00 00 00 00 00 00 00
       0.0 0.0 0.0 0.0
0000a0 00 00 00 00 00 00 00 00 00 00 00 00 00 00 00 00
       0.0 0.0 0.0 0.0
0000b0 00 00 00 00 00 00 00 00 00 00 00 00 00 00 00 00
       0.0 0.0 0.0 0.0
0000c0 00 00 00 00 00 00 00 00 00 00 00 00 00 00 00 00
       0.0 0.0 0.0 0.0
0000d0 00 00 00 00 00 00 00 00 00 00 00 00 00 00 00 00
       0.0 0.0 0.0 0.0
0000e0 00 00 00 00 00 00 00 00 00 00 00 00 00 00 00 00
       0.0 0.0 0.0 0.0
0000f0 00 00 00 00 00 00 00 00 00 00 00 00 00 00 00 00
       0.0 0.0 0.0 0.0
000100 00 00 00 00 00 00 00 00 00 00 00 00 00 00 00 00
       0.0 0.0 0.0 0.0
000110 00 00 00 00 00 00 00 00 00 00 00 00 00 00 00 00
       0.0 0.0 0.0 0.0
000120 00 00 00 00 00 00 00 00 00 00 00 00 00 00 00 00
       0.0 0.0 0.0 0.0
000130 00 00 00 00 00 00 00 00 00 00 00 00 00 00 00 00
       0.0 0.0 0.0 0.0
000140 00 00 00 00 00 00 00 00 00 00 00 00 00 00 00 00
       0.0 0.0 0.0 0.0
000150 00 00 00 00 00 00 00 00 00 00 00 00 00 00 00 00
       0.0 0.0 0.0 0.0
000160 00 00 00 00 00 00 00 00 00 00 00 00 00 00 00 00
       0.0 0.0 0.0 0.0
000170 00 00 00 00 00 00 00 00 00 00 00 00 00 00 00 00
       0.0 0.0 0.0 0.0
000180 00 00 00 00 00 00 00 00 00 00 00 00 00 00 00 00
       0.0 0.0 0.0 0.0
000190 00 00 00 00 00 00 00 00 00 00 00 00 00 00 00 00
       0.0 0.0 0.0 0.0
0001a0 00 00 00 00 00 00 00 00 00 00 00 00 00 00 00 00
       0.0 0.0 0.0 0.0
0001b0 00 00 00 00 00 00 00 00 00 00 00 00 00 00 00 00
       0.0 0.0 0.0 0.0
0001c0 00 00 00 00 00 00 00 00 00 00 00 00 00 00 00 00
       0.0 0.0 0.0 0.0
0001d0 00 00 00 00 00 00 00 00 00 00 00 00 00 00 00 00
       0.0 0.0 0.0 0.0
0001e0 00 00 00 00 00 00 00 00 00 00 00 00 00 00 00 00
       0.0 0.0 0.0 0.0
0001f0 00 00 00 00 00 00 00 00 00 00 00 00 00 00 00 00
       0.0 0.0 0.0 0.0

network_body._body_endoder.seq_layers.2.weight f4 [128, 128]
000000 ca 0c 72 3c 9b 74 2d bc 84 57 32 be 2a 7c 28 bd
       0.014773557 -0.010586883 -0.17416197 -0.041134037
000010 1b 24 ce bd 0e d8 ac 3c 62 5f 1b bd 14 33 1c bd
       -0.1006548 0.021099117 -0.03793276 -0.03813465
000020 cb 0c f3 3d 3a fd 2f 3e 6f 17 45 be 11 2c 0b bd
       0.118676744 0.17186442 -0.1924722 -0.033977572
000030 67 a3 4c 3b 8a 72 49 3d 47 d3 e3 bc c6 3e 8e 3d
       0.0031225325 0.0491815 -0.027810706 0.06945567
000040 27 f7 b0 bd e0 d0 79 bd f8 58 de bd 6e 62 df 3d
       -0.086408906 -0.060990214 -0.10856813 0.10907446
000050 85 7d d6 3d 93 41 82 bd b4 44 67 bd 82 a9 98 bb
       0.1047316 -0.063601635 -0.056462005 -0.004658879
000060 b3 cd 09 be 12 2b ee bd 3b 83 fd 3b df e7 97 bd
       -0.13457374 -0.11629309 0.007736591 -0.07417273
000070 1d cf 2d bd 34 62 37 3e 9e 74 b6 bc 71 ec a7 3d
       -0.042433847 0.17908555 -0.022272404 0.081993945
000080 e3 db 13 3c fa a9 e4 3d c8 1b 6c bd c6 f1 45 bd
       0.009024593 0.11165233 -0.05764368 -0.048326276
000090 e1 76 39 3d 94 3c a6 bd 3a ca ae bd ea 4f 64 bd
       0.045279387 -0.08117023 -0.085346654 -0.055740274
0000a0 a9 f0 96 3c 65 39 59 bd 5f 44 03 3d 44 89 8b 3d
       0.018425303 -0.05303325 0.032047626 0.06813291
0000b0 d4 4a e1 3d 82 10 2c bc d6 08 e7 bd 00 84 56 bd
       0.110006005 -0.010501983 -0.11280982 -0.05237198
0000c0 12 f5 ea 3d 62 9c ea bb ef 3a a7 ba 1e 95 91 bd
       0.11472525 -0.0071597556 -0.0012758652 -0.0710852
0000d0 cc 33 cb 3d e1 a1 8a 3d 6f b6 32 bd 18 46 d8 bd
       0.09921989 0.06769157 -0.043631013 -0.10560244
0000e0 b5 38 25 be 4a 67 4c 3d 47 74 2e 3c ce ba d7 3c
       -0.16134913 0.04990319 0.01064784 0.026334193
0000f0 21 43 9d 3d b4 c2 45 3d 1b 1e 7d bc 0d b6 f5 bb
       0.076788194 0.048281386 -0.015449072 -0.007498509
000100 84 84 bb 3b 4d 0e 28 be b6 2d 5b 3c b5 b2 11 bd
       0.005722584 -0.16411705 0.013377598 -0.03557082
000110 22 42 00 3d 30 50 09 3e fd f4 87 bd 69 75 42 3e
       0.03131307 0.13409495 -0.06638525 0.18990101
000120 15 e6 0b 3e 40 3f 8e bd 3e 91 c4 ba 93 e1 29 3c
       0.13661988 -0.06945658 -0.0014996899 0.0103687225
000130 d6 ee b1 bd f9 b5 b3 bc 7f c7 8b 3d f4 7e e1 bd
       -0.086881325 -0.021937357 0.0682516 -0.110105425
000140 d2 b3 d9 3c d5 27 0a 3d b8 31 0c 3e 03 ea 56 3d
       0.026575003 0.033729393 0.13690841 0.052469265
000150 8b 87 30 3d df 92 58 3d f2 b1 8e 3d fa c2 c2 bd
       0.043098014 0.052874442 0.06967534 -0.09509845
000160 f9 10 1a 3e 8c 9e 08 3e 15 88 03 bd 76 62 54 bb
       0.15045537 0.13341731 -0.0321122 -0.003240732
000170 78 aa 8b 3b cb 10 59 bd 70 fd 02 be 00 51 67 bd
       0.004262265 -0.05299453 -0.12791991 -0.056473732
000180 3e 6e 4f 3e 5f 61 bd 3d ae 2a a4 bd 09 70 d8 bb
       0.20256898 0.09247088 -0.08015953 -0.0066051525
000190 ce 37 ad 3d da d3 96 bd 4c 7c b9 bd 72 44 60 bd
       0.084579095 -0.07364626 -0.09056911 -0.054752775
0001a0 60 17 6a 3c f7 e1 81 bd d7 a8 d1 3d 25 58 0f 3c
       0.0142878 -0.063419275 0.10237282 0.008749043
0001b0 58 f4 6f bd 57 34 48 3d d2 33 57 3d 88 54 08 3e
       -0.058582634 0.04887804 0.052539654 0.13313496
0001c0 7f 22 a0 3d 02 08 57 3d 74 38 fd bd 21 96 9d 3b
       0.078190796 0.05249787 -0.12364283 0.0048091565
0001d0 67 43 2f 3d 03 c3 ec 3b e1 0c d8 bc f1 51 4c 3d
       0.04278889 0.0072253956 -0.026373329 0.049882833
0001e0 02 c4 69 be 9e 2b 68 3d bf e7 d5 3d 59 b6 9e 3d
       -0.22828677 0.05668222 0.10444593 0.07749624
0001f0 be 28 5c 3d da 8e 00 be 88 ba 11 3e 9d 4c 44 3e
       0.053749792 -0.12554494 0.14231312 0.1916985
000200 04 a9 5d bd 1c 6c 63 bc 3f 9d ec bd 7d d6 d0 3d
       -0.054116264 -0.013880756 -0.1155343 0.101971604
000210 ab 3b 29 bc 53 7d f1 bc 53 e5 f7 bd 76 57 54 38
       -0.010329167 -0.029478705 -0.12104287 5.0626193e-05
000220 69 2d 0d be 19 eb 7f bd 72 50 cd 3d e3 08 8e bd
       -0.13786854 -0.062480066 0.10025109 -0.06935289
000230 76 76 41 3d c8 92 4f bd 20 86 e2 bd 15 9e 72 bd
       0.047232114 -0.05067709 -0.110607386 -0.05923279
000240 90 3a 80 bd 83 89 a4 bd 4d c0 34 be eb ad d5 bd
       -0.0626117 -0.08034041 -0.17651482 -0.10433563
000250 a9 32 80 bd 6c e4 08 bd 35 e4 b0 bd c8 de 23 3e
       -0.06259663 -0.033420965 -0.08637277 0.16002953
000260 f7 fa db bd 13 7e 06 bd bc ed ad 3d d9 78 70 3d
       -0.10741227 -0.032835077 0.0849261 0.058709
000270 40 32 b0 bc 2d c4 fa bc 85 c0 26 3c 68 26 be bd
       -0.021508336 -0.030611122 0.010177736 -0.09284669
000280 c8 f4 51 be 90 63 f5 3d 01 ab 86 3e 77 bf f1 bb
       -0.20503533 0.11981881 0.2630234 -0.0073775607
000290 d9 a9 de 3d ea 67 1b 3e 8e 29 98 bb 03 a4 43 3d
       0.108722396 0.15176359 -0.0046436256 0.047763836
0002a0 c3 03 1c 3d 4a 88 89 3d ac ea 36 bd 90 bc 84 3c
       0.038089525 0.06715448 -0.044657394 0.016203195
0002b0 21 05 fb bc 41 e8 08 bd 53 26 9f bd cf 87 3d be
       -0.030642094 -0.03342462 -0.07770982 -0.18508838
0002c0 c9 41 17 bd 30 c8 2f 3c b4 99 a8 3d df c2 91 bc
       -0.036927972 0.010728881 0.082324415 -0.017793117
0002d0 e8 9d 1a 3e 34 0a a7 3d ce 05 90 39 02 93 12 be
       0.15099299 0.08156243 0.00027470145 -0.14313892
0002e0 dc 59 9a 3d 1a 46 e9 bc ab 68 a4 bd cb 37 3d bc
       0.075366706 -0.02847581 -0.08027776 -0.011548947
0002f0 a5 7b 5d bd 8d 9f d5 bc 80 cc 14 be 79 1f b3 3d
       -0.054072995 -0.026077056 -0.14531136 0.08746237
000300 08 a6 a4 3d 07 37 77 bd 7d 92 18 3e e0 44 a0 bd
       0.080394804 -0.060355213 0.14899631 -0.07825637
000310 d5 ed 64 3d c3 20 30 3d 32 19 c6 3d 6e bc 14 bd
       0.055890877 0.042999994 0.096727744 -0.036312513
000320 a8 a9 dc 3d 06 22 4a ba 2b 33 24 3e 56 c5 ab bc
       0.10774547 -0.00077107584 0.16035144 -0.02096812
000330 e2 02 4f 3e e3 26 99 bd 7b 18 82 3e 54 78 aa 3d
       0.20215943 -0.0747812 0.25409302 0.08323732
000340 b0 9f 1e 3e 8f ce a0 bd 63 ae 07 be 3d d9 ad 3c
       0.15490603 -0.07851898 -0.13250117 0.021221751
000350 cb 5c 55 3e 7b e2 26 be 87 96 fe bd f1 69 ce 3c
       0.20836179 -0.16297333 -0.124310546 0.025197001
000360 ba 4a 92 bd 8b 02 26 bd b6 a8 51 bd 63 9a 49 3d
       -0.07143159 -0.04052977 -0.051186286 0.0492195
000370 85 da 2b 3d 3a de 54 3b 02 f0 fc 3d 8d b0 de bb
       0.041956443 0.003248109 0.12350465 -0.006795949
000380 f1 c2 52 be 3b 67 38 3d e6 a2 6d 3d 51 4f c1 3d
       -0.20582177 0.045020323 0.05801668 0.094389565
000390 18 3f d5 3d f0 97 c5 3d a4 e1 9c 3d 09 b0 6a bd
       0.10412425 0.096481204 0.07660225 -0.057296786
0003a0 81 49 c1 bd 0e ea 12 bc 49 13 ab 3d aa be 49 3c
       -0.09437848 -0.008966936 0.08353288 0.012313524
0003b0 f2 c0 da bd 77 49 08 3e 37 e6 58 bd e4 99 28 3d
       -0.10681333 0.13309275 -0.052953925 0.041162387
0003c0 86 32 96 bd f6 3b 81 bd 6f e0 ae bd b4 c8 39 3b
       -0.07333855 -0.06310265 -0.08538901 0.0028348388
0003d0 3b e1 b7 3d b2 f1 f9 3d 85 51 7e bd 8b 24 dc 3d
       0.08978506 0.12204303 -0.06208946 0.107491575
0003e0 d0 73 b3 3d d2 a6 b6 bc 9a 22 fe bd bf aa e1 3c
       0.08762324 -0.022296343 -0.124089435 0.027547238
0003f0 58 d2 aa 3b b9 6b 97 3d 91 fd 77 bb 02 e1 00 bd
       0.005213063 0.07393593 -0.0037840346 -0.031464584

network_body._body_endoder.seq_layers.2.bias f4 [128]
000000 00 00 00 00 00 00 00 00 00 00 00 00 00 00 00 00
       0.0 0.0 0.0 0.0
000010 00 00 00 00 00 00 00 00 00 00 00 00 00 00 00 00
       0.0 0.0 0.0 0.0
000020 00 00 00 00 00 00 00 00 00 00 00 00 00 00 00 00
       0.0 0.0 0.0 0.0
000030 00 00 00 00 00 00 00 00 00 00 00 00 00 00 00 00
       0.0 0.0 0.0 0.0
000040 00 00 00 00 00 00 00 00 00 00 00 00 00 00 00 00
       0.0 0.0 0.0 0.0
000050 00 00 00 00 00 00 00 00 00 00 00 00 00 00 00 00
       0.0 0.0 0.0 0.0
000060 00 00 00 00 00 00 00 00 00 00 00 00 00 00 00 00
       0.0 0.0 0.0 0.0
000070 00 00 00 00 00 00 00 00 00 00 00 00 00 00 00 00
       0.0 0.0 0.0 0.0
000080 00 00 00 00 00 00 00 00 00 00 00 00 00 00 00 00
       0.0 0.0 0.0 0.0
000090 00 00 00 00 00 00 00 00 00 00 00 00 00 00 00 00
       0.0 0.0 0.0 0.0
0000a0 00 00 00 00 00 00 00 00 00 00 00 00 00 00 00 00
       0.0 0.0 0.0 0.0
0000b0 00 00 00 00 00 00 00 00 00 00 00 00 00 00 00 00
       0.0 0.0 0.0 0.0
0000c0 00 00 00 00 00 00 00 00 00 00 00 00 00 00 00 00
       0.0 0.0 0.0 0.0
0000d0 00 00 00 00 00 00 00 00 00 00 00 00 00 00 00 00
       0.0 0.0 0.0 0.0
0000e0 00 00 00 00 00 00 00 00 00 00 00 00 00 00 00 00
       0.0 0.0 0.0 0.0
0000f0 00 00 00 00 00 00 00 00 00 00 00 00 00 00 00 00
       0.0 0.0 0.0 0.0
000100 00 00 00 00 00 00 00 00 00 00 00 00 00 00 00 00
       0.0 0.0 0.0 0.0
000110 00 00 00 00 00 00 00 00 00 00 00 00 00 00 00 00
       0.0 0.0 0.0 0.0
000120 00 00 00 00 00 00 00 00 00 00 00 00 00 00 00 00
       0.0 0.0 0.0 0.0
000130 00 00 00 00 00 00 00 00 00 00 00 00 00 00 00 00
       0.0 0.0 0.0 0.0
000140 00 00 00 00 00 00 00 00 00 00 00 00 00 00 00 00
       0.0 0.0 0.0 0.0
000150 00 00 00 00 00 00 00 00 00 00 00 00 00 00 00 00
       0.0 0.0 0.0 0.0
000160 00 00 00 00 00 00 00 00 00 00 00 00 00 00 00 00
       0.0 0.0 0.0 0.0
000170 00 00 00 00 00 00 00 00 00 00 00 00 00 00 00 00
       0.0 0.0 0.0 0.0
000180 00 00 00 00 00 00 00 00 00 00 00 00 00 00 00 00
       0.0 0.0 0.0 0.0
000190 00 00 00 00 00 00 00 00 00 00 00 00 00 00 00 00
       0.0 0.0 0.0 0.0
0001a0 00 00 00 00 00 00 00 00 00 00 00 00 00 00 00 00
       0.0 0.0 0.0 0.0
0001b0 00 00 00 00 00 00 00 00 00 00 00 00 00 00 00 00
       0.0 0.0 0.0 0.0
0001c0 00 00 00 00 00 00 00 00 00 00 00 00 00 00 00 00
       0.0 0.0 0.0 0.0
0001d0 00 00 00 00 00 00 00 00 00 00 00 00 00 00 00 00
       0.0 0.0 0.0 0.0
0001e0 00 00 00 00 00 00 00 00 00 00 00 00 00 00 00 00
       0.0 0.0 0.0 0.0
0001f0 00 00 00 00 00 00 00 00 00 00 00 00 00 00 00 00
       0.0 0.0 0.0 0.0

action_model._continuous_distribution.log_sigma f4 [1, 48]
000000 00 00 00 00 00 00 00 00 00 00 00 00 00 00 00 00
       0.0 0.0 0.0 0.0
000010 00 00 00 00 00 00 00 00 00 00 00 00 00 00 00 00
       0.0 0.0 0.0 0.0
000020 00 00 00 00 00 00 00 00 00 00 00 00 00 00 00 00
       0.0 0.0 0.0 0.0
000030 00 00 00 00 00 00 00 00 00 00 00 00 00 00 00 00
       0.0 0.0 0.0 0.0
000040 00 00 00 00 00 00 00 00 00 00 00 00 00 00 00 00
       0.0 0.0 0.0 0.0
000050 00 00 00 00 00 00 00 00 00 00 00 00 00 00 00 00
       0.0 0.0 0.0 0.0
000060 00 00 00 00 00 00 00 00 00 00 00 00 00 00 00 00
       0.0 0.0 0.0 0.0
000070 00 00 00 00 00 00 00 00 00 00 00 00 00 00 00 00
       0.0 0.0 0.0 0.0
000080 00 00 00 00 00 00 00 00 00 00 00 00 00 00 00 00
       0.0 0.0 0.0 0.0
000090 00 00 00 00 00 00 00 00 00 00 00 00 00 00 00 00
       0.0 0.0 0.0 0.0
0000a0 00 00 00 00 00 00 00 00 00 00 00 00 00 00 00 00
       0.0 0.0 0.0 0.0
0000b0 00 00 00 00 00 00 00 00 00 00 00 00 00 00 00 00
       0.0 0.0 0.0 0.0

action_model._continuous_distribution.mu.weight f4 [48, 128]
000000 86 69 24 3c de c3 86 3a 2c e6 39 bc 8f 80 a3 3c
       0.010034924 0.0010281762 -0.011346381 0.019958762
000010 e7 16 9d 3b 83 6f 10 bc c7 60 f8 3a bb 1c c3 bc
       0.00479399 -0.008815649 0.001894974 -0.02381741
000020 a7 f1 cc bb 0f a1 7e bc 76 15 15 bc 72 39 95 bb
       -0.006254393 -0.015541329 -0.009099355 -0.004553967
000030 40 90 9f bc 77 b3 42 bb 7f bd 05 bd 89 72 08 3d
       -0.019477963 -0.002970902 -0.03265142 0.033312354
000040 7f 7b 8a 3c 27 06 8d 3b 7c 26 98 3b 28 04 d9 bc
       0.01690459 0.004303712 0.0046432596 -0.02649124
000050 af c4 83 3b 9d 02 2d 3c 8b 66 a3 bc 40 e4 98 bc
       0.0040212492 0.010559705 -0.019946357 -0.018663526
000060 0f be e9 bc 3e 28 29 3b bf 40 f1 3c a5 6f 98 3c
       -0.02853301 0.002581134 0.029449819 0.018607924
000070 18 dd f8 bb fc 5c 9b bc 03 91 e3 3b 80 a6 ff bb
       -0.007594716 -0.018965237 0.006944777 -0.007801831
000080 8d 30 23 bc 5f 10 29 bc fe 5e 14 3c f6 92 a3 3b
       -0.009960306 -0.010318845 0.009055851 0.0049918843
000090 45 81 f4 3c be 02 9f bc be 7c 00 3d e9 34 09 3c
       0.029846797 -0.019410487 0.031368963 0.008374431
0000a0 5f cf f0 3c 93 94 91 bc 60 d8 0e bd 3e 46 22 3c
       0.029395757 -0.017771041 -0.03487432 0.009904442
0000b0 c0 be af bb 93 f2 03 bc 2f b6 33 bc b0 8a 27 3b
       -0.0053633153 -0.00805344 -0.010968729 0.0025564842
0000c0 05 31 5d bc 6b c2 e8 bb 43 e3 cf ba 3d aa 1d bd
       -0.013500457 -0.0071032546 -0.0015860576 -0.03849243
0000d0 e0 dd b0 3c 70 58 ce bc 6d a4 f7 3c 47 de 49 3c
       0.021590173 -0.025188655 0.030229772 0.012321061
0000e0 b3 e0 a9 bc c7 b7 21 bc a1 8f 10 3c a2 29 e5 bc
       -0.020737028 -0.009870476 0.008823306 -0.027973954
0000f0 aa 1d d4 bc f4 23 17 3c 07 9c 94 3c 95 4d c6 3b
       -0.025893051 0.0092248805 0.018140806 0.006051729
000100 6f a7 2a bc 1e 16 4c bb e3 a0 8e bc 93 57 15 bc
       -0.010415896 -0.0031141113 -0.017410701 -0.009115118
000110 f8 60 65 3c c3 d7 f5 bb 56 db 87 3b 40 7c 6f 3c
       0.01400017 -0.0075025274 0.00414602 0.014617026
000120 7d 09 59 3c d0 8e f4 3c e7 ba f4 3a 5d 1e e4 3c
       0.013246891 0.029853255 0.0018671424 0.02784651
000130 d7 d2 52 3b 1a bb 87 bb bd 42 ca ba e2 41 2f bc
       0.0032169127 -0.0041421773 -0.0015431267 -0.01069686
000140 fd 9b 6c bc 58 a4 84 bc b3 65 2d bc 13 45 8a 3b
       -0.014441487 -0.016191646 -0.010583329 0.00421966
000150 34 da 9f 3c 09 58 0a 3b 7f 20 a2 bb 07 a9 52 bc
       0.019513227 0.0021109602 -0.0049477215 -0.012857682
000160 95 88 92 bc b7 ca 48 bc a5 d3 a8 bc f4 62 80 bc
       -0.017887393 -0.012255362 -0.020608732 -0.015672185
000170 e1 9c a7 3b 6a 71 32 bb b8 cc ee bb 8c 20 bb bb
       0.005115137 -0.0027228245 -0.007287588 -0.005710667
000180 ff 91 0f 3b 09 0e 9c 3b a4 e8 b6 3b 8f 9b f6 bb
       0.0021907089 0.0047624153 0.005581932 -0.0075258682
000190 cc 5c 2e bc fb ff 8e bb f0 c7 32 3c 50 22 f7 bc
       -0.010642242 -0.0043640113 0.010911927 -0.030167729
0001a0 d3 de ba 3c 45 57 d8 bc 42 6f 6d 3b 83 39 10 3b
       0.022811329 -0.0264088 0.0036229645 0.0022006936
0001b0 db 02 c7 bc c5 56 30 3c ff 17 e9 bc d4 1e c7 3c
       -0.024293354 0.010762875 -0.028453825 0.024306692
0001c0 89 c3 01 bb c6 42 07 3d c1 13 2c 3c 98 d3 d0 bc
       -0.0019800386 0.033022664 0.010502757 -0.02549152
0001d0 e7 26 3d 3c 3b 3f f3 bb 48 0e 43 bc 9b 6b 8e 3c
       0.01154492 -0.007423309 -0.01190526 0.017385295
0001e0 83 1b 7e 3b f2 94 af bc 70 0a 7c 3c 7a 22 22 3c
       0.0038773722 -0.021433327 0.015383348 0.009895915
0001f0 a9 d9 92 b9 53 8a 03 bd 23 3d 65 ba ae 4e 94 bc
       -0.0002800946 -0.032114338 -0.0008744767 -0.018103924
000200 16 27 1a 3a cf f1 5b bb 37 b2 c5 3c 60 a6 a1 ba
       0.0005880458 -0.0033560877 0.024132831 -0.0012332909
000210 63 f5 d7 b8 bb 21 73 bc ba 9d 70 bc 63 bb da bc
       -0.00010297706 -0.014839585 -0.014686042 -0.026700681
000220 6f 10 dd bb 92 2f 1d 3c 42 5e 21 bc 6b b6 0d 3d
       -0.006746344 0.009593861 -0.009849133 0.034597795
000230 f3 81 63 3c a3 fb fa bc 1b 3d 99 bb a0 d6 6e 3c
       0.013885963 -0.030637568 -0.004676474 0.014577538
000240 db 13 3c 3c 6f 0e f2 3b e6 03 c4 bc 8f ec c6 3c
       0.011479343 0.0073869745 -0.02392764 0.024282722
000250 cd ff 62 bc 20 6d 64 bc 10 0d 6b 3c 8a f2 b9 bc
       -0.013854933 -0.013942033 0.014346376 -0.02269866
000260 85 5a 0c 3d f8 8b 62 3b fb 12 8b b9 92 6c 28 3c
       0.034266014 0.003456829 -0.00026526288 0.010279791
000270 e7 ce 40 bd 9d de ff bb c7 1d 2b bc ad fe f5 3c
       -0.047072317 -0.00780852 -0.010444111 0.030028665
000280 f6 2a 1c bc 60 ea 81 3b 93 6f eb bb d4 2e a0 bc
       -0.009531727 0.0039647073 -0.0071849315 -0.01955358
000290 3b bc b8 bc 32 98 0a bc 4d 75 0d bc 32 af 66 bc
       -0.022550693 -0.008459138 -0.008633924 -0.014079856
0002a0 38 b6 0f bc c0 dd bf bc 3f d2 f3 3c 80 8c f1 3b
       -0.008771472 -0.023421168 0.02976334 0.0073714852
0002b0 c3 68 8f 3c c4 55 32 bc 94 cf ab ba f8 57 e7 bc
       0.017506009 -0.010884706 -0.0013108128 -0.028240189
0002c0 27 f2 2e bc da a5 a3 bb 54 6a 93 3c 7d ef f7 bc
       -0.010677851 -0.0049941363 0.017995037 -0.030265564
0002d0 8f 97 8c 3c 58 fa c7 3b f3 82 6f bc 53 25 9a bc
       0.017162113 0.0061028413 -0.014618623 -0.018816626
0002e0 01 c0 17 3c c3 90 a8 bc 2f 55 4d 3a 0b eb 13 bc
       0.009262086 -0.02057684 0.0007832823 -0.009028207
0002f0 f5 10 2a 3c dd 08 68 bc e6 5e 0e 3c 18 a6 ab bc
       0.010380019 -0.014162269 0.008689618 -0.020953223
000300 93 f8 dd bc d5 4a 60 bc 43 24 e3 bc 03 75 96 bc
       -0.027096068 -0.013689716 -0.027727252 -0.018366342
000310 2f 1e 30 bc cf 9a 04 3c 8a 61 5a 3c db 02 b7 bb
       -0.010749384 0.00809355 0.013328919 -0.005585057
000320 86 68 9d bc e8 e7 db 3c 17 fb 9b bc 1a 62 27 bd
       -0.01921488 0.02684398 -0.019040627 -0.04086504
000330 2e df a1 bc a6 c6 8a 3c 6e a3 b5 bc aa b8 f0 3b
       -0.01975974 0.016940426 -0.022172656 0.0073462324
000340 23 8d 15 3d 1b ce 0e b9 5b b8 02 3b 87 41 44 ba
       0.03651155 -0.00013618956 0.001994631 -0.0007486571
000350 db a0 1e 3c 1b fa 50 3c fb 4c e0 bc 34 10 92 3b
       0.009681906 0.012754942 -0.027380457 0.004457498
000360 03 5c e1 39 74 4e 84 bb 2d 89 7d 3c d8 b0 ff 3c
       0.00042983898 -0.0040376727 0.0154746 0.031212255
000370 80 e8 70 bb 6b f3 24 3a 11 c9 10 3d 76 f1 a4 3b
       -0.0036759675 0.00062923756 0.035348002 0.005033667
000380 a1 1c 15 bc 48 91 9e bb cb 37 64 3b 01 08 3e bc
       -0.009101064 -0.004839096 0.0034823294 -0.011598588
000390 df 4c 43 bc 06 3b 0e 3d 17 43 9d 3c 57 b6 af bc
       -0.011920183 0.034724258 0.01919703 -0.021449251
0003a0 7f 69 42 3d ea d7 b1 bc 8f 03 79 3c 3e d9 1b 3c
       0.04746389 -0.021709401 0.015198602 0.009512244
0003b0 4b df f7 3c a2 b2 74 b8 43 cd 23 3c df 21 9d bc
       0.030257842 -5.8340498e-05 0.009997669 -0.01918119
0003c0 5b 0a 72 3a 8e b3 8d 3c 98 4b 1a bc 33 7a 96 3b
       0.00092331105 0.017297532 -0.009417437 0.004592204
0003d0 08 6b a6 3b fa 71 13 3d b6 f2 87 3c 18 5c 6d bc
       0.005078677 0.03599737 0.016595226 -0.014487289
0003e0 27 8b a7 3b ca bd 52 bc e1 7f 9c bc 0d 61 b0 bc
       0.005113024 -0.012862632 -0.019103946 -0.021530652
0003f0 7a 8b bc 3c 77 29 94 bc f5 34 d0 bb da 58 e9 bc
       0.023015726 -0.018086178 -0.006353969 -0.02848475

action_model._continuous_distribution.mu.bias f4 [48]
000000 00 00 00 00 00 00 00 00 00 00 00 00 00 00 00 00
       0.0 0.0 0.0 0.0
000010 00 00 00 00 00 00 00 00 00 00 00 00 00 00 00 00
       0.0 0.0 0.0 0.0
000020 00 00 00 00 00 00 00 00 00 00 00 00 00 00 00 00
       0.0 0.0 0.0 0.0
000030 00 00 00 00 00 00 00 00 00 00 00 00 00 00 00 00
       0.0 0.0 0.0 0.0
000040 00 00 00 00 00 00 00 00 00 00 00 00 00 00 00 00
       0.0 0.0 0.0 0.0
000050 00 00 00 00 00 00 00 00 00 00 00 00 00 00 00 00
       0.0 0.0 0.0 0.0
000060 00 00 00 00 00 00 00 00 00 00 00 00 00 00 00 00
       0.0 0.0 0.0 0.0
000070 00 00 00 00 00 00 00 00 00 00 00 00 00 00 00 00
       0.0 0.0 0.0 0.0
000080 00 00 00 00 00 00 00 00 00 00 00 00 00 00 00 00
       0.0 0.0 0.0 0.0
000090 00 00 00 00 00 00 00 00 00 00 00 00 00 00 00 00
       0.0 0.0 0.0 0.0
0000a0 00 00 00 00 00 00 00 00 00 00 00 00 00 00 00 00
       0.0 0.0 0.0 0.0
0000b0 00 00 00 00 00 00 00 00 00 00 00 00 00 00 00 00
       0.0 0.0 0.0 0.0

action_model._discrete_distribution.branches.0.weight f4 [1, 128]
000000 73 72 a9 bb b7 9d 08 bb b3 36 c3 3b 0f 88 1f 3a
       -0.005171114 -0.0020845958 0.0059574484 0.0006085643
000010 db 1b 39 bc a9 ef 8f bc a8 c1 8b 39 8f 50 3e bc
       -0.011298145 -0.017570334 0.0002665643 -0.011615886
000020 c4 2b ca 3b c7 e1 ff 3a 40 09 2f 3b f2 28 6f 3c
       0.006169768 0.0019522243 0.0026708394 0.0145971645
000030 47 9e bf b9 4a 2c 64 3b f9 f5 8e bb f7 3d 22 3c
       -0.00036548285 0.0034816437 -0.0043628183 0.009902469
000040 1b 23 b6 3b 86 27 8f bb 33 02 20 bb 95 f8 45 3c
       0.005558384 -0.004368725 -0.0024415373 0.012083192
000050 95 7b f9 3b c7 25 fc bb b1 1b 1c bc a2 f9 90 ba
       0.007613609 -0.007694933 -0.0095280865 -0.0011060725
000060 5d 4d 8b bb 3e c6 ba bc c3 2d 7d bb 53 67 9d bb
       -0.004251166 -0.022799607 -0.0038632012 -0.004803577
000070 9d c3 7e bc 53 85 24 bb 2b ab e5 3b 0d 5c 0f bc
       -0.0155495675 -0.0025103881 0.00700893 -0.008749974
000080 27 ff 28 3c 1f 33 30 3c 8b 2e 9c 3b 27 fa 99 bb
       0.010314739 0.010754376 0.0047662905 -0.00469901
000090 9f 99 8f ba 72 6c f1 3b e5 47 f1 3b 0b 9a 04 3c
       -0.0010955817 0.007367664 0.007363307 0.008093367
0000a0 77 13 12 3b ea f5 54 3b 7d 02 57 3b ea 5f e1 3b
       0.0022289434 0.003249521 0.003280788 0.006877889
0000b0 17 b5 be bc a2 99 0c bc 77 44 04 bc 9d f1 a2 3b
       -0.02327971 -0.008581551 -0.008072964 0.00497265
0000c0 27 9e e1 3a 1c b2 a8 b9 b3 71 12 bc c2 1d f2 39
       0.0017213271 -0.0003217616 -0.008938241 0.00046180008
0000d0 dd 14 20 bb fc cd 1b 3c bf fb e3 bb 8f c1 3c 3c
       -0.0024426498 0.00950956 -0.0069575007 0.011520757
0000e0 c2 37 37 bb f4 22 30 bb c2 ca 76 bb 6f 02 35 bc
       -0.0027956818 -0.0026876302 -0.0037657474 -0.0110479435
0000f0 ea 23 48 3c db e2 00 bc b7 a4 cb 3a ae cb b0 bb
       0.012215594 -0.007866587 0.001553676 -0.0053953743
000100 9d d6 b3 bb 23 eb 2e 3c d7 41 95 3c fb c8 be bb
       -0.0054882304 0.010676178 0.018219871 -0.0058222986
000110 7f 21 4e bc 19 7c 01 bb d5 75 88 bb cd 2c 39 bc
       -0.012581228 -0.0019757806 -0.0041644373 -0.011302185
000120 22 0e f9 bb 9b 59 45 3c c5 c6 f1 3c eb da 4e bc
       -0.0076005617 0.012045289 0.029513726 -0.012625436
000130 bf d8 92 ba 6d a0 1b bc 5b 57 42 3b be 41 bb bb
       -0.0011203511 -0.009498698 0.0029654119 -0.005714624
000140 6a b5 38 3c 8b 53 2b 3c 4f 8f c8 3b 8b 6e 97 3c
       0.011273721 0.01045693 0.0061205993 0.018485328
000150 84 24 38 3b a2 0c fe ba 73 1d d7 3b 8f 0a d2 bb
       0.0028097937 -0.0019382427 0.00656479 -0.00640995
000160 d8 7e a6 bb 22 bd ce 3b fc f2 82 3b 73 7b 92 3b
       -0.005081039 0.0063091675 0.003996251 0.0044702827
000170 12 12 03 3c 5f e9 c4 3b 22 61 b1 b8 d2 1f 79 bc
       0.007999914 0.0060092653 -8.45811e-05 -0.01520534
000180 01 12 3a 3b 33 4a 3c 3c 92 39 be 3b 53 e8 e5 bb
       0.0028392079 0.0114923 0.0058052028 -0.0070162206
000190 c8 8b 79 3c 7d 5a 09 3c 08 e9 25 bb 27 d3 ad 3b
       0.01523108 0.0083833905 -0.00253159 0.0053047123
0001a0 4b 46 df bb ea 96 90 bc 4a 70 fe 3b 26 c5 ca bb
       -0.0068137995 -0.017650086 0.0077648507 -0.0061880527
0001b0 a0 74 fc bc cd 6d 2f 3a 86 0f 2a bc 5a 57 a8 3a
       -0.03081733 0.0006692082 -0.010379678 0.0012843416
0001c0 18 55 81 bc e8 1b 13 bc 2b bc 81 bb bb b1 bb 3b
       -0.015787646 -0.008978821 -0.003959199 0.005727974
0001d0 77 f8 08 3c 98 af f4 3a b8 b4 5e 3b 76 a1 88 3a
       0.00836002 0.0018668054 0.0033982228 0.0010424096
0001e0 fc d9 15 bb f3 d3 d7 bb 29 ec 91 3b 41 2a c0 bc
       -0.0022865525 -0.0065865456 0.0044532013 -0.023457648
0001f0 e7 2c a6 3b 8b 52 86 3c 28 45 a8 ba 68 14 4f bb
       0.0050712707 0.016396781 -0.0012837993 -0.0031597856

network_body._body_endoder.seq_layers.0.weight f4 [128, 805]
000000 f3 94 3e 3d 6c d6 ef 3a af ee fd bc bf 64 a0 bc
       0.046528768 0.0018298156 -0.030997602 -0.01957929
000010 d4 52 88 bb a6 34 df bc e0 d6 66 3c 77 62 22 3c
       -0.0041602645 -0.027246784 0.014089316 0.009911171
000020 41 fb a3 bc 71 12 cc bb a3 56 96 bb bd b6 13 3d
       -0.020017268 -0.0062277843 -0.0045879646 0.036062945
000030 ab 64 f2 3c 28 8d 64 3c 57 8b c6 bc c6 77 5e bb
       0.029589018 0.01394967 -0.024236364 -0.0033945902
000040 35 f1 1f bd 77 80 80 3c c1 46 cc ba 67 b3 e2 3c
       -0.039048392 0.015686257 -0.0015585051 0.027673436
000050 02 4e d0 3c 83 b6 41 3b c7 39 3c bd 96 04 f8 3c
       0.025427822 0.0029558248 -0.04595354 0.030275624
000060 84 81 26 3d 2d 4c 9f bc e9 e9 06 bc 60 43 ec ba
       0.04065086 -0.019445503 -0.008234479 -0.001802545
000070 08 23 ac bb 3e ca db 3c 13 15 f3 bc 2b 71 d8 bb
       -0.0052531995 0.026829835 -0.029673135 -0.0066052875
000080 c7 99 92 3c 4c 9e a3 bc 57 2a 1d 3c 51 cf d3 3d
       0.017895592 -0.019972943 0.009592614 0.10342277
000090 10 84 5c 3d e4 a6 ec 3b 52 dd cc 3c 9f 89 08 3d
       0.053836882 0.0072220434 0.025007877 0.03333437
0000a0 67 62 85 bc 6e 80 c6 3b bb fb db 3b b2 55 37 bc
       -0.016282273 0.0060577905 0.006713358 -0.011189865
0000b0 f4 d9 0f 3d 29 96 2c 3d 56 72 fb 3c 40 e9 f2 3b
       0.035119966 0.04213539 0.030694168 0.0074130595
0000c0 8e 22 16 3d 0d a6 5f 3d 4a eb 9e bc 88 f9 92 bc
       0.036654048 0.054601718 -0.019399304 -0.017941251
0000d0 23 3e ae bc 29 88 0e 3d dc b9 19 bb d7 31 f4 bc
       -0.021269863 0.03479782 -0.0023456728 -0.029808922
0000e0 ce f2 22 3d 9b 72 b5 bd c2 e1 6c bd fb 77 60 bd
       0.039782338 -0.0885975 -0.057832487 -0.054801922
0000f0 ac 1a 23 3d 82 cc 80 3c a9 a2 97 3d d1 c1 4c bd
       0.03982036 0.015722517 0.07404072 -0.049989525
000100 6a 8b 33 3c 57 80 ad 3c 11 5f 8c 3d c2 39 dd bc
       0.010958532 0.021179361 0.0685407 -0.02700508
000110 82 fb 0c 3d 41 84 14 bd c7 db 9b 3c 0d 75 22 bc
       0.034419544 -0.03625894 0.019025696 -0.009915602
000120 37 5b 50 3c 15 d7 36 bd 7d 0e a8 3c ce 57 0f bd
       0.01271706 -0.044638712 0.020514721 -0.034995846
000130 93 06 16 bc c8 c0 90 3d 9e 2e ca bb fe 23 c1 3c
       -0.009156841 0.0706802 -0.006170108 0.023576733
000140 9b 44 13 ba ff 23 be bc 66 1e 64 3c 28 ca 86 bc
       -0.0005617828 -0.023210524 0.013923263 -0.016453817
000150 24 b4 1d 3d b6 fb c3 3c 19 78 a0 3c 85 14 97 3d
       0.038501874 0.023923736 0.019588517 0.07376961
000160 c8 5b b1 3b 5b e2 09 bd 57 a3 40 3d 0b ed 69 bd
       0.0054125525 -0.033663135 0.047030773 -0.057110827
000170 f2 06 32 bd bd 3a b2 bc ac 73 94 3c 09 5b 01 bc
       -0.043463655 -0.021756524 0.018121563 -0.00789524
000180 85 41 2e bd d8 3f 2e 3d 00 a3 ca bb f1 46 b0 3c
       -0.042542953 0.042541355 -0.006183982 0.021518202
000190 48 10 64 3b f0 80 ab bc 66 dc 8f 3c a4 ff cf 3b
       0.0034799743 -0.020935506 0.017561149 0.0063476134
0001a0 7d cc e9 bc 5d 55 62 3c 47 2d 47 bd 0d b3 57 bd
       -0.02853989 0.0138142975 -0.048627164 -0.05266099
0001b0 6e 54 71 3d 15 65 8c ba 9d 27 d9 bc 19 e8 2c 3d
       0.05891841 -0.0010711277 -0.026508147 0.042213533
0001c0 c1 9d e4 3a ab c0 71 3c 59 e1 b2 bc 64 9c c9 3c
       0.0017442034 0.014755408 -0.02183597 0.024610706
0001d0 c0 7c 3b 3c 1d 59 80 3c 48 8a e5 bc 61 ce 8a bc
       0.011443317 0.015667493 -0.02802004 -0.016944112
0001e0 3d 15 6f 3c b8 07 26 bd 86 ac dc bc b9 22 44 bc
       0.014592466 -0.040534705 -0.026937734 -0.011971169
0001f0 98 06 27 bd 5d 71 aa 3c ea 9a a0 bc ff 76 80 3c
       -0.040777773 0.020806009 -0.019605119 0.015681742
000200 6a 2a 5d bc e9 8d 1c 3d 27 7c 69 3c 44 5f b8 3c
       -0.013498882 0.038221274 0.014250792 0.022506364
000210 b0 a4 3b 3d 1f 00 4a 3c 2e cb 9e bc 92 46 76 3c
       0.045811355 0.01232913 -0.019383993 0.015031474
000220 6e dc 8e bc f6 47 36 3c da 3b bc 3c 33 c7 84 bc
       -0.017439093 0.011125555 0.022977758 -0.016208267
000230 2b e8 8b bb 9d 0e f4 bc d2 62 a6 bc 3a bc 3b 3c
       -0.00426962 -0.029792124 -0.020310793 0.011458451
000240 26 6d 4d 3d 10 da 78 bc 0d 1d b4 3c ac 16 c4 bb
       0.05015292 -0.015188709 0.021986509 -0.005984148
000250 02 41 93 bc 3a 92 01 bd 95 68 29 bd 18 33 eb bc
       -0.017975334 -0.031633593 -0.041359503 -0.028710887
000260 5f 99 34 3d cf 51 09 bc de a9 49 bd b6 2f 0c bd
       0.04409158 -0.008381321 -0.049234264 -0.03422519
000270 a3 8d 46 bb 48 c3 2a 3d 92 ea 08 bd e4 f6 5d bd
       -0.0030296824 0.04169014 -0.03342683 -0.05419053
000280 1f ed ca bc 73 56 09 bd cb 04 45 3d 59 44 47 3d
       -0.024771271 -0.03352971 0.048100274 0.048649166
000290 2f 3e eb 3c 97 e6 c4 3c ab 39 88 bc 68 30 fd 3c
       0.028716175 0.024035735 -0.01662906 0.030906871
0002a0 ba 39 bd bc 48 eb 76 bb e5 28 0a bd a5 70 2c bd
       -0.023098815 -0.003767686 -0.033730406 -0.042099614
0002b0 54 29 35 bc 9a 7a 90 bc c4 0c 25 bb 5b 33 05 3d
       -0.011057217 -0.017636586 -0.002518461 0.03251968
0002c0 21 e1 41 3d 0d e7 79 bd 40 0f cb bc f8 96 1a 3d
       0.04733384 -0.061011363 -0.024787545 0.03774163
0002d0 fb 24 a1 bc 46 10 a5 bd 10 b7 df 3c 7f 8e a8 3b
       -0.019670954 -0.080597445 0.02730897 0.00514394
0002e0 14 b1 b6 3c b5 46 dc 3b 1f 7c 1f 3c f6 28 e5 3c
       0.022301234 0.006722296 0.009734183 0.027973633
0002f0 38 07 8b 3c e2 c6 84 3b 1e 61 f0 3c 92 68 8d bc
       0.016971216 0.004052029 0.029343184 -0.017261777
000300 dd b4 09 3d 15 55 85 bd 68 49 4b bc 88 b0 4e 3d
       0.03361975 -0.06510369 -0.012407638 0.050461322
000310 69 22 1c 3d 18 cf 6a 3d e3 f2 8c 3d de 67 44 bc
       0.038118754 0.057326406 0.068822645 -0.0119876545
000320 3c ef e6 3c d6 c6 c5 bc 5b ba 4e 3c 2f 2f 80 bd
       0.028190248 -0.024142664 0.012617673 -0.062589996
000330 d9 82 15 3c fc 70 0c 3d 0b 95 be bb 39 05 91 3d
       0.009125435 0.034287438 -0.005816107 0.07081074
000340 38 1b 47 3c 90 d6 17 bd a5 96 e8 3b bb 97 ec bc
       0.012152486 -0.037069857 0.0070980364 -0.028880944
000350 ef f3 28 3c 25 d1 d9 3b 26 16 e4 bc fb c0 33 3d
       0.010312065 0.0066472464 -0.027842592 0.043885212
000360 7c f1 5b 3d 68 61 09 3d 57 bf 6d 3c e1 98 64 bd
       0.053697094 0.03354016 0.014510951 -0.05580986
000370 50 53 ad bb d0 1a 75 bb 6f 27 a4 3d df d7 a5 3c
       -0.0052894726 -0.0037400015 0.08015334 0.020244537
000380 6b 37 bb bc 15 26 b7 3c 04 2f c1 3c 8e 44 41 3c
       -0.022853574 0.022357026 0.02358199 0.01179613
000390 ea 70 b8 bc a7 4d 2a 3d c7 16 d1 bc ab 25 c4 bd
       -0.02251478 0.04157796 -0.025523556 -0.09577497
0003a0 23 39 19 3c ef 05 bc bc f5 05 84 3d 6d ec 89 bc
       0.009352001 -0.022952048 0.06446449 -0.01683637
0003b0 71 41 a8 3d 07 8e 94 bb a9 de 63 3c 57 d0 37 bb
       0.08215607 -0.0045335325 0.013908067 -0.0028047764
0003c0 a5 d6 07 3d 27 a2 f2 bc fb 2f 7f 3c d6 bc b6 3c
       0.033163685 -0.029618336 0.015575404 0.02230684
0003d0 c8 dc 92 3c 50 af 3e bd 31 0e c2 bc 52 d1 63 bc
       0.017927542 -0.04655391 -0.023688408 -0.013904886
0003e0 7f eb 41 bc 3c de cb ba 95 74 a6 3c 6c 9e 64 3d
       -0.011835932 -0.0015553902 0.020319263 0.055815145
0003f0 de 74 d6 bc ae 3c 41 bd 53 b1 00 3d d6 d8 1e 3c
       -0.026178773 -0.04717701 0.03141911 0.009695252

network_body._body_endoder.seq_layers.0.bias f4 [128]
000000 00 00 00 00 00 00 00 00 00 00 00 00 00 00 00 00
       0.0 0.0 0.0 0.0
000010 00 00 00 00 00 00 00 00 00 00 00 00 00 00 00 00
       0.0 0.0 0.0 0.0
000020 00 00 00 00 00 00 00 00 00 00 00 00 00 00 00 00
       0.0 0.0 0.0 0.0
000030 00 00 00 00 00 00 00 00 00 00 00 00 00 00 00 00
       0.0 0.0 0.0 0.0
000040 00 00 00 00 00 00 00 00 00 00 00 00 00 00 00 00
       0.0 0.0 0.0 0.0
000050 00 00 00 00 00 00 00 00 00 00 00 00 00 00 00 00
       0.0 0.0 0.0 0.0
000060 00 00 00 00 00 00 00 00 00 00 00 00 00 00 00 00
       0.0 0.0 0.0 0.0
000070 00 00 00 00 00 00 00 00 00 00 00 00 00 00 00 00
       0.0 0.0 0.0 0.0
000080 00 00 00 00 00 00 00 00 00 00 00 00 00 00 00 00
       0.0 0.0 0.0 0.0
000090 00 00 00 00 00 00 00 00 00 00 00 00 00 00 00 00
       0.0 0.0 0.0 0.0
0000a0 00 00 00 00 00 00 00 00 00 00 00 00 00 00 00 00
       0.0 0.0 0.0 0.0
0000b0 00 00 00 00 00 00 00 00 00 00 00 00 00 00 00 00
       0.0 0.0 0.0 0.0
0000c0 00 00 00 00 00 00 00 00 00 00 00 00 00 00 00 00
       0.0 0.0 0.0 0.0
0000d0 00 00 00 00 00 00 00 00 00 00 00 00 00 00 00 00
       0.0 0.0 0.0 0.0
0000e0 00 00 00 00 00 00 00 00 00 00 00 00 00 00 00 00
       0.0 0.0 0.0 0.0
0000f0 00 00 00 00 00 00 00 00 00 00 00 00 00 00 00 00
       0.0 0.0 0.0 0.0
000100 00 00 00 00 00 00 00 00 00 00 00 00 00 00 00 00
       0.0 0.0 0.0 0.0
000110 00 00 00 00 00 00 00 00 00 00 00 00 00 00 00 00
       0.0 0.0 0.0 0.0
000120 00 00 00 00 00 00 00 00 00 00 00 00 00 00 00 00
       0.0 0.0 0.0 0.0
000130 00 00 00 00 00 00 00 00 00 00 00 00 00 00 00 00
       0.0 0.0 0.0 0.0
000140 00 00 00 00 00 00 00 00 00 00 00 00 00 00 00 00
       0.0 0.0 0.0 0.0
000150 00 00 00 00 00 00 00 00 00 00 00 00 00 00 00 00
       0.0 0.0 0.0 0.0
000160 00 00 00 00 00 00 00 00 00 00 00 00 00 00 00 00
       0.0 0.0 0.0 0.0
000170 00 00 00 00 00 00 00 00 00 00 00 00 00 00 00 00
       0.0 0.0 0.0 0.0
000180 00 00 00 00 00 00 00 00 00 00 00 00 00 00 00 00
       0.0 0.0 0.0 0.0
000190 00 00 00 00 00 00 00 00 00 00 00 00 00 00 00 00
       0.0 0.0 0.0 0.0
0001a0 00 00 00 00 00 00 00 00 00 00 00 00 00 00 00 00
       0.0 0.0 0.0 0.0
0001b0 00 00 00 00 00 00 00 00 00 00 00 00 00 00 00 00
       0.0 0.0 0.0 0.0
0001c0 00 00 00 00 00 00 00 00 00 00 00 00 00 00 00 00
       0.0 0.0 0.0 0.0
0001d0 00 00 00 00 00 00 00 00 00 00 00 00 00 00 00 00
       0.0 0.0 0.0 0.0
0001e0 00 00 00 00 00 00 00 00 00 00 00 00 00 00 00 00
       0.0 0.0 0.0 0.0
0001f0 00 00 00 00 00 00 00 00 00 00 00 00 00 00 00 00
       0.0 0.0 0.0 0.0

network_body._body_endoder.seq_layers.2.weight f4 [128, 128]
000000 06 f9 02 3d cd 81 d4 3c 22 5b b1 bd 2f 85 24 3c
       0.03197577 0.0259408 -0.0865996 0.010041519
000010 51 62 64 bd 9b ae 63 bc 3e f6 e8 3d 02 90 29 be
       -0.055757824 -0.01389661 0.11375092 -0.16558841
000020 fc 2c 37 3d 86 93 fa bd 52 0f 63 bd 6a ab 3f be
       0.044720635 -0.12235169 -0.055434532 -0.18717733
000030 57 91 12 3d 3d a2 fb bd 84 0b 40 bc 2d 75 4b 3d
       0.035783138 -0.12286804 -0.011721496 0.049672294
000040 6e fd f0 3d 22 70 e7 bb b0 a5 a1 bd 5c 01 32 3d
       0.11767088 -0.007062928 -0.078929305 0.043458328
000050 77 52 d8 bb 81 cb dd bd ac bd 51 bd 5a fe e6 3b
       -0.0066016275 -0.10829831 -0.051206276 0.007049364
000060 3a 08 ca 3b 0e 51 e3 bd 6c bb 6f bb 24 16 59 bc
       0.0061655315 -0.11099444 -0.0036580218 -0.013249908
000070 c0 f2 f7 3d 25 2c ba 3b cb 02 8c 3d 9e 2f d4 bd
       0.12106848 0.005681532 0.0683647 -0.10360645
000080 82 78 22 bc 72 4a 60 3d 56 4c eb bd 87 55 61 3d
       -0.009916427 0.054758497 -0.11489169 0.055013206
000090 f1 1a 94 bd 6b c1 93 bc a7 29 36 ba 8e bd cf bd
       -0.07231701 -0.018036565 -0.00069489557 -0.101435766
0000a0 4f 5e bf 3d b7 aa 0f 3e 01 97 07 bd 96 a2 ab 3c
       0.0934416 0.14029966 -0.033102993 0.02095155
0000b0 af 6b c5 3c 76 83 01 be 79 11 1f 3e 9b 59 99 bd
       0.0240992 -0.12647805 0.15534009 -0.07487794
0000c0 56 09 bc bc 7e f0 89 3d 7d ba 21 bd 79 d0 99 3d
       -0.02295367 0.06735323 -0.03948449 0.07510466
0000d0 82 8c e9 bd 90 12 98 bd 8d e8 be 3c 91 cd 8c 3d
       -0.11403753 -0.074254155 0.023304248 0.06875146
0000e0 b5 9b 26 3e 1e 21 f7 3d 98 2c a8 bc 30 2a b8 bd
       0.16270335 0.120668635 -0.020529076 -0.089924216
0000f0 94 55 6b 3e 7e 24 d8 bd 54 4c 20 be 73 c3 b6 3b
       0.22981864 -0.10553835 -0.15654117 0.0055774986
000100 e2 03 f7 3d ae c3 a9 3d c7 6a 83 3c 2a d7 f4 3b
       0.120612875 0.08289276 0.016042126 0.0074719386
000110 ea ae 27 3e 9f d3 f1 3c 2a 95 aa ba 94 75 35 bc
       0.16375318 0.029519854 -0.0013014425 -0.011075396
000120 a3 51 a4 3c 2b 0b 30 3c fa 04 00 3e b6 83 b4 3a
       0.020058459 0.01074485 0.12501898 0.0013772163
000130 19 70 d6 3d d1 0f df 3c 5d 0f 09 3d 7b f2 fe 3c
       0.104706 0.027229222 0.033461917 0.031121483
000140 31 4d a3 3d 22 6e 8c 3d b7 24 14 bd c2 17 0b 3d
       0.079737075 0.06856944 -0.036167827 0.033958204
000150 66 6b 82 3c 6b 21 07 be 4c 12 66 3c d1 07 34 bc
       0.015920352 -0.13196342 0.014042448 -0.010988192
000160 6c 65 41 be e3 bc f0 bd 05 92 39 3c 8f 96 b5 3d
       -0.18886346 -0.11754777 0.011326318 0.088666074
000170 00 5a b0 3d c8 77 12 3d a9 c7 a9 bc 39 46 8e bd
       0.08610916 0.035758764 -0.020725088 -0.06946988
000180 73 a1 03 3d 02 57 b2 3c 81 e7 05 be 96 1c 89 3d
       0.03213639 0.021770004 -0.13076593 0.066949055
000190 8d 89 80 3d 87 89 b5 3c 18 34 6d 3d 52 3b 8a 3d
       0.06276236 0.022160305 0.05791101 0.06749596
0001a0 ab 91 8d 3d 8f 6a 05 be 2b 50 82 3c 33 08 1d bc
       0.069125496 -0.1302893 0.015907368 -0.009584474
0001b0 f4 94 9f 3d 9c 24 e2 3d 3a 09 4a bd 39 9d ec bc
       0.077920824 0.11042139 -0.049325205 -0.028883563
0001c0 b9 76 62 bd 81 03 cd bd 01 f9 09 be a0 51 92 bd
       -0.055289004 -0.10010434 -0.13473894 -0.07144475
0001d0 ce 98 71 3d 38 a4 33 bd a4 ea dc 3d 29 42 bf 3d
       0.058983617 -0.043857783 0.10786942 0.09338791
0001e0 4b 1f a1 bd 18 e6 06 be 2e 9d c6 3d d5 51 65 bc
       -0.07867297 -0.13173711 0.096979484 -0.013996561
0001f0 25 b1 25 3b fd 05 a4 3c db 8c 28 3c b6 5b 17 3e
       0.0025282588 0.020022387 0.010287489 0.14781079
000200 b1 82 c5 3d b1 e3 be bd 5f b9 4b bc 21 79 43 be
       0.09644068 -0.093207724 -0.012434333 -0.19089176
000210 7e c4 2b 3d 27 44 f1 3c 45 42 c7 3d 5d bd d8 3d
       0.041935436 0.029451443 0.09729437 0.10582993
000220 d9 a8 00 bd b4 34 36 3c 09 ed 72 bd e1 45 07 bd
       -0.031411026 0.011120964 -0.059308086 -0.033025626
000230 d3 23 95 3c 72 1c dd 3d b1 c9 30 3e d1 6e 43 bd
       0.018205559 0.10796441 0.17264439 -0.047713105
000240 ec 35 19 3d d2 63 b4 3c cc 81 36 bd f0 95 48 3d
       0.03740494 0.022020254 -0.044557378 0.048971117
000250 e2 fb db bd 32 f1 4a bd 0d 31 1a bd 85 6a 03 3d
       -0.10741402 -0.049546428 -0.037644435 0.032084007
000260 89 de 40 3d 6d ba 16 3d 18 ad 8e bc 47 4e 48 bd
       0.047087226 0.036798883 -0.017416522 -0.048902776
000270 c7 6d 87 bd 4f a5 f3 bd aa b0 84 3d 9d 08 39 bb
       -0.06612735 -0.118967645 0.064790085 -0.0028233894
000280 23 85 50 3e e2 7c 64 3d a2 64 8b bd bd 47 92 bc
       0.20363288 0.05578316 -0.068063036 -0.017856473
000290 9b 36 6f 3d f7 97 8d 3c 7b 5d ca 3b c3 c0 ed 3d
       0.058401685 0.017284377 0.0061756945 0.11609032
0002a0 5a cd 97 3d 89 f1 55 be 8f da cc 3d 49 9f f4 bd
       0.074122146 -0.2089292 0.10002624 -0.11944444
0002b0 ea 34 04 be 75 99 b0 3d 1d 76 75 bd b2 57 fc 3d
       -0.1291081 0.086230196 -0.059927095 0.12321414
0002c0 88 fd e1 3c de 93 7e 3d 2d fd fc 3b 8b a4 8b 3c
       0.027586713 0.062152736 0.0077206106 0.017046234
0002d0 fc 6e 3f 3d 58 8d 8b bd 14 35 cb 3d 9f 08 8a 3d
       0.046736702 -0.068140686 0.09922233 0.067399256
0002e0 a5 62 3c 3d eb cf 8e 3d 61 3f 04 be 41 79 f9 bd
       0.045992512 0.06973251 -0.12914802 -0.121813305
0002f0 ba 98 3f bd a8 be 9d 3d 43 c8 fa bd 26 6f c7 3d
       -0.04677651 0.077023804 -0.12245228 0.09737997
000300 24 be 47 bc e6 de 32 3d 72 cc 41 be e3 43 ca 3d
       -0.012191329 0.043669604 -0.18925646 0.098762296
000310 cd 3e 3f bc 5e 53 9e 3d 1e 0e 7c bd ea f3 96 bc
       -0.011672688 0.07730745 -0.0615369 -0.018426854
000320 bf f1 e1 3d 2b 0a 1a 3e e5 5d 68 be 6b 5f ff bd
       0.110324375 0.15042941 -0.22692068 -0.124693714
000330 94 2c 6f bb 10 c0 76 3d 4e 6b 19 be f4 a0 a0 bd
       -0.0036495076 0.06024176 -0.1498234 -0.07843199
000340 b1 8c cd 3c c5 3e 43 3d 55 0f 65 bd 03 ed ac bd
       0.025091501 0.047667284 -0.055922825 -0.08443644
000350 57 1b be bc 6d 8e ad 3d 05 d7 35 3e c4 b9 02 3d
       -0.023206396 0.08474431 0.17757805 0.03191544
000360 3d 47 c0 bc 17 07 56 3d 4e f4 8b bd ce 77 cb bd
       -0.023471469 0.052252855 -0.06833707 -0.0993496
000370 69 de 0d 3c 8d c7 e7 3b 58 14 53 3e 45 c7 0f be
       0.008658984 0.007073349 0.2061323 -0.14040859
000380 1f 5c 4c bc 5b 80 3a 3e 39 c6 cb bc ca 05 91 3d
       -0.012473135 0.18213026 -0.024874793 0.07081182
000390 48 1f 6b 3d 05 70 c0 3d c5 2c c9 ba 5c 70 8c 3d
       0.05740288 0.09396366 -0.0015348425 0.06857368
0003a0 d8 63 dd bd d0 07 8b ba cb 69 40 3d a6 c9 52 3d
       -0.10810059 -0.0010607187 0.046975892 0.05146184
0003b0 b0 b7 31 3d 09 af ef bc cf b7 ba bd 85 ed ac bc
       0.04338807 -0.029258268 -0.0911709 -0.021109352
0003c0 54 a0 3a bd 20 80 22 bd cb 95 82 3c af bb 07 be
       -0.045563057 -0.03967297 0.015940567 -0.1325519
0003d0 30 c5 e0 bc 17 94 b3 3e 0f 2d 54 bd 42 13 11 3e
       -0.027437776 0.3507392 -0.051800784 0.14167503
0003e0 39 e5 6f bc 73 95 c2 3d 56 b7 f9 bc 4c 97 e7 bd
       -0.014642053 0.095011614 -0.03048293 -0.113081545
0003f0 22 a2 31 3e 3a 03 01 be 81 a2 92 bc 9e 10 65 bd
       0.17347005 -0.12598887 -0.017899754 -0.05592405
