results/baseball1/Baseball/Baseball-7517.onnx (onnx, 510855 bytes, 7 tensors)

network_body._body_endoder.seq_layers.0.weight f4 [128, 805]
00000000: 6969 11bc 2ca0 5abd 2b9e 213d c7d6 af3a
00000010: 84a7 e23c 50d1 b0bc 73d0 913c 2e4d 5fbc
00000020: 3a3c a4b9 7a13 933a 2f66 30ba 1261 2dbd
00000030: bdd5 aa3c 0a41 e2bc 45be 9ebb 5ab1 4ebd
00000040: b51b bebc c83d 20bd 767a a33c 47d5 163d
00000050: a08c fa3c 5b90 82bc 5c86 763c fdea ea3c
00000060: a060 853c c9d0 fbbc c8ef 003d 1914 983d
00000070: 980f 0b3d 26cf 0bbc 26ce b4bd c162 47bd
00000080: 7c12 2f3d b17b a6bd 287c 94bc 0488 04bd
00000090: 8170 d5bc b324 a6bb 3fdc ba3c 63a3 633c
000000a0: 638e a03c bba4 4fbc 5b00 a1ba 12b1 f13c
000000b0: 6477 913d 373c dc3c 339e 2eba 9004 8d3b
000000c0: 1114 223d 1adc 213c 2336 b73c 7e4a 1ebc
000000d0: 081f 153d e868 dcba 80a5 91bb e774 d4bb
000000e0: 1e80 1a3d 3db1 4fbb fbe8 99bc 2039 453a
000000f0: 0950 daba 04a6 783d a105 893c d652 61bc
00000100: acb9 18bd 52e5 fc3c dbc0 e6bc 035f 833c
00000110: a64a 47bd f00e dabb 98f8 1dbc 6933 56bd
00000120: daaf f63c 03e8 723b 7dbb 90bd 05ec 55bb
00000130: 0ab9 443b 0468 14bc a707 9e3c 0d3c d3bc
00000140: e80c 543c e21a d33c 4f5c d23c c4a3 393d
00000150: 6b15 213d 4c14 b6bc 70b1 733b df4d 81bd
00000160: b077 95bc 44b4 c7bc a9d3 afbc 8ce2 723c
00000170: 4e32 9ebb df2e 983c 0071 8e3d 375f 783c
00000180: ad89 96bc a9ec 933c 4ae9 82bc b00e 3d3b
00000190: 99c3 b3ba 023f 19bd 1f65 97bd effd 18bd
000001a0: 923f 813a 72b2 bebb 416e b9bd 0459 75bb
000001b0: efae 86bc d423 5bbd 1cd1 863c e043 b43d
000001c0: 6892 2bbd 3487 63bd e21c 32bd 5e68 1e3d
000001d0: 81a5 8cbb 3857 89bb 936f 94bc a4f8 acbc
000001e0: ad99 f0bc b7ee 6b3b 6f55 1d3c 7606 c63c
000001f0: 5c49 2a39 eeed 38bc 1de5 0c3d bea4 9f3a
00000200: 304c 2c3c f5e3 c6bc 413d 4f3c 39c0 053a
00000210: 2dc7 9cbc 95f9 593d 8699 c53c 9c0d 783d
00000220: ee2e cb3c 3e8c 343c f099 f33a b016 3dbc
00000230: 23b5 afbc 7e8e 463c 084f 933c 2868 493d
00000240: 5ec1 f43a 95bf dd3b 5509 8ebd 0236 80ba
00000250: bf83 bf3c 332e a5bc c192 863c f74f 313d
00000260: ad7b 183d a259 dabc 6a05 993c 6ce0 39bd
00000270: fa89 a33b 642e 8c3c 6e00 0dbc 8dac 76ba
00000280: 7f43 083d e2ec 09bd 74a1 733d 71d7 38bd
00000290: eca4 993a c29e 38bd 3028 20bd 95c2 dcbb
000002a0: 08c4 f63c 0d8d 243c 0897 9b3b 5396 cbbb
000002b0: d672 4abd 40ac 713d 5662 8d3d d089 d73c
000002c0: 42eb 51bd 5f81 323d b8cb fd3b 9387 19bd
000002d0: 9c95 56bc fe8f 843c 724d aebb afb1 92bc
000002e0: f8a2 f23c 61fd 86bd 958d 773d 503f b6bc
000002f0: e045 543c e3ea 22bd 7f46 bd3c 5826 46bd
00000300: 61fc a83d 8cdd 3fbb 2493 18bd 67dc 9c3c
00000310: 5d43 8dbd 2d32 323d 1ed1 903d cdb5 1cbd
00000320: e641 153d 5647 acbb 61ae f3bb 3c01 b83c
00000330: 9ad8 4e3c 881e ff3a f1c6 4f3b f753 6d3b
00000340: 4179 5d3d 11b0 8cbc 1d3d d93c d962 6a3c
00000350: dd01 853c aad9 763c fcac e838 d37f 573c
00000360: 9a12 ef3c 63ae 9cbd e267 c5bc 737a 063d
00000370: d774 16bc bd7c cdbc 0347 c73c 4043 1dbc
00000380: 829f dcbc 9e4c 60b9 56f1 92bc cd44 913c
00000390: 6178 083d b7bd 52bd 08c1 8e3c d1e5 03bd
000003a0: bb79 03bd 6f62 0dbd 1201 20bc 8876 013d
000003b0: 2098 1dbd 8202 793c 5a20 b83c 7ccb 8cbd
000003c0: c723 41bc a5f5 463d cf2d b1bc 0813 e8bc
000003d0: 47a0 dcbc ec4b aabc 2fcd 4a3d 92c1 3dbd
000003e0: d934 b23c 885e a13d a807 71bc 63b8 94bc
000003f0: 991a 773c 5153 e3bc 4b08 223d a2a8 103b
-0.008875229 -0.053375408 0.03945748 0.0013415449 0.027667768 -0.021584183 0.017799592 -0.013629241
-0.0003132539 0.0011221014 -0.0006729094 -0.0423289 0.020853871 -0.027618904 -0.0048444592 -0.050462104
-0.023206571 -0.03912142 0.019955855 0.03682449 0.030584633 -0.015937975 0.015046682 0.028676504
0.016281426 -0.030739205 0.031478673 0.07425708 0.03395042 -0.008533275 -0.08828382 -0.048678163
0.042742237 -0.08129061 -0.018125609 -0.032356277 -0.026054623 -0.005070293 0.0228101 0.013893935
0.019599145 -0.012673552 -0.0012283431 0.029503379 0.0710285 0.026884181 -0.0006661147 0.0043035224
0.039569918 0.009879136 0.022364682 -0.009661315 0.036406547 -0.0016815932 -0.004444778 -0.0064836624
0.03771984 -0.0031691336 -0.018787852 0.0007523466 -0.0016655932 0.0607052 0.016726317 -0.01375266
-0.037286445 0.030871067 -0.028168133 0.016036516 -0.048655175 -0.0066546127 -0.009641789 -0.052295122
0.03011315 0.003706456 -0.070670106 -0.00326419 0.0030017518 -0.009058002 0.019290758 -0.02578547
0.01294253 0.025769655 0.025678782 0.045322195 0.039327066 -0.022226475 0.0037184618 -0.06313681
-0.018245548 -0.02437795 -0.021463232 0.014824521 -0.004827774 0.018577037 0.06955147 0.01515942
-0.018376196 0.018057184 -0.015980382 0.0028847866 -0.0013714909 -0.037413605 -0.07392334 -0.037351545
0.0009860864 -0.005819612 -0.090542324 -0.003743709 -0.016440837 -0.053500965 0.016457133 0.08802009
-0.04188767 -0.05554886 -0.043484576 0.03867375 -0.0042921905 -0.0041913055 -0.018119609 -0.021114655
-0.029370153 0.003600044 0.0096028885 0.024173003 0.00016239792 -0.011287196 0.034398187 0.0012179834
0.010516211 -0.02427862 0.012648881 0.0005102191 -0.019137943 0.053216536 0.024121057 0.060559854
0.024802651 0.0110197645 0.0018585306 -0.011541054 -0.021448677 0.012118934 0.017982021 0.049171597
0.001867335 0.006767223 -0.06935374 -0.0009781721 0.023378251 -0.020163631 0.0164274 0.04328915
0.03722732 -0.026654068 0.01867934 -0.04538004 0.0049908133 0.017111965 -0.0086060595 -0.00094098673
0.033267494 -0.033673175 0.059480146 -0.045127336 0.0011722124 -0.04507328 -0.039100826 -0.006737063
0.030122772 0.010043395 0.004748229 -0.0062129884 -0.049425922 0.05900216 0.06903522 0.026310831
-0.05124975 0.04358041 0.0077452324 -0.03748281 -0.013097193 0.016181942 -0.005319291 -0.017906992
0.029618725 -0.06591297 0.060437758 -0.022246987 0.012956113 -0.039774787 0.023104904 -0.04837641
0.082512625 -0.002927634 -0.0372497 0.019148065 -0.06897614 0.043504883 0.07071136 -0.038259316
0.0364398 -0.0052575273 -0.007436559 0.022461526 0.012624884 0.0019464055 0.0031704272 0.0036213377
0.054070715 -0.017173799 0.026518399 0.014305794 0.01623624 0.015066544 0.00011094843 0.013153034
0.029183675 -0.07650449 -0.024097387 0.03283162 -0.00918313 -0.025083894 0.024325853 -0.009598553
-0.026931528 -0.00021390847 -0.017937344 0.017733002 0.033317927 -0.051450457 0.017426029 -0.032201592
-0.032098513 -0.0345177 -0.00976588 0.03160718 -0.038475156 0.015198352 0.022476364 -0.06874749
-0.011788315 0.04857411 -0.021628289 -0.028329387 -0.026931895 -0.020788155 0.049512085 -0.04632718
0.021753715 0.078793585 -0.014711298 -0.018154329 0.015082025 -0.02774969 0.03955869 0.002207317

network_body._body_endoder.seq_layers.0.bias f4 [128]
00000000: 0000 0000 0000 0000 0000 0000 0000 0000
00000010: 0000 0000 0000 0000 0000 0000 0000 0000
00000020: 0000 0000 0000 0000 0000 0000 0000 0000
00000030: 0000 0000 0000 0000 0000 0000 0000 0000
00000040: 0000 0000 0000 0000 0000 0000 0000 0000
00000050: 0000 0000 0000 0000 0000 0000 0000 0000
00000060: 0000 0000 0000 0000 0000 0000 0000 0000
00000070: 0000 0000 0000 0000 0000 0000 0000 0000
00000080: 0000 0000 0000 0000 0000 0000 0000 0000
00000090: 0000 0000 0000 0000 0000 0000 0000 0000
000000a0: 0000 0000 0000 0000 0000 0000 0000 0000
000000b0: 0000 0000 0000 0000 0000 0000 0000 0000
000000c0: 0000 0000 0000 0000 0000 0000 0000 0000
000000d0: 0000 0000 0000 0000 0000 0000 0000 0000
000000e0: 0000 0000 0000 0000 0000 0000 0000 0000
000000f0: 0000 0000 0000 0000 0000 0000 0000 0000
00000100: 0000 0000 0000 0000 0000 0000 0000 0000
00000110: 0000 0000 0000 0000 0000 0000 0000 0000
00000120: 0000 0000 0000 0000 0000 0000 0000 0000
00000130: 0000 0000 0000 0000 0000 0000 0000 0000
00000140: 0000 0000 0000 0000 0000 0000 0000 0000
00000150: 0000 0000 0000 0000 0000 0000 0000 0000
00000160: 0000 0000 0000 0000 0000 0000 0000 0000
00000170: 0000 0000 0000 0000 0000 0000 0000 0000
00000180: 0000 0000 0000 0000 0000 0000 0000 0000
00000190: 0000 0000 0000 0000 0000 0000 0000 0000
000001a0: 0000 0000 0000 0000 0000 0000 0000 0000
000001b0: 0000 0000 0000 0000 0000 0000 0000 0000
000001c0: 0000 0000 0000 0000 0000 0000 0000 0000
000001d0: 0000 0000 0000 0000 0000 0000 0000 0000
000001e0: 0000 0000 0000 0000 0000 0000 0000 0000
000001f0: 0000 0000 0000 0000 0000 0000 0000 0000
0.0 0.0 0.0 0.0 0.0 0.0 0.0 0.0
0.0 0.0 0.0 0.0 0.0 0.0 0.0 0.0
0.0 0.0 0.0 0.0 0.0 0.0 0.0 0.0
0.0 0.0 0.0 0.0 0.0 0.0 0.0 0.0
0.0 0.0 0.0 0.0 0.0 0.0 0.0 0.0
0.0 0.0 0.0 0.0 0.0 0.0 0.0 0.0
0.0 0.0 0.0 0.0 0.0 0.0 0.0 0.0
0.0 0.0 0.0 0.0 0.0 0.0 0.0 0.0
0.0 0.0 0.0 0.0 0.0 0.0 0.0 0.0
0.0 0.0 0.0 0.0 0.0 0.0 0.0 0.0
0.0 0.0 0.0 0.0 0.0 0.0 0.0 0.0
0.0 0.0 0.0 0.0 0.0 0.0 0.0 0.0
0.0 0.0 0.0 0.0 0.0 0.0 0.0 0.0
0.0 0.0 0.0 0.0 0.0 0.0 0.0 0.0
0.0 0.0 0.0 0.0 0.0 0.0 0.0 0.0
0.0 0.0 0.0 0.0 0.0 0.0 0.0 0.0

network_body._body_endoder.seq_layers.2.weight f4 [128, 128]
00000000: 8c77 893c 067e 19be 5bbe d2bd b80e 103e
00000010: fbf5 15be c470 5d3c 57b0 80bc 0c89 303d
00000020: dfe1 a6bd 489b 95bd 2a56 3e3d f362 24bd
00000030: 8c3a 7abd ef28 9fbb 1e4c 95bc b705 123e
00000040: 5461 8e3a 52c1 90bd a17c a93c f337 94bd
00000050: 417a b43d 7ced cc3d 5f53 d5bc d6cf 7e3d
00000060: b1af 81bd 1a62 4f3d 9d9d 81bd 6fe1 8e3d
00000070: bb95 e83c 2200 dcbc 8eae 953d acac 143d
00000080: 96cd 0a3b b3f0 16be c798 c83d 291d 17be
00000090: b83d 873c 915f fabd f4d3 433b 7926 75bc
000000a0: aa1c 5bbb 7e53 ca3d a0af 953d 413b 63bd
000000b0: c9e9 c9bd 0eed 423c 169e 2a3d 5af8 833d
000000c0: 7977 153e 024a 853e 01a8 12be 0594 f7bd
000000d0: ef90 aabd 5374 cbb8 5f65 0abd 5c5b efbd
000000e0: e7b5 b3bd 2f0a 14be b774 10be ca81 ff3d
000000f0: d603 d43d adbe f1bd ae6a 1c3c 5803 423d
00000100: a80b b13d b935 ee3d 9518 b83d 344e 293e
00000110: ce34 2fb9 9034 e1bd b0a4 033e efb9 bdbb
00000120: 2ec1 733d d2b4 723d d26e a7bc 7339 663a
00000130: 6101 56bb 0313 14be 676b 50be a704 5f3d
00000140: 149a 79bd aae3 ca3d c3ba 433e f3e5 313d
00000150: c3ff 6fbd fbde 56bc f881 38bd 7659 533c
00000160: de7b 74be c566 833d 132c d53d 9514 593d
00000170: 45b0 e5bd b9e0 313d 3c5e 3f3d 26cd cabd
00000180: c8e4 08be 19b4 b13b 5c65 f33c 3eba 67bd
00000190: 665a ec3c 48d7 cebd a552 af3d e336 2b3e
000001a0: ab44 383d 0ec4 6fbd 4b48 7e3d 5acf 8dbd
000001b0: 4c75 e03d 4ffd 10bd 7338 e43d 8790 a33b
000001c0: abc8 153e d843 9dbd 93fd 84bd 5713 46bb
000001d0: 43af 163d d196 0c3e a6b2 e13c 0862 9dbc
000001e0: 6e4b ccbd cbf3 ae3d f8c7 b2bd 48d1 b63c
000001f0: ba38 b33d 5319 2c3d 8688 253d d110 b9bc
00000200: 7597 f1bd b58c 20be 42ea 3ebd 4655 a13d
00000210: 22aa 623d 686e cbbd 9f67 fc3c c4ea 353d
00000220: 47ba 713d 28df a1bc 2f49 8c3d da67 0fbe
00000230: 4e76 d23d 6792 ca3d 1bf4 d7bd 61e2 df3d
00000240: ff63 e4bd 0091 cbbc 5c50 553d edeb 693d
00000250: 5400 bd3c 3ad3 e7bd b332 193c 4a85 6ebd
00000260: 430b 9f3d c745 343e 7e4d 98bd 3d51 b83d
00000270: 7269 e63c 1b32 313d 4bf4 6d3d 3b3a eebb
00000280: d7f5 31be 9659 8abd 35e5 79bc a8fa c53d
00000290: 21e5 043e 8aee 203e 9d61 e13d d79d 94bc
000002a0: dc24 4ebc adac 723d 6f6c debd f3d2 34bd
000002b0: 0203 863c 5171 d6bd e542 8e3d 7f32 a3bd
000002c0: 6206 573c 05b8 bc3b 98e1 613d c61f 673e
000002d0: 3be3 c7bd 1476 adbd d4ba 01be 00a6 bd3c
000002e0: d48c 5ebd 7063 2fbd da63 873c ca4e a1bd
000002f0: 7785 20bd 00a7 753d d47b f8bd bc60 59be
00000300: c7fd 1fbd 3eae a63d 0c5d 853c 71fe cb3c
00000310: 9589 8c3d 9178 453e 1dcb d53b 7803 873d
00000320: 7274 093d bbb2 96bd 1bb7 e6bd 7e48 423e
00000330: 910b 1e3c cc3f a13d 5445 55bc 5521 36be
00000340: 4de7 49bc 284d d7bc ed1d fa3d 54ec 58be
00000350: 88db fc3c ac50 92bd aec8 74bd 80fc c3bc
00000360: d0b8 abbd a1d9 4abc 722f 26bc d93e 043d
00000370: 030c 63be 735c 0c3e 4089 b13d 9016 bfbc
00000380: 01fe 49bd 8833 3bbd ed8d 84be 50c9 9d3d
00000390: d660 7bbc fea2 1a3d af16 48be bba3 43be
000003a0: 4540 813d 0ec9 29bd 79f4 1ebd fef2 d43b
000003b0: 6b11 913d 0bb5 65bb e9eb ba3d 8133 e1bd
000003c0: 025e 063e 6ec0 01bd 607b 9c3d 5c2d 3c3d
000003d0: 8661 47bc 80ab 903c 6c3a 5cbd 81b2 0c3d
000003e0: 8ced 8a3d d527 cfbd b93b bb3c 2ee5 64bc
000003f0: 01cb 03be ef43 083e 4024 f13c ff11 f1bb
0.016780637 -0.1498948 -0.10290214 0.14068115 -0.14644615 0.013515655 -0.015709085 0.043099448
-0.0814855 -0.07305008 0.04646889 -0.040133428 -0.06109099 -0.0048571746 -0.018224772 0.14259993
0.0010862746 -0.07068123 0.02068931 -0.07237234 0.088123806 0.10006234 -0.026040731 0.062209927
-0.063323386 0.050630666 -0.063288905 0.06976592 0.02839171 -0.026855532 0.07308684 0.036297485
0.0021179668 -0.14740257 0.09794765 -0.14757217 0.016508922 -0.12225259 0.0029880973 -0.014962786
-0.0033433833 0.09879206 0.073088884 -0.05547643 -0.09859044 0.011897339 0.04165467 0.06443854
0.14596356 0.26033026 -0.14321901 -0.12088779 -0.08328425 -9.7014614e-05 -0.03378808 -0.11687347
-0.087749295 -0.1445701 -0.14107023 0.12475927 0.10352294 -0.11803947 0.009546919 0.04736647
0.086448014 0.116313405 0.08989064 0.16533738 -0.00016708972 -0.109963536 0.12855792 -0.0057899873
0.059510402 0.059254475 -0.020438585 0.00087823643 -0.003265463 -0.14460377 -0.2035347 0.054447796
-0.060937956 0.09906705 0.19114213 0.043432187 -0.058593523 -0.013114686 -0.045045823 0.012899747
-0.23875377 0.06416086 0.10408797 0.052998144 -0.11215261 0.043427203 0.04672073 -0.0990241
-0.13368523 0.0054230806 0.029711418 -0.0565741 0.0288517 -0.100996554 0.08560685 0.16720156
0.044987362 -0.05853658 0.062080663 -0.06924315 0.109598726 -0.035397824 0.11143579 0.0049915942
0.1462733 -0.07678956 -0.06493678 -0.003022393 0.036788236 0.13729407 0.027551007 -0.019211784
-0.099753246 0.085425936 -0.08729547 0.02231659 0.08751054 0.04201634 0.040413402 -0.022591026
-0.11796466 -0.15678675 -0.046610124 0.07877593 0.055338033 -0.09933168 0.03081113 0.044413343
0.05901554 -0.01975973 0.06849896 -0.1400446 0.10276471 0.09891205 -0.10544606 0.1093185
-0.11151885 -0.024849415 0.05207859 0.057109762 0.023071446 -0.11319585 0.009350467 -0.058232583
0.0776582 0.17604743 -0.074366555 0.0899987 0.028126452 0.043260675 0.058094304 -0.007270125
-0.17378937 -0.067553684 -0.015252401 0.096669495 0.1297803 0.15715995 0.110049464 -0.01814167
-0.01258203 0.059246708 -0.10860526 -0.04414649 0.016358856 -0.10470832 0.06946353 -0.07968616
0.01312408 0.0057592415 0.055146784 0.22570714 -0.09760138 -0.08469787 -0.12668926 0.023150444
-0.054333523 -0.04281944 0.016527105 -0.07876356 -0.039189782 0.059973717 -0.12132993 -0.21228307
-0.03906038 0.08138703 0.01627972 0.0249016 0.06862179 0.19284274 0.006524457 0.065924585
0.033558317 -0.07358309 -0.11265393 0.18972966 0.009646312 0.078734964 -0.013017017 -0.17786153
-0.012323213 -0.026281908 0.12212739 -0.21183902 0.0308664 -0.07144293 -0.059761696 -0.023924112
-0.083848596 -0.012380988 -0.010143148 0.0322865 -0.22172551 0.13707142 0.086687565 -0.023326188
-0.049314503 -0.04570344 -0.2588953 0.07704413 -0.015342912 0.037753098 -0.19539903 -0.19105427
0.063110866 -0.041451506 -0.038807366 0.0064986935 0.070834 -0.0035050537 0.091270275 -0.10996152
0.13121799 -0.031677656 0.076407194 0.045941696 -0.0121692475 0.017659903 -0.053766653 0.034349922
0.0678359 -0.10115019 0.022855626 -0.013970656 -0.12870409 0.13307165 0.02943623 -0.0073568816

action_model._continuous_distribution.log_sigma f4 [1, 48]
00000000: 0000 0000 0000 0000 0000 0000 0000 0000
00000010: 0000 0000 0000 0000 0000 0000 0000 0000
00000020: 0000 0000 0000 0000 0000 0000 0000 0000
00000030: 0000 0000 0000 0000 0000 0000 0000 0000
00000040: 0000 0000 0000 0000 0000 0000 0000 0000
00000050: 0000 0000 0000 0000 0000 0000 0000 0000
00000060: 0000 0000 0000 0000 0000 0000 0000 0000
00000070: 0000 0000 0000 0000 0000 0000 0000 0000
00000080: 0000 0000 0000 0000 0000 0000 0000 0000
00000090: 0000 0000 0000 0000 0000 0000 0000 0000
000000a0: 0000 0000 0000 0000 0000 0000 0000 0000
000000b0: 0000 0000 0000 0000 0000 0000 0000 0000
0.0 0.0 0.0 0.0 0.0 0.0 0.0 0.0
0.0 0.0 0.0 0.0 0.0 0.0 0.0 0.0
0.0 0.0 0.0 0.0 0.0 0.0 0.0 0.0
0.0 0.0 0.0 0.0 0.0 0.0 0.0 0.0
0.0 0.0 0.0 0.0 0.0 0.0 0.0 0.0
0.0 0.0 0.0 0.0 0.0 0.0 0.0 0.0

action_model._continuous_distribution.mu.weight f4 [48, 128]
00000000: d41e 21bc f7ef 3d3c bddc 523b c616 1dbc
00000010: bf22 233a 49b2 aebc 4e30 203d a785 083d
00000020: 8dcd 08bc 97f5 e73c 2e4b c63c 0789 8cbc
00000030: 0fde 90bc 7806 113d b8e1 833a 4db7 d6bc
00000040: 8219 c3ba 8dee 12bc 7fa4 debc 06b6 39bc
00000050: 8855 d63a df4b 02bd 3431 0bbd 9fda 58bc
00000060: 2b50 81bc 38af 65bc 130b bf3b db5a 923c
00000070: 8b94 7abc 8bd2 b6ba 758d 03bb 4044 543c
00000080: d954 113c 7fc6 b63c c55e 2f3b 730e 833c
00000090: 4066 8d3b 3d60 f2bb c022 863b 0d4c d03c
000000a0: 0959 1eba 8321 0aba b0af 11bd 80ce a33c
000000b0: cb1c 8cbc 0b53 29bd 8018 66bb f9e4 b1bc
000000c0: 32f1 8dbc bad2 cb3c cbe7 fa3c 7b25 55bb
000000d0: 0358 f2bc adfa 8eb9 6a52 67bb 7fbc 283d
000000e0: af66 bd3b 2958 0bbc 4e1b a03c 814b 933c
000000f0: e365 f5bb 1b60 2ebc df1b 173b e014 d5bc
00000100: 02dc 16bb fae1 6cbc 32fe 6e3c 2250 5abc
00000110: 9f26 3bbc b33c 883c 807a 543c 7549 db3c
00000120: 83f0 d53c 92d7 efbc 9b7f d4bc b0b9 bf3c
00000130: 67d1 47bc f3df 8cbc b216 183c a1d4 b8bc
00000140: 9597 263c 97dc e83c dffc e3bb 9f8d b83c
00000150: 15c5 cdbc eae5 78bc 11bd 8abc 48b3 ba3c
00000160: 72c1 f73b 8f39 1dbc e820 4d3a 7315 92b9
00000170: e2c5 c2bc 5860 9dbb 68c2 33bd 1989 383b
00000180: 875e 123d f0c3 ad3b f42a 883c 2195 ba3c
00000190: 1abb f4bc f70f 50bc 50a6 763c beb1 bf3c
000001a0: 9905 43bc 4a56 8d3c edff 6ebb cf02 36bc
000001b0: 1225 ebbb 1798 0d37 ff26 1e39 de90 843c
000001c0: e0fa 09bc e6ff bb3b c86a aa3c 3b01 febc
000001d0: 3347 69bc d37d 353c e795 593d 6881 a43c
000001e0: 3faf 8cbc 1e3e 8d3c 3f71 09bc 2f96 193c
000001f0: 52f1 863c 4f58 a43c 3b29 ab3a 8a0e e63b
00000200: a54c 8ebc ad0d 51bc f3f4 f33b 4f42 5abc
00000210: f78d ffbc 1af1 573c bdce b1bb c0f7 993c
00000220: cdad d53b d2ad 8d3c a80b d8bc 3cd3 04bc
00000230: 2bf2 51bd b7f6 ddbc eb1e d43b e744 58bc
00000240: a47b 3c3c 2fa9 a93b 7866 ca3c 2328 dc3b
00000250: 88f9 393c ac5e 02bc 399b 3abc fcab 353b
00000260: 10e8 c43b f059 d43c 35a5 d13b aa90 87bc
00000270: 4f60 0d3d 3405 93bc b0b4 f3bb 6383 533b
00000280: ab53 11bd 6da9 c7bb 307d cfbc 9f6a 18bd
00000290: 7255 bdbb 5c52 29bc 64f6 1cbd 8c70 213c
000002a0: 14b0 103c 83ef 09bd 6dbd 34bc 7a87 9ebb
000002b0: 330b 853c 48e4 afbc 72fa 563c 95e3 e33b
000002c0: 7b5a b6bc 41b3 993c a5c0 2d3c c1b4 2b3b
000002d0: f8e9 d2bc 6f18 793c 2d61 eb3c 122a 0dbd
000002e0: d0b5 ce3c 4b8b 893b 0f9e 813b e2a2 113d
000002f0: 2065 d1bb c78f 9ebc 9ecd 16bd 65c1 033c
00000300: a15d 09bd 7b89 a9bb 9e6d b2bb d366 a1bc
00000310: 2bd4 073c 2b54 003d 9f9a 55bc 37c3 973c
00000320: 9079 dfbc 2122 af3b 3b1b 8abb ff59 043c
00000330: 375e b93c eebb 0eba aea6 b33b 98c5 d53b
00000340: 356a 30bb 225b 73bc 205d b9bc 0db0 1c3c
00000350: 6dba d63c 6045 90bc e360 933c 45f7 69bb
00000360: c3f9 0a3d b206 ab3c 8877 e1bb 2dd3 60b9
00000370: e72a 89bc 9dca 873b dd21 803c e753 5f3c
00000380: 8f8c 333c e31a 84bc 8378 953b 2608 3ebb
00000390: bb5b 653c 588c 943c 3785 043c dbcd b839
000003a0: 4728 8ebc 2ca7 1c3c b35c 2b3c 6254 c23c
000003b0: 2319 e5bc db6a 1bbc 4041 753b 2059 79bc
000003c0: 6f35 c8bb 1b46 0cbc 6fa0 3d3d bb55 4f3c
000003d0: 0d9f bcbb 37cc 5dbb 474a 813b e35b 953b
000003e0: a31e 31ba 65fc 7d3c 870e b7ba db0b c0bc
000003f0: c605 883b dd46 37bc 8d4c e83c 3706 97bc
-0.00983401 0.011592857 0.0032175027 -0.009587949 0.0006223134 -0.021325247 0.039108567 0.033330586
-0.008349788 0.028315349 0.02420577 -0.017155183 -0.01768401 0.03540656 0.0010061776 -0.026210451
-0.0014884921 -0.008968008 -0.027178047 -0.011334902 0.0016352395 -0.031810638 -0.03398247 -0.013235717
-0.015785297 -0.014018826 0.0058301776 0.017865589 -0.0152942045 -0.0013948245 -0.0020073329 0.012955725
0.008870327 0.022311447 0.0026759368 0.0159981 0.0043151677 -0.0073967264 0.004093498 0.025426889
-0.0006040489 -0.0005269276 -0.03556794 0.019995928 -0.017103573 -0.04133896 -0.0035109818 -0.021715628
-0.017326925 0.024880756 0.030628106 -0.003252356 -0.029582983 -0.0002727112 -0.0035296925 0.04119539
0.005780063 -0.008504906 0.01954427 0.017980339 -0.0074889525 -0.0106430305 0.0023057384 -0.02601093
-0.0023019318 -0.014458174 0.014586972 -0.013324769 -0.011422782 0.016630506 0.012968659 0.026768425
0.026115661 -0.029277597 -0.025939753 0.023403972 -0.0121959215 -0.017196631 0.009282755 -0.022562327
0.010167976 0.028425498 -0.006957635 0.022528468 -0.02511839 -0.0151915345 -0.016935857 0.022790566
0.0075609023 -0.009596243 0.0007825033 -0.0002786327 -0.023775999 -0.004802745 -0.043886572 0.0028157888
0.03573468 0.0053028986 0.016622044 0.022776188 -0.029874373 -0.012699119 0.0150543 0.023400184
-0.01190319 0.01725306 -0.0036468462 -0.011109068 -0.00717605 8.439666e-06 0.00015082581 0.01618236
-0.00842163 0.0057372926 0.02080287 -0.031006446 -0.014238167 0.011077362 0.053121474 0.020081237
-0.017173408 0.017241534 -0.008388816 0.009374185 0.016472492 0.02006164 0.0013058552 0.007020776
-0.017370531 -0.012759608 0.0074449717 -0.013321473 -0.031195624 0.013180042 -0.0054262565 0.018794894
0.006520963 0.017294798 -0.026372746 -0.008107003 -0.05125634 -0.027095182 0.0064734123 -0.013200021
0.011504088 0.005177639 0.024707064 0.006718652 0.011350997 -0.007957142 -0.011389547 0.002772092
0.0060091093 0.025921792 0.006397868 -0.016548473 0.034515675 -0.017946817 -0.007437311 0.0032274358
-0.035480183 -0.006093195 -0.025328249 -0.037211057 -0.005778008 -0.010334577 -0.038320914 0.009853493
0.008831043 -0.03367568 -0.011031491 -0.0048379274 0.016240692 -0.021471158 0.013121234 0.00695462
-0.022259941 0.018762233 0.010605012 0.0026200267 -0.02574633 0.015203579 0.02873286 -0.03446395
0.02523318 0.004197513 0.0039556096 0.035555728 -0.006390229 -0.019355668 -0.036817186 0.008041714
-0.033536557 -0.0051738597 -0.0054451963 -0.01970235 0.008290331 0.03133027 -0.013037353 0.018525703
-0.027279645 0.0053446447 -0.004214672 0.008078097 0.022627933 -0.0005444874 0.0054825163 0.006523799
-0.0026918773 -0.014853271 -0.022627413 0.009563458 0.026211942 -0.017611206 0.017990535 -0.0035700363
0.033929598 0.020877216 -0.0068807043 -0.00021440974 -0.01674409 0.0041440264 0.015641147 0.013630844
0.010958805 -0.016126102 0.0045614853 -0.0028996556 0.013998921 0.018133327 0.0080884015 0.0003524859
-0.01735319 0.009561341 0.010459113 0.023721877 -0.027966088 -0.009485926 0.0037422925 -0.015219003
-0.0061098854 -0.008561636 0.04629558 0.012654717 -0.005756265 -0.0033843645 0.003945622 0.004558073
-0.00067565794 0.01550207 -0.0013966121 -0.023443153 0.004151079 -0.011186329 0.028356815 -0.01843558

action_model._continuous_distribution.mu.bias f4 [48]
00000000: 0000 0000 0000 0000 0000 0000 0000 0000
00000010: 0000 0000 0000 0000 0000 0000 0000 0000
00000020: 0000 0000 0000 0000 0000 0000 0000 0000
00000030: 0000 0000 0000 0000 0000 0000 0000 0000
00000040: 0000 0000 0000 0000 0000 0000 0000 0000
00000050: 0000 0000 0000 0000 0000 0000 0000 0000
00000060: 0000 0000 0000 0000 0000 0000 0000 0000
00000070: 0000 0000 0000 0000 0000 0000 0000 0000
00000080: 0000 0000 0000 0000 0000 0000 0000 0000
00000090: 0000 0000 0000 0000 0000 0000 0000 0000
000000a0: 0000 0000 0000 0000 0000 0000 0000 0000
000000b0: 0000 0000 0000 0000 0000 0000 0000 0000
0.0 0.0 0.0 0.0 0.0 0.0 0.0 0.0
0.0 0.0 0.0 0.0 0.0 0.0 0.0 0.0
0.0 0.0 0.0 0.0 0.0 0.0 0.0 0.0
0.0 0.0 0.0 0.0 0.0 0.0 0.0 0.0
0.0 0.0 0.0 0.0 0.0 0.0 0.0 0.0
0.0 0.0 0.0 0.0 0.0 0.0 0.0 0.0

action_model._discrete_distribution.branches.0.weight f4 [1, 128]
00000000: 80a3 8f3a da94 063a 8bcb 2abc 2f0f 3a3c
00000010: 4a5d a63b 506c ae3c 0f51 f339 b71b 1bbc
00000020: 721a 113c 8935 c1b9 53a4 9dbc be20 41bc
00000030: de53 10bb a560 0abc da98 fa3b aa06 93ba
00000040: bba8 843b c37a e2bb f399 bfbb 624a 5ebc
00000050: 6402 213c 57d0 96bc 6708 22bc e09f 183b
00000060: d73a ff3a bb04 e5bb fb41 09bb 6b43 4b3c
00000070: 0b81 cfba 75f4 12bc 179f 38bb 53a7 46bb
00000080: 571c 4b3c b216 c83a 8751 01bc f7c5 513a
00000090: 0250 553c 30d1 6dba dab4 073b 573b 373a
000000a0: 05d6 5abb 1fb0 ec3b 3664 8439 80b2 75ba
000000b0: 409d ef3a 7780 ddbb 3cb6 a3bb e2e6 23ba
000000c0: 9710 bdba 37fc 57bc ac3d 26ba 2022 013c
000000d0: 7aac 743c af13 4e3c 7a4c 883a 8751 eebb
000000e0: 5c76 3b3a 6014 6a3c 13b9 973c ff66 40bb
000000f0: 9582 ebb9 98b7 1b3c 08f0 463a 7fa7 aebb
00000100: c312 1b3b ee33 13bc 265a 303c c80c 303c
00000110: b57b 54bb f06a 673c 78a7 cb3b f419 063c
00000120: 6791 f53b aa1d 683c 0b12 b43b 7fef ffba
00000130: 0be6 a2bc b2e0 4cbc 0c7f 80bc b730 54bb
00000140: c7e4 5b3c 97e8 e4ba b43d 1c3c 4678 13bc
00000150: 8411 923b 9ee0 b6bc fc88 33bc f7a9 1fbc
00000160: aa45 733b 767c 11ba aae7 83bb cccf aabc
00000170: 8daf adba 9894 ddbb e389 4fbb 507f 043c
00000180: bc47 37bb d57d 5b3c 808d 4a3c 6229 733c
00000190: 8858 14bc 748b 0bbb 476c f239 0b45 38ba
000001a0: 5639 b13b af54 b63a 8388 c2bb 4068 ed3b
000001b0: 5be0 4c3c eb80 2bbc 8bd9 79bc 2a44 a43a
000001c0: 02d0 ee39 1d26 523c b8ec 9dbc 8982 983a
000001d0: ec41 a2bb 1924 bfbb c060 a83b 7883 343a
000001e0: 663b b83a 90bc 11bc da6a 96bc 6879 dbb8
000001f0: cd36 0a3b 0afd d7bb 1faa 81bb 0474 a83b
0.0010958761 0.0005133875 -0.010424505 0.011356159 0.005077039 0.021291882 0.00046408965 -0.009467057
0.008856403 -0.00036851715 -0.019243395 -0.0117875915 -0.0022022645 -0.008445893 0.007647616 -0.0011217196
0.0040484346 -0.006911607 -0.0058472096 -0.013567539 0.00982723 -0.018409891 -0.009889699 0.0023288652
0.0019472492 -0.0069890893 -0.0020943868 0.01240621 -0.0015831304 -0.008969416 -0.0028170997 -0.0030312135
0.012396893 0.0015265553 -0.007892973 0.00080022163 0.013019564 -0.0009072004 0.0020707161 0.00069897383
-0.0033391726 0.0072231437 0.00025251665 -0.0009372607 0.0018281117 -0.006759699 -0.0049960893 -0.0006252361
-0.00144245 -0.013182691 -0.0006341587 0.007881671 0.0149337 0.012577935 0.0010398768 -0.0072729024
0.0007151121 0.014287084 0.018520867 -0.0029358265 -0.00044919984 0.009504221 0.0007588868 -0.0053300257
0.0023662306 -0.008984549 0.010763681 0.010745235 -0.0032422368 0.014124617 0.006215032 0.008184899
0.00749414 0.014167229 0.005495315 -0.0019526331 -0.019885084 -0.012504743 -0.01568558 -0.003237767
0.013421244 -0.0017464337 0.009536196 -0.009000843 0.0044576544 -0.022323903 -0.010957953 -0.009745113
0.003712038 -0.0005549857 -0.0040254192 -0.020851038 -0.0013251171 -0.0067620985 -0.003166788 0.008086994
-0.002796634 0.0133967 0.012362838 0.014841409 -0.009054311 -0.0021292837 0.0004623851 -0.0007029331
0.0054084463 0.0013910736 -0.0059366836 0.0072450936 0.012504662 -0.010467748 -0.01524962 0.0012532522
0.00045549875 0.01282647 -0.019277915 0.0011635582 -0.004951706 -0.0058331606 0.0051384866 0.00068860454
0.0014055788 -0.008895054 -0.018361498 -0.000104653474 0.0021089793 -0.006591444 -0.0039570476 0.0051407833
