results/baseball1/Baseball/Baseball-284.onnx (onnx, 510855 bytes, 7 tensors)

network_body._body_endoder.seq_layers.0.weight f4 [128, 805]
0.02746711 -0.0065762145 -0.04670333 0.023442745 -0.034679987 0.04033483 0.00249912 -0.021385398
0.05320114 -0.10409425 0.012357507 0.024509024 0.06527049 -0.005884215 0.052057356 0.035815455
0.022252336 0.022300435 -0.035581205 0.025147667 0.002597069 0.017357854 -0.018168803 0.0073642978
0.011386667 -0.028739408 0.017896198 -0.038452722 -0.06709529 0.031665865 0.011470435 0.04417732
-0.026787605 -0.013375818 -0.0285297 -0.0061299973 0.012449946 -0.054726575 0.008838482 0.01407414
0.01616669 0.013665061 0.0359214 -0.011804374 -0.03877688 0.054945126 -0.0252528 0.011473822
0.004465039 0.0008530395 0.019898996 0.07980015 -0.025529733 0.047622792 -0.027320474 -0.12318962
-0.004784591 -0.016731225 -0.058284834 0.02158354 -0.015952256 -0.0026338997 0.018423827 -0.009190779
-0.02488536 -0.0030332108 -0.010726149 -0.020959912 0.004318824 0.004688323 -0.061433833 0.02907622
0.015052555 0.014620852 0.04088487 0.012014229 -0.015658248 -0.009004988 0.010990162 0.041423727
0.036764055 0.06022039 0.050560206 -0.008770739 -0.011187661 0.0008910412 0.015937041 -0.005514276
-0.012333801 0.026630249 0.0008215985 -0.0029127444 0.03996247 0.0012603542 0.01576307 0.05827155
0.05653418 0.04448251 0.013323613 0.03704252 -0.01266816 -0.0031655026 0.027327215 0.039832864
0.027628891 -0.017000616 -0.0019914333 -0.016239977 -0.05181755 0.039422695 -0.05292027 0.041458257
0.046252247 0.057854816 -0.027510965 0.027539048 0.03927438 -0.030342266 0.09306482 0.0065592285
-0.008712233 0.031537287 -0.08464335 -0.046385784 0.0041655125 0.03899194 -0.02369232 0.01672095
0.020194188 -0.018158356 0.028639175 0.027465554 -0.026139524 0.017157948 -0.00850295 0.009764856
-0.039055385 0.054012947 -0.009243191 0.02206165 -0.012757362 0.034978118 -0.026992328 0.053981796
0.039052 0.0063023493 -0.031798262 0.036197238 0.005523974 -0.010435187 -0.0043874052 -0.090156905
0.0680685 -0.00089732977 0.002919151 0.021548655 -0.015638592 -0.014289418 -0.05242861 -0.017685711
-0.032684326 0.013649755 -0.017353496 -0.03665297 0.008225942 -0.001065741 -0.01190515 -0.0111558
-0.0035277423 0.059969217 0.04723701 0.0020962346 -0.002990632 0.010858154 -0.010255928 0.0033122161
0.0025931415 0.0012270311 -0.03580523 -0.038877122 -0.0025841952 0.0392819 0.048226822 -0.028871452
-0.01117315 -0.040011276 0.00880682 0.03866795 -0.013040071 -0.057484165 0.039809465 -0.11051821
-0.0017167154 0.031018035 0.013113488 0.00943516 0.023834528 -0.048960887 -0.015312089 -0.09086697
-0.0022890822 0.04089158 -0.014818173 0.035547514 -0.005063758 0.041385997 -0.012915236 -0.10242865
-0.009993444 0.008861661 0.011712642 -0.011976908 -0.03791217 0.02237311 -0.05068813 0.006698568
-0.01453597 -0.029043572 0.06341155 0.03305461 -0.018417995 0.0012258431 -0.046056118 -0.021734314
-0.0004805886 -0.067626916 0.032924224 -0.0060781194 -0.041133117 0.027611345 0.035338968 0.001955778
-0.024434015 -0.007894195 0.046722613 0.009443379 0.074478015 0.049666617 0.015402807 0.047139365
0.0022419367 -0.016463827 -0.014670627 0.056675877 -0.04043543 -0.016111396 0.011427454 0.00881168
0.018969482 -0.03930142 -0.017083779 -0.0017216725 0.026825346 0.011436282 0.04790224 -0.0388687
00000000: b402 e13c 497d d7bb fe4b 3fbd 000b c03c
00000010: 9a0c 0ebd 2236 253d 47c8 233b 6e30 afbc
00000020: 70e9 593d 5e2f d5bd 2477 4a3c 26c7 c83c
00000030: 89ac 853d 5fd0 c0bb 183a 553d 3ab3 123d
00000040: 884a b63c 67af b63c 99bd 11bd 7b02 ce3c
00000050: 9633 2a3b 0f32 8e3c bed6 94bc 3550 f13b
00000060: 258f 3a3c e86e ebbc 0c9b 923c 9a80 1dbd
00000070: 4169 89bd 11b4 013d 7eee 3b3c 47f3 343d
00000080: ae71 dbbc 3f26 5bbc 1eb7 e9bc 25de c8bb
00000090: dcfa 4b3c f928 60bd 48cf 103c 3997 663c
000000a0: 0270 843c 6ce3 5f3c 5122 133d 2267 41bc
000000b0: 81d4 1ebd 240e 613d f6de cebc b3fc 3b3c
000000c0: 764f 923b 839e 5f3a 3803 a33c 436e a33d
000000d0: bb23 d1bc 1e10 433d 30cf dfbc d74a fcbd
000000e0: 0fc8 9cbb ec0f 89bc 14bc 6ebd f7cf b03c
000000f0: 4eae 82bc 819d 2cbb 91ed 963c ec94 16bc
00000100: 62dc cbbc d5c8 46bb bbbc 2fbc 1fb4 abbc
00000110: ec84 8d3b 81a0 993b 0ba2 7bbd 4131 ee3c
00000120: fe9e 763c 4c8c 6f3c e576 273d 54d7 443c
00000130: ba45 80bc a889 13bc 1510 343c edab 293d
00000140: e895 163d a8a9 763d 3818 4f3d 25b3 0fbc
00000150: 744c 37bc c394 693a 668e 823c 1ab1 b4bb
00000160: b613 4abc ae27 da3c 8b60 573a bee3 3ebb
00000170: b0af 233d 7832 a53a 8e21 813c 26ae 6e3d
00000180: 6290 673d 4b33 363d 494b 5a3c e6b9 173d
00000190: 1d8e 4fbc 5274 4fbb 53dd df3c c927 233d
000001a0: fc55 e23c e044 8bbc b582 02bb b309 85bc
000001b0: a43e 54bd b179 213d edc2 58bd 22d0 293d
000001c0: ff72 3d3d 2cf9 6c3d ad5e e1bc 9299 e13c
000001d0: 2cde 203d 5890 f8bc c598 be3d ccee d63b
000001e0: c1bd 0ebc 3e2d 013d 7e59 adbd 05ff 3dbd
000001f0: da7e 883b 03b6 1f3d 6516 c2bc 60fa 883c
00000200: 486e a53c d5c0 94bc b49c ea3c 71ff e03c
00000210: 8e22 d6bc d38e 8c3c f54f 0bbc c6fc 1f3c
00000220: 8af8 1fbd ae3c 5d3d c170 17bc a2ba b43c
00000230: 4104 51bc 3745 0f3d 041f ddbc 041c 5d3d
00000240: fdf4 1f3d f083 ce3b e53e 02bd 8e43 143d
00000250: 7402 b53b 59f8 2abc 39c4 8fbb 2fa4 b8bd
00000260: 7f67 8b3d c83a 6bba 3a4f 3f3b ce86 b03c
00000270: 811c 80bc 2a1e 6abc 62bf 56bd a0e1 90bc
00000280: 00e0 05bd 39a3 5f3c eb28 8ebc 6d21 16bd
00000290: 1ac6 063c 55b0 8bba d10d 43bc d1c6 36bc
000002a0: b231 67bb 48a2 753d 987b 413d fb60 093b
000002b0: 7bfe 43bb 66e6 313c 7b08 28bc c411 593b
000002c0: b2f1 293b 55d4 a03a 81a8 12bd 9e3d 1fbd
000002d0: 9a5b 29bb 0fe6 203d 7d89 453d d383 ecbc
000002e0: 960f 37bc dde2 23bd 7b4a 103c 4962 1e3d
000002f0: 06a6 55bc 8474 6bbd 400f 233d 5f57 e2bd
00000300: 6903 e1ba 8919 fe3c f5d9 563c ee95 1a3c
00000310: a140 c33c 368b 48bd 8edf 7abc 7618 babd
00000320: 6d04 16bb ee7d 273d ecc7 72bc 459a 113d
00000330: e2ed a5bb 5d84 293d 6d9a 53bc 1dc6 d1bd
00000340: 8bbb 23bc 8030 113c 62e6 3f3c cb3a 44bc
00000350: cb49 1bbd d047 b73c 5b9e 4fbd a97f db3b
00000360: 4728 6ebc c9ec edbc eadd 813d 4564 073d
00000370: 56e1 96bc 78ac a03a 57a5 3cbd 290c b2bc
00000380: 83f7 fbb9 fb7f 8abd 8ddb 063d f62a c7bb
00000390: 337b 28bd 3031 e23c 98bf 103d 832c 003b
000003a0: d829 c8bc a756 01bc 3660 3f3d 67b8 1a3c
000003b0: ee87 983d 396f 4b3d 0e5c 7c3c 3515 413d
000003c0: 75ed 123b 26df 86bc 125d 70bc f724 683d
000003d0: 9f9f 25bd 0cfc 83bc 373a 3b3c dd5e 103c
000003e0: e365 9b3c 87fa 20bd 48f3 8bbc bea9 e1ba
000003f0: d4c0 db3c 3e5f 3b3c 2435 443d c934 1fbd

network_body._body_endoder.seq_layers.0.bias f4 [128]
0.0 0.0 0.0 0.0 0.0 0.0 0.0 0.0
0.0 0.0 0.0 0.0 0.0 0.0 0.0 0.0
0.0 0.0 0.0 0.0 0.0 0.0 0.0 0.0
0.0 0.0 0.0 0.0 0.0 0.0 0.0 0.0
0.0 0.0 0.0 0.0 0.0 0.0 0.0 0.0
0.0 0.0 0.0 0.0 0.0 0.0 0.0 0.0
0.0 0.0 0.0 0.0 0.0 0.0 0.0 0.0
0.0 0.0 0.0 0.0 0.0 0.0 0.0 0.0
0.0 0.0 0.0 0.0 0.0 0.0 0.0 0.0
0.0 0.0 0.0 0.0 0.0 0.0 0.0 0.0
0.0 0.0 0.0 0.0 0.0 0.0 0.0 0.0
0.0 0.0 0.0 0.0 0.0 0.0 0.0 0.0
0.0 0.0 0.0 0.0 0.0 0.0 0.0 0.0
0.0 0.0 0.0 0.0 0.0 0.0 0.0 0.0
0.0 0.0 0.0 0.0 0.0 0.0 0.0 0.0
0.0 0.0 0.0 0.0 0.0 0.0 0.0 0.0
00000000: 0000 0000 0000 0000 0000 0000 0000 0000
00000010: 0000 0000 0000 0000 0000 0000 0000 0000
00000020: 0000 0000 0000 0000 0000 0000 0000 0000
00000030: 0000 0000 0000 0000 0000 0000 0000 0000
00000040: 0000 0000 0000 0000 0000 0000 0000 0000
00000050: 0000 0000 0000 0000 0000 0000 0000 0000
00000060: 0000 0000 0000 0000 0000 0000 0000 0000
00000070: 0000 0000 0000 0000 0000 0000 0000 0000
00000080: 0000 0000 0000 0000 0000 0000 0000 0000
00000090: 0000 0000 0000 0000 0000 0000 0000 0000
000000a0: 0000 0000 0000 0000 0000 0000 0000 0000
000000b0: 0000 0000 0000 0000 0000 0000 0000 0000
000000c0: 0000 0000 0000 0000 0000 0000 0000 0000
000000d0: 0000 0000 0000 0000 0000 0000 0000 0000
000000e0: 0000 0000 0000 0000 0000 0000 0000 0000
000000f0: 0000 0000 0000 0000 0000 0000 0000 0000
00000100: 0000 0000 0000 0000 0000 0000 0000 0000
00000110: 0000 0000 0000 0000 0000 0000 0000 0000
00000120: 0000 0000 0000 0000 0000 0000 0000 0000
00000130: 0000 0000 0000 0000 0000 0000 0000 0000
00000140: 0000 0000 0000 0000 0000 0000 0000 0000
00000150: 0000 0000 0000 0000 0000 0000 0000 0000
00000160: 0000 0000 0000 0000 0000 0000 0000 0000
00000170: 0000 0000 0000 0000 0000 0000 0000 0000
00000180: 0000 0000 0000 0000 0000 0000 0000 0000
00000190: 0000 0000 0000 0000 0000 0000 0000 0000
000001a0: 0000 0000 0000 0000 0000 0000 0000 0000
000001b0: 0000 0000 0000 0000 0000 0000 0000 0000
000001c0: 0000 0000 0000 0000 0000 0000 0000 0000
000001d0: 0000 0000 0000 0000 0000 0000 0000 0000
000001e0: 0000 0000 0000 0000 0000 0000 0000 0000
000001f0: 0000 0000 0000 0000 0000 0000 0000 0000

network_body._body_endoder.seq_layers.2.weight f4 [128, 128]
-0.065132216 0.041163426 -0.016801208 0.02850237 -0.12598808 0.026848998 0.082830966 0.11899571
0.060974244 -0.049833752 0.018321706 0.05812029 -0.012864925 -0.040789157 -0.14066008 0.016056376
0.077441566 0.07077237 0.097026974 -0.07642118 -0.068336144 0.18078326 -0.023827836 -0.08353326
0.03882561 -0.05425462 -0.048197024 -0.0096434 -0.007830596 -0.03231634 -0.14765793 -0.10098745
0.09666344 -0.052424762 -0.018858554 -0.0756655 -0.053676188 -0.017341033 -0.14359638 0.10858638
0.020722048 0.11571299 0.012257977 -0.03498989 -0.14107613 -0.015878733 -0.14826609 -0.10569497
0.06640515 -0.020361017 0.049035244 -0.010880955 -0.07745084 -0.010952931 -0.060598712 -0.032375976
-0.20794578 0.015055727 -0.027095297 -0.043597307 -0.052730054 -0.020582719 0.09547304 -0.00015690355
0.016515695 0.053953353 0.045463838 -0.039405413 0.043421794 0.072582364 -0.009097351 -0.010449048
0.019818006 0.11014183 0.057808533 -0.14876531 0.046666913 -0.07628006 0.04290475 -0.005592731
0.13300256 0.04637833 0.19734305 0.038263895 -0.04584819 -0.12560749 -0.14688249 -0.19863363
-0.15662709 0.02289447 0.098885946 -0.15761964 0.038600747 -0.13005486 0.12203642 0.2391959
0.057516612 -0.011516084 0.12181995 -0.18659745 -0.03651021 0.038332842 0.03972316 -0.01458361
-0.07846746 -0.05215117 -0.019387672 0.058019467 0.07285432 0.05250225 -0.09854154 0.08711282
0.04960388 0.12274855 -0.044204626 -0.029095905 -0.15388712 -0.06917042 0.0044600326 0.020642754
0.04165707 0.008604881 0.12074117 0.036658008 0.014011842 -0.006957915 0.022101441 0.050152462
-0.008007878 0.14328584 0.050557453 0.18670006 -0.057081673 0.06556187 -0.018164027 0.0902344
-0.11707206 -0.010048154 -0.013318358 -0.1724138 0.11402623 -0.12719394 -0.07659919 -0.016892524
0.0055320472 0.08787722 -0.08067293 0.001800184 -0.092565544 -0.08770494 -0.011216134 -0.028380454
-0.01042745 0.041034907 -0.034387436 -0.068980545 0.018739864 0.16233492 0.07673536 0.0400049
-0.10803987 -0.005025596 -0.004054506 -0.15543841 -0.15920895 0.061744083 -0.06234082 0.076041356
-0.08078839 -0.09579553 -0.14592782 -0.050593786 0.0022337493 -0.016215982 -0.010746322 -0.099786095
-0.122278914 -0.027683657 0.0556206 -0.101701945 -0.035337932 0.11742822 -0.05574961 0.0829606
0.09719504 -0.085469656 0.054187316 0.07285521 0.014891041 0.20535268 0.035667524 0.044916265
-0.022404393 -0.078460015 0.0426427 0.007946307 0.09100074 -0.02152516 -0.06640118 -0.030468704
0.048543066 0.021395383 -0.104412444 -0.14990014 0.0883667 0.009369615 0.058262415 -0.025137275
-0.0235505 -0.07426365 -0.04656082 -0.068945915 0.13321646 -0.15513797 0.136956 -0.13922563
0.12598556 0.03214887 0.08825391 -0.2174655 -0.0032263675 -0.0042398144 0.06439991 -0.07058988
-0.0082172025 -0.020315709 0.08080224 5.1158928e-05 0.0018319917 0.16945891 -0.16968253 -0.04022693
0.017662043 -0.06514281 0.07410908 0.012401306 0.038927555 -0.0139088 0.07081225 0.011443909
-0.13165748 -0.085065134 0.103777066 0.024225932 -0.12740423 0.053818453 -0.17696756 0.00847142
0.022803364 -0.04870283 0.08821898 -0.12500231 -0.09764823 -0.099536955 -0.100883424 0.038422633
00000000: 0a64 85bd fb9a 283d b0a2 89bc cd7d e93c
00000010: 0503 01be 6ef2 db3c 48a3 a93d 06b4 f33d
00000020: 21c0 793d 7a1e 4cbd 6717 963c 8b0f 6e3d
00000030: 68c7 52bc 8812 27bd 3209 10be a988 833c
00000040: af99 9e3d 1bf1 903d 14b6 c63d b582 9cbd
00000050: d2f3 8bbd 3f1f 393e 9832 c3bc 7c13 abbd
00000060: 9a07 1f3d 183a 5ebd 3e6a 45bd 5aff 1dbc
00000070: e64b 00bc 235e 04bd a433 17be 82d2 cebd
00000080: 7bf7 c53d 59bb 56bd 417d 9abc 83f6 9abd
00000090: 90db 5bbd c80e 8ebc ee0a 13be 8962 de3d
000000a0: 49c1 a93c effa ec3d afd5 483c 8f51 0fbd
000000b0: 4376 10be 1e14 82bc 11d3 17be 9b76 d8bd
000000c0: 6cff 873d 26cc a6bc 2ed9 483d 0846 32bc
000000d0: 8c9e 9ebd ec73 33bc 5b36 78bd ac9c 04bd
000000e0: bdef 54be 4cac 763c f5f6 ddbc 1793 32bd
000000f0: 78fb 57bd 179d a8bc 5f87 c33d 7a86 24b9
00000100: ec4b 873c 31fe 5c3d 4a38 3a3d 9267 21bd
00000110: 0ddb 313d 10a6 943d 0e0d 15bc 7c32 2bbc
00000120: 5f59 a23c 0a92 e13d a4c8 6c3d ef55 18be
00000130: ce25 3f3d b838 9cbd e4bc 2f3d 3a43 b7bb
00000140: d331 083e 34f7 3d3d 4c14 4a3e 9aba 1c3d
00000150: 50cb 3bbd 409f 00be 5d68 16be 9d66 4bbe
00000160: da62 20be 2f8d bb3c b784 ca3d 0b67 21be
00000170: d11b 1e3d 1a2d 05be 3bee f93d c5ef 743e
00000180: 8a96 6b3d f5ad 3cbc bd7c f93d 6713 3fbe
00000190: bb8b 15bd e602 1d3d c1b4 223d 18f0 6ebc
000001a0: 8cb3 a0bd 779c 55bd e5d2 9ebc d2a5 6d3d
000001b0: a534 953d 990c 573d 26d0 c9bd 3568 b23d
000001c0: 702d 4b3d 9763 fb3d e90f 35bd 895a eebc
000001d0: 9694 1dbe 39a9 8dbd 7725 923b fe1a a93c
000001e0: 9ba0 2a3d 7dfb 0c3c 2647 f73d b526 163d
000001f0: ed91 653c 39ff e3bb 150e b53c ab6c 4d3d
00000200: 7a33 03bc 86b9 123e 5515 4f3d 4d2e 3f3e
00000210: 79ce 69bd 4d45 863d bacc 94bc d0cc b83d
00000220: 7ac3 efbd 03a1 24bc 3e35 5abc 3e8d 30be
00000230: 9686 e93d 213f 02be 09e0 9cbd 3162 8abc
00000240: 2d46 b53b f9f8 b33d d937 a5bd 27f4 eb3a
00000250: 0193 bdbd a69e b3bd e0c3 37bc 207e e8bc
00000260: e5d7 2abc 3814 283d d7d9 0cbd ac45 8dbd
00000270: 5884 993c 203b 263e 6e27 9d3d 2edc 233d
00000280: 0244 ddbd c1ad a4bb a9db 84bb 3f2b 1fbe
00000290: ac07 23be 5de7 7c3d 1659 7fbd 92bb 9b3d
000002a0: 6274 a5bd 7230 c4bd 1a6e 15be 6e3b 4fbd
000002b0: 1864 123b 61d7 84bc 5711 30bc a75c ccbd
000002c0: 5e6d fabd d6c8 e2bc 6dd2 633d 1c49 d0bd
000002d0: 82be 10bd 357e f03d b459 64bd 3fe7 a93d
000002e0: 310e c73d b70a afbd 85f3 5d3d 1d35 953d
000002f0: 8ef9 733c f947 523e 1c18 123d 1efa 373d
00000300: 6b89 b7bc a5af a0bd 1daa 2e3d 3a31 023c
00000310: 995e ba3d 8855 b0bc 58fd 87bd 8199 f9bc
00000320: 18d5 463d 5f45 af3c 31d6 d5bd 6c7f 19be
00000330: 9af9 b43d 0483 193c 92a4 6e3d b0ec cdbc
00000340: faec c0bc 8a17 98bd 8fb6 3ebd 8433 8dbd
00000350: e569 083e 7ddc 1ebe 323e 0c3e 2a91 0ebe
00000360: 5c02 013e 89ae 033d 77be b43d 47af 5ebe
00000370: 7771 53bb 24ee 8abb 1ae4 833d 6d91 90bd
00000380: 72a1 06bc 216d a6bc a57b a53d 7b93 5638
00000390: 711f f03a a386 2d3e 42c1 2dbe fec4 24bd
000003a0: fdaf 903c 9869 85bd 80c6 973d d92e 4b3c
000003b0: 8072 1f3d bce1 63bc 0306 913d 3c7f 3b3c
000003c0: 38d1 06be a136 aebd 1289 d43d 7675 c63c
000003d0: 4176 02be bd70 5c3d fc36 35be b6cb 0a3c
000003e0: 1fce ba3c 9e7c 47bd 27ac b43d 9b00 00be
000003f0: ccfb c7bd 08da cbbd f89b cebd 0d61 1d3d

action_model._continuous_distribution.log_sigma f4 [1, 48]
0.0 0.0 0.0 0.0 0.0 0.0 0.0 0.0
0.0 0.0 0.0 0.0 0.0 0.0 0.0 0.0
0.0 0.0 0.0 0.0 0.0 0.0 0.0 0.0
0.0 0.0 0.0 0.0 0.0 0.0 0.0 0.0
0.0 0.0 0.0 0.0 0.0 0.0 0.0 0.0
0.0 0.0 0.0 0.0 0.0 0.0 0.0 0.0
00000000: 0000 0000 0000 0000 0000 0000 0000 0000
00000010: 0000 0000 0000 0000 0000 0000 0000 0000
00000020: 0000 0000 0000 0000 0000 0000 0000 0000
00000030: 0000 0000 0000 0000 0000 0000 0000 0000
00000040: 0000 0000 0000 0000 0000 0000 0000 0000
00000050: 0000 0000 0000 0000 0000 0000 0000 0000
00000060: 0000 0000 0000 0000 0000 0000 0000 0000
00000070: 0000 0000 0000 0000 0000 0000 0000 0000
00000080: 0000 0000 0000 0000 0000 0000 0000 0000
00000090: 0000 0000 0000 0000 0000 0000 0000 0000
000000a0: 0000 0000 0000 0000 0000 0000 0000 0000
000000b0: 0000 0000 0000 0000 0000 0000 0000 0000

action_model._continuous_distribution.mu.weight f4 [48, 128]
0.010737299 0.005626043 0.025314858 -0.012763793 -0.019406749 -0.017057793 -0.033684302 -0.025917856
-0.012415814 0.0062588416 0.0045633153 0.018818634 0.019553175 0.005263346 0.010416777 0.00525678
0.018048367 0.007990374 0.034980208 -0.0025670477 -0.01956585 -0.0053866296 0.0019230103 -0.0038079936
0.039653014 -0.026042808 0.0073366426 -0.0021626384 0.028855238 0.0027535602 -0.025069669 0.043149572
0.0086061545 0.021691058 -0.014764026 0.02774677 -0.019818796 0.0022590372 -0.0066259727 0.003259056
-0.0001396298 -0.0079898 -0.036670476 0.027611643 0.010106974 -0.028823746 0.014534801 0.0003852902
-0.009686976 0.008086873 0.021079956 -0.009068924 0.016640246 -0.012914429 0.005558533 -0.010933204
0.004196293 0.0033857485 0.027830347 0.009531309 -0.022589838 0.00041939827 0.039902996 0.022210753
0.03128181 -0.006879577 -0.046965975 -0.012036642 -0.02121641 0.031506266 -0.011103571 -0.0015835263
0.002731702 0.004787936 -0.022903249 0.009711297 -0.015776085 0.018113133 -0.0016653587 -0.018916262
-0.014168793 0.022286288 -0.023077808 -0.023928618 0.01582077 -0.0032376037 0.02332335 0.028774042
0.0047606374 0.0052360795 0.0025598581 -0.012834045 -0.011629936 -0.01626361 -0.034725953 0.018239079
-0.017035777 -0.015311292 0.014577262 -0.007869862 -0.021556105 0.01217931 -0.02197549 0.018161707
-0.008685834 0.0013290857 0.019278808 0.010977159 -0.018917067 0.0004763811 -0.01233166 0.017709516
0.029653689 -0.00022156179 -0.018594882 0.0015860696 -0.001438074 -0.0044398247 -0.030055348 0.03440402
0.017429754 0.0042822408 -0.034018967 -0.010063853 0.038206387 -0.031280506 0.008299819 -0.02379453
-0.0027572592 0.010436048 -0.00067092205 -0.010037697 -0.017445512 0.021608904 0.03315321 0.01622106
-0.016091635 0.024557292 0.005934561 -0.018959591 0.009345087 0.025801674 0.0144474 0.015709287
0.021902192 0.026773533 -0.0070511214 0.005084028 0.00532506 -0.00908002 -0.010525822 -8.078861e-06
-0.03383654 0.01152963 0.013950357 -0.0059150266 -0.0023680495 -0.011530053 0.017433012 -0.010231043
0.020766107 -0.011251109 -0.027406996 0.0101026725 0.0130750835 -0.002986865 0.00019536272 -0.023631357
0.017229604 -0.02785709 -0.0061352565 0.002126068 0.0045662387 -0.026309678 -0.008271062 -0.04628794
0.013750513 -0.0005747675 -0.026128575 0.0016603166 0.0008120903 0.003241156 -0.013394274 0.00530374
-0.0070135826 -0.011395945 -0.0031498638 -9.207849e-05 0.011520678 -0.029689793 0.028012449 0.009666263
-0.037997086 0.023553783 -0.011934992 0.01429383 0.004618816 -0.0052897544 0.00015872657 -0.022259923
0.008381015 0.003188039 0.00243933 -0.00553456 -0.013069344 0.007872547 -0.0038517446 0.010126075
0.009318925 0.022077607 -0.00024625217 0.020574205 -0.026588688 0.028540788 -0.014043308 -0.007319537
0.0011704471 0.017156651 -0.02891205 0.012754795 -0.0088743465 0.028850013 -0.025565429 0.012090592
-0.0032733155 -0.009706481 -0.012359782 -0.0022477715 0.00629639 -0.0151445195 0.014287094 -0.002382566
-0.014193448 0.015650233 -0.0011553549 0.025212338 0.002069529 -0.0044372245 -0.03626346 0.03422893
0.0098325545 -0.030230155 0.004482568 0.029063094 0.0047288663 0.023744939 -0.03037572 -0.004303567
0.009003669 -0.024285972 -0.0024578755 0.0218456 -0.0041069156 -0.02902182 0.0038580173 -0.010508693
00000000: 7feb 2f3c ab5a b83b 1b61 cf3c 3a1f 51bc
00000010: e7fa 9ebc c9bc 8bbc 8df8 09bd af51 d4bc
00000020: b36b 4bbc f816 cd3b dd87 953b 8929 9a3c
00000030: fb2d a03c 2578 ac3b 21ab 2a3c 1141 ac3b
00000040: 2bda 933c 0fea 023c 6847 0f3d ea3b 28bb
00000050: 9048 a0bc 5382 b0bb 850d fc3a 888f 79bb
00000060: 336b 223d ba57 d5bc 3868 f03b 0dbb 0dbb
00000070: d261 ec3c 1375 343b e85e cdbc 9bbd 303d
00000080: d400 0d3c 72b1 b13c d0e4 71bc 324d e33c
00000090: 075b a2bc 5b0c 143b b01e d9bb e395 553b
000000a0: 9769 12b9 a6e7 02bc c833 16bd d031 e23c
000000b0: b997 253c c71f ecbc 6023 6e3c c600 ca39
000000c0: 1fb6 1ebc ce7e 043c dfaf ac3c d395 14bc
000000d0: 2051 883c 0b97 53bc 5b24 b63b 2e21 33bc
000000e0: 0f81 893b 6fe3 5d3b 78fc e33c 3529 1c3c
000000f0: 530e b9bc afe2 db39 5371 233d 53f3 b53c
00000100: 5b21 003d 136e e1bb 655f 40bd 5635 45bc
00000110: 09ce adbc b70c 013d c1eb 35bc 538e cfba
00000120: 5b06 333b 1ee4 9c3b 989f bbbc 221c 1f3c
00000130: d93c 81bc fe61 943c 2a48 daba 47f6 9abc
00000140: 3a24 68bc bc91 b63c ac0d bdbc f305 c4bc
00000150: 8f9a 813c fa2d 54bb 9c10 bf3c 8ab7 eb3c
00000160: 1fff 9b3b 6b93 ab3b 4bc3 273b e345 52bc
00000170: 7d8b 3ebc 433b 85bc cd3c 0ebd 1f6a 953c
00000180: 9d8e 8bbc 37dc 7abc 78d5 6e3c 98f0 00bc
00000190: 6e96 b0bc bb8b 473c f105 b4bc dcc7 943c
000001a0: 074f 0ebc b734 ae3a 97ee 9d3c 8bd9 333c
000001b0: f7f7 9abc cac2 f939 bb0a 4abc 8c13 913c
000001c0: 4bec f23c 0a53 68b9 4b54 98bc aae3 cf3a
000001d0: c27d bcba f37b 91bb a236 f6bc 3beb 0c3d
000001e0: d8c8 8e3c 0a52 8c3b 7957 0bbd dce2 24bc
000001f0: 4d7e 1c3d fd1f 00bd f7fb 073c bfec c2bc
00000200: 22b3 34bb f5fb 2a3c d1e0 2fba 2775 24bc
00000210: e4e9 8ebc 2805 b13c a9cb 073d 07e2 843c
00000220: 9bd2 83bc 602c c93c b576 c23b 2551 9bbc
00000230: 231c 193c 085e d33c cab4 6c3c c3b0 803c
00000240: 3a6c b33c 2b54 db3c 180d e7bb eb97 a63b
00000250: d77d ae3b 5dc4 14bc 7f74 2cbc 728a 07b7
00000260: 2f98 0abd c6e6 3c3c 0a90 643c d7d2 c1bb
00000270: 4731 1bbb 8ce8 3cbc adcf 8e3c 1ba0 27bc
00000280: af1d aa3c 9256 38bc a384 e0bc ae85 253c
00000290: e038 563c 47bf 43bb 48da 4c39 8c96 c1bc
000002a0: 1925 8d3c 8d34 e4bc 430a c9bb 8155 0b3b
000002b0: 63a0 953b 6587 d7bc 5983 07bc 6c98 3dbd
000002c0: d549 613c feab 16ba 980b d6bc fb9e d93a
000002d0: 75e2 543a 9369 543b a873 5bbc ffca ad3b
000002e0: 32d2 e5bb 0fb6 3abc f26d 4ebb 431a c1b8
000002f0: 3ac1 3c3c 0238 f3bc 5d7a e53c 3f5f 1e3c
00000300: d5a2 1bbd ddf3 c03c fc8a 43bc ab30 6a3c
00000310: 7059 973b ad55 adbb d76f 2639 715a b6bc
00000320: 8650 093c 6bee 503b 2bdd 1f3b 415b b5bb
00000330: cd20 56bc dbfb 003c 8d6d 7cbb d6e7 253c
00000340: 68ae 183c 19dc b43c 681b 81b9 3c8b a83c
00000350: 85d0 d9bc 5fce e93c e715 66bc bad8 efbb
00000360: b069 993a 1b8c 8c3c f7d8 ecbc 7df9 503c
00000370: b565 11bc dd56 ec3c 976e d1bc 9e17 463c
00000380: 1f85 56bb ef07 1fbc af80 4abc 594f 13bb
00000390: f351 ce3b b820 78bc 6a14 6a3c d324 1cbb
000003a0: a38b 68bc eb34 803c 476f 97ba 1b8a ce3c
000003b0: efa0 073b 2366 91bb fe88 14bd a233 0c3d
000003c0: b918 213c 3ba5 f7bc 81e2 923b ba15 ee3c
000003d0: 9bf4 9a3b bf84 c23c 80d6 f8bc f004 8dbb
000003e0: 2084 133c 60f3 c6bc 4f14 21bb 8bf5 b23c
000003f0: 4e93 86bb 2bbf edbc cad6 7c3b a72c 2cbc

action_model._continuous_distribution.mu.bias f4 [48]
0.0 0.0 0.0 0.0 0.0 0.0 0.0 0.0
0.0 0.0 0.0 0.0 0.0 0.0 0.0 0.0
0.0 0.0 0.0 0.0 0.0 0.0 0.0 0.0
0.0 0.0 0.0 0.0 0.0 0.0 0.0 0.0
0.0 0.0 0.0 0.0 0.0 0.0 0.0 0.0
0.0 0.0 0.0 0.0 0.0 0.0 0.0 0.0
00000000: 0000 0000 0000 0000 0000 0000 0000 0000
00000010: 0000 0000 0000 0000 0000 0000 0000 0000
00000020: 0000 0000 0000 0000 0000 0000 0000 0000
00000030: 0000 0000 0000 0000 0000 0000 0000 0000
00000040: 0000 0000 0000 0000 0000 0000 0000 0000
00000050: 0000 0000 0000 0000 0000 0000 0000 0000
00000060: 0000 0000 0000 0000 0000 0000 0000 0000
00000070: 0000 0000 0000 0000 0000 0000 0000 0000
00000080: 0000 0000 0000 0000 0000 0000 0000 0000
00000090: 0000 0000 0000 0000 0000 0000 0000 0000
000000a0: 0000 0000 0000 0000 0000 0000 0000 0000
000000b0: 0000 0000 0000 0000 0000 0000 0000 0000

action_model._discrete_distribution.branches.0.weight f4 [1, 128]
-0.0038686953 0.018450672 0.008697181 0.0013358876 0.0032315732 0.0058771833 0.0027201285 -0.0022361174
-0.0025258055 -0.0024820904 -0.003766934 0.0013388173 -0.008826512 0.0022228595 0.0069246516 -0.011034095
0.007286367 -0.009369016 -0.015945805 0.0070392466 0.011690922 -0.0102600595 0.0028183123 0.007713731
0.018026073 -2.736796e-05 0.012289591 0.011978521 0.012612581 0.0017507197 0.0171636 -0.00796408
-0.0072368816 -0.0011033419 0.019673908 0.0062676813 -0.0030458774 -0.00030583944 3.6431044e-05 -0.0051358705
-0.011493879 -0.0033282817 0.002828704 -0.00057411776 0.007373479 0.011689037 -0.008838066 0.012454039
0.0123369945 -0.0010400953 0.0016377176 0.00015639066 -0.0031349969 -0.011445459 0.011743988 -0.002059466
0.010828135 0.0060865353 -0.00022183538 0.006598394 -0.004946348 -0.001132058 0.0006319352 -0.018860256
-0.004272212 -0.0014786499 0.002147139 -0.005353365 -0.0070028007 0.011995753 -0.0004346876 0.02134255
-0.00018583372 -0.0020744356 -0.0008047823 0.0025687339 0.022305196 -0.006105951 0.0038002674 0.0069437074
-0.008353594 -0.01906824 -0.015600554 -0.005046417 0.016855827 -0.0035539996 0.001338459 0.0013019516
-0.0008215305 0.0019368749 0.0055474727 -0.007376281 0.0063358643 -0.0064981477 -0.0051719765 0.016349152
0.010791774 -0.002607856 -0.0030750136 0.010727117 -0.0110703595 0.0044717086 -0.001562618 0.010872586
0.0026052536 0.017851915 -0.0048161503 0.0109493015 -0.006231795 0.0035777136 -0.0070805973 0.00011605507
-0.00212272 0.009475489 0.012560611 0.005297871 -0.0063627223 -0.011053652 -0.0026213469 -0.010523315
0.0046502883 0.00081385317 -0.0059409887 -0.017953502 -0.0032974163 -0.010086672 0.00068446924 -0.009691896
00000000: f089 7dbb dd25 973c 9f7e 0e3c f318 af3a
00000010: cdc8 533b 6395 c03b 2f44 323b d38b 12bb
00000020: fc87 25bb 91aa 22bb aade 76bb 417b af3a
00000030: 139d 10bc 65ad 113b 30e8 e23b 59c8 34bc
00000040: 7ac2 ee3b 8080 19bc c7a0 82bc 7ba9 e63b
00000050: 488b 3f3c cf19 28bc 6fb3 383b 77c3 fc3b
00000060: 6aab 933c 3f94 e5b7 485a 493c 8f41 443c
00000070: 00a5 4e3c 6878 e53a ae9a 8c3c c67b 02bc
00000080: 5d23 edbb 039e 90ba 2d2b a13c 1f61 cd3b
00000090: 589d 47bb 1359 a0b9 89cd 1838 ce4a a8bb
000000a0: d350 3cbc 4d1f 5abb c761 393b 6480 16ba
000000b0: 3a9d f13b 6083 3f3c 89cd 10bc 070c 4c3c
000000c0: 1b21 4a3c cf53 88ba afa8 d63a ccfc 2339
000000d0: 8574 4dbb bc85 3bbc db69 403c 1bf8 06bb
000000e0: 7d68 313c 8f71 c73b 7b9c 68b9 5737 d83b
000000f0: f914 a2bb 9061 94ba 74a8 253a d380 9abc
00000100: e9fd 8bbb 42cf c1ba 04b7 0c3b 486b afbb
00000110: c077 e5bb d689 443c c8e6 e3b9 92d6 ae3c
00000120: 5cdc 42b9 41f3 07bb 07f8 52ba 3458 283b
00000130: 63b9 b63c 6e14 c8bb e80d 793b 0a88 e33b
00000140: 83dd 08bc ff34 9cbc 7799 7fbc 6a5c a5bb
00000150: 3b15 8a3c 38ea 68bb 3b6f af3a 3fa6 aa3a
00000160: fb5b 57ba bdde fd3a 93c7 b53b bbb4 f1bb
00000170: 159d cf3b 6aee d4bb af79 a9bb a8ee 853c
00000180: fbcf 303c 90e8 2abb 2b86 49bb cac0 2f3c
00000190: 7460 35bc 6987 923b c2d0 ccba ee22 323c
000001a0: e7bc 2a3b 2e3e 923c ccd0 9dbb b364 333c
000001b0: 1634 ccbb 1378 6a3b 5b04 e8bb 9762 f338
000001c0: 551d 0bbb 153f 1b3c 05cb 4d3c c399 ad3b
000001d0: 627e d0bb 601a 35bc e7ca 2bbb fb69 2cbc
000001e0: 7261 983b c358 553a a0ac c2bb 3913 93bc
000001f0: 7719 58bb 9242 25bc f46d 333a c2ca 1ebc
