results/baseball1/Baseball/Baseball-877.onnx (onnx, 510855 bytes, 7 tensors)

network_body._body_endoder.seq_layers.0.weight f4 [128, 805]
000000 aa c9 6e 3c 4e 72 fa bc 68 44 e4 bc 28 20 08 bc
       0.014574448 -0.030572083 -0.02786465 -0.008308448
000010 97 98 d2 bc d4 64 5a bb 7f 40 f1 bc 0f 9d 38 3c
       -0.025707526 -0.0033324258 -0.0294497 0.011267914
000020 64 ba 1a bb d8 f7 a0 3d 24 ee 92 3c 95 21 8f bd
       -0.0023609633 0.078597724 0.01793582 -0.06988827
000030 82 6a 77 3d 39 b4 39 bd 50 d6 24 3d 0e 7f 0b bd
       0.06040431 -0.04533789 0.040243447 -0.034056716
000040 42 7a 01 bd 94 0d 90 3b 61 e0 c1 bd ee b3 d9 3c
       -0.031610735 0.00439615 -0.09466625 0.026575055
000050 da 58 40 3d ad 9b 25 bd 52 7a 5c 3c 26 eb 98 bc
       0.046959735 -0.040431667 0.013456898 -0.018666815
000060 cb eb 90 bd ed cd e6 ba 00 84 37 3c ed 67 4e bc
       -0.07076224 -0.0017608978 0.011200905 -0.01259802
000070 d4 c7 23 3d da c4 29 bc fd 6a a9 3b c6 a6 0c 3c
       0.039985493 -0.0103618745 0.0051702247 0.008584684
000080 81 12 ab bb 6d 8b 19 3d e0 6d 00 3c 32 87 b2 bb
       -0.0052207117 0.037486482 0.007838696 -0.0054482454
000090 0f ca c9 ba 8a e9 37 3c 5f 24 05 bd ab 53 aa bd
       -0.0015395301 0.011225114 -0.03250539 -0.0831674
0000a0 f7 d2 31 3c 67 bf 51 bc 28 fe 92 bc 97 b3 8b 3d
       0.010853521 -0.0128019815 -0.017943457 0.068213634
0000b0 4d 8c a4 bb 18 d8 06 bd 04 98 44 3b 50 28 63 3b
       -0.005021608 -0.032920927 0.0029997835 0.003466148
0000c0 39 f6 62 bd f6 10 3c b9 39 bd 44 3b a8 4c 16 3c
       -0.055410597 -0.00017935396 0.0030020012 0.00917355
0000d0 24 cf 8d 3c 4a 8b b6 bc 87 ef ab 3c 6c 7f 37 3c
       0.017310686 -0.022283215 0.020988239 0.011199813
0000e0 41 75 5c bb 44 2d 0c bc 3b e9 ef bc f1 ff 79 3d
       -0.0033639225 -0.008555714 -0.029286018 0.0610351
0000f0 da 38 98 bc 25 0a 32 3b 08 e4 ac 3b 92 b7 71 bd
       -0.018581796 0.002716669 0.005276207 -0.059012957
000100 94 25 be bc fd 9d 3a bd 23 cf 1e bb 9f 35 2f bc
       -0.023211278 -0.045560826 -0.002423235 -0.010693937
000110 dc 8e 08 3c 89 2d e3 bb cd f6 f1 bc 4a 64 b8 3c
       0.008334842 -0.0069329184 -0.02953663 0.022508759
000120 fc 11 94 bb 35 72 21 bd d9 7c 1c 3c 29 e6 43 bd
       -0.0045187455 -0.039415557 0.00955125 -0.04782692
000130 c5 ad ab 3a d6 bb 1b bd 36 6c 44 bc 78 f2 92 ba
       0.0013098052 -0.03802093 -0.01198869 -0.0011211177
000140 65 a7 6e 3a 9f ab 20 3d 10 24 55 3c de b3 20 3d
       0.0009103923 0.03922617 0.013009086 0.039234035
000150 a5 93 94 3d 7c 27 8f bb e4 61 c9 bb 40 a8 10 bc
       0.072547235 -0.0043687206 -0.0061457027 -0.008829176
000160 32 43 2c bd 27 23 11 3d 09 15 5a 3d 5e 6c 6b bd
       -0.04205627 0.035433915 0.053242717 -0.057476394
000170 3b e7 09 bd 0e 19 93 3d 80 e7 33 bb 0d 94 31 bc
       -0.033667784 0.07182513 -0.0027451217 -0.010838521
000180 da ae 1d 3c b4 ef ac 3a 9c be 89 3d 12 bc fc 3c
       0.009624207 0.0013193996 0.06725809 0.030851398
000190 c7 e0 b7 bb ba db c7 bb 85 70 0d 3d f5 e0 1a bd
       -0.0056115123 -0.0060991915 0.034531135 -0.037812192
0001a0 a9 98 f4 bc 03 fd fc 3c 5e 8e 30 3d f3 38 e9 bc
       -0.02985795 0.030882364 0.043104522 -0.028469538
0001b0 f0 70 69 bb 9c 0c 09 bd ca c8 90 bd 87 27 52 3c
       -0.0035620295 -0.03345929 -0.070695475 0.012826807
0001c0 6a 9b c9 3c 1b bd 6e 3d ab 57 fa bc 33 a8 98 bd
       0.02461024 0.058285814 -0.030559381 -0.074539565
0001d0 b0 8d 8a 3c d6 93 86 bd 7b c1 0c 3c 28 e7 d7 bc
       0.016913265 -0.06571166 0.008591051 -0.026355341
0001e0 81 74 bb 3c cb ad 4e bd 46 9e f2 bb ef 31 69 3a
       0.022882702 -0.05045871 -0.0074041216 0.00088956853
0001f0 d3 0f db 3d 9d 63 30 bd 23 01 45 bc d0 93 a7 3c
       0.106963776 -0.04306375 -0.012024197 0.020456225
000200 14 45 d6 bb b6 d6 af 3c 57 f1 b7 bc 14 6e 66 3c
       -0.0065389965 0.021464687 -0.022453947 0.014064331
000210 85 4d de bc 15 cb 2d 3c 2c 57 dc 3c f9 ac 4c bd
       -0.027136574 0.010607501 0.026897036 -0.049969647
000220 87 1c bf bc a8 0d db bc c7 d4 43 bc fa ec 60 3c
       -0.023329033 -0.02673991 -0.011952586 0.013728375
000230 d1 c1 89 bc 60 6c b7 3b 32 2b 47 ba 13 3c a6 3c
       -0.016816052 0.005597636 -0.0007597684 0.020292317
000240 0d 51 a2 bc 6e 8a e7 bb 28 09 14 bd 8e 68 ae 3c
       -0.019814039 -0.0070660627 -0.036141545 0.02129009
000250 6e 81 60 3b f3 56 5b 3d 65 62 b1 3c 63 31 eb 3c
       0.0034256834 0.053549718 0.021653363 0.028710073
000260 6a 03 86 3c 02 e6 81 3c 27 85 9e 3c fe ec 70 bd
       0.01635905 0.015856747 0.019350601 -0.058819763
000270 18 31 9b bb ca be 46 bd a1 ed 11 3d bc d5 0f 3d
       -0.004736077 -0.048521794 0.03562701 0.035115942
000280 ac 71 70 bc a2 e9 d9 bb 07 de 57 3d f6 71 9e 3c
       -0.014675539 -0.0066501657 0.052701976 0.01934145
000290 2f 6d ad 3c 55 f0 2e bd e1 b7 2f bc 8e ba fc bc
       0.021170227 -0.042709667 -0.0107249925 -0.030850675
0002a0 89 9c d1 bc 36 47 48 bc df f7 01 bd 8f 5d eb bc
       -0.025587337 -0.012224009 -0.03173053 -0.028731136
0002b0 2d dc ac bc 9a fa 27 bc 97 93 81 bc 3f b6 ec bb
       -0.021101082 -0.010252619 -0.015817447 -0.007223874
0002c0 cd 32 af bc 21 50 c7 3c 99 f2 14 bc ae 9e a6 3c
       -0.021386528 0.0243302 -0.009091043 0.020339336
0002d0 6a d4 c0 bc a6 9c e5 3c 20 47 66 3c f7 8f dd 3c
       -0.023538787 0.028028797 0.014055043 0.027046187
0002e0 2e bd 78 3d d3 a6 34 bc 00 c8 84 bd 9a 28 2f bd
       0.06072729 -0.011026102 -0.064834595 -0.04276333
0002f0 c0 cf e1 bc 7d 27 f3 3c d6 51 73 3c a4 76 43 bc
       -0.027564883 0.029681915 0.014851054 -0.011930142
000300 77 45 f8 3b 74 b7 37 3c 8c dc 22 bc 8d f8 1c 3c
       0.00757664 0.011213172 -0.009940278 0.0095807435
000310 8d 19 96 3a 57 11 cb 3a 32 8d 46 3c 11 d1 03 3d
       0.0011451707 0.0015492839 0.0121186245 0.032181803
000320 53 53 2f 3b 4b ed da 3c 4a 24 d3 3b 3a 31 46 3d
       0.0026752546 0.026724478 0.006443535 0.04838679
000330 ad 4a 1d 3d bb c7 a5 3b 75 bf ba 3c 63 bc ae bb
       0.038401294 0.00505921 0.022796372 -0.005332516
000340 f6 56 5e bc 0b 7d 4f 3b 8a ad af bc e2 1f 4d 3d
       -0.013570538 0.0031660225 -0.021445055 0.050079234
000350 87 d6 19 39 2c 13 8f bc 3b 63 5c 3d 9d d4 e8 3c
       0.00014671135 -0.017465197 0.05380557 0.028421694
000360 6d 09 a0 3c 98 03 48 3c e0 ca 8f 3c ce 32 0c bd
       0.019535745 0.012207888 0.017552793 -0.03422814
000370 b3 65 8f 3a 44 fc c6 bc 07 3f 0e 3d 67 e9 a7 3c
       0.0010940343 -0.024290211 0.034728076 0.020497037
000380 78 50 43 3d 55 a6 9d 3d d0 0d 87 3c 4b d2 6b bd
       0.047684163 0.07697741 0.016486079 -0.057573598
000390 37 a6 02 bd 64 28 80 bc 66 29 c0 bc 0a 21 20 3d
       -0.031896796 -0.01564426 -0.02345724 0.03909401
0003a0 5b aa 4c bd de 38 f0 bc 56 df 30 bd 6d 49 c5 3c
       -0.04996715 -0.029323991 -0.04318174 0.024082864
0003b0 4a f1 84 3d 9d ac 36 3c 4f c8 ba bc 8b c2 e0 bc
       0.06491335 0.011149553 -0.022800593 -0.027436515
0003c0 2d 1b e5 bc cb c3 1f bc 8e 42 47 bc 62 38 3c 3c
       -0.02796706 -0.0097512705 -0.012161864 0.011488052
0003d0 6c 2d 21 3c 67 50 4f bd 39 33 9d bc 95 10 29 3c
       0.00983749 -0.050613787 -0.019189464 0.010318895
0003e0 c6 5e cc bc 0d a3 ad bc 2a 1d 9a 3c 54 70 36 3d
       -0.024947535 -0.021195913 0.018812735 0.04454072
0003f0 98 16 62 bc fe c7 2b bd c3 6d 03 3d 6f c3 22 3d
       -0.013799332 -0.041938774 0.0320871 0.03973716

network_body._body_endoder.seq_layers.0.bias f4 [128]
000000 00 00 00 00 00 00 00 00 00 00 00 00 00 00 00 00
       0.0 0.0 0.0 0.0
000010 00 00 00 00 00 00 00 00 00 00 00 00 00 00 00 00
       0.0 0.0 0.0 0.0
000020 00 00 00 00 00 00 00 00 00 00 00 00 00 00 00 00
       0.0 0.0 0.0 0.0
000030 00 00 00 00 00 00 00 00 00 00 00 00 00 00 00 00
       0.0 0.0 0.0 0.0
000040 00 00 00 00 00 00 00 00 00 00 00 00 00 00 00 00
       0.0 0.0 0.0 0.0
000050 00 00 00 00 00 00 00 00 00 00 00 00 00 00 00 00
       0.0 0.0 0.0 0.0
000060 00 00 00 00 00 00 00 00 00 00 00 00 00 00 00 00
       0.0 0.0 0.0 0.0
000070 00 00 00 00 00 00 00 00 00 00 00 00 00 00 00 00
       0.0 0.0 0.0 0.0
000080 00 00 00 00 00 00 00 00 00 00 00 00 00 00 00 00
       0.0 0.0 0.0 0.0
000090 00 00 00 00 00 00 00 00 00 00 00 00 00 00 00 00
       0.0 0.0 0.0 0.0
0000a0 00 00 00 00 00 00 00 00 00 00 00 00 00 00 00 00
       0.0 0.0 0.0 0.0
0000b0 00 00 00 00 00 00 00 00 00 00 00 00 00 00 00 00
       0.0 0.0 0.0 0.0
0000c0 00 00 00 00 00 00 00 00 00 00 00 00 00 00 00 00
       0.0 0.0 0.0 0.0
0000d0 00 00 00 00 00 00 00 00 00 00 00 00 00 00 00 00
       0.0 0.0 0.0 0.0
0000e0 00 00 00 00 00 00 00 00 00 00 00 00 00 00 00 00
       0.0 0.0 0.0 0.0
0000f0 00 00 00 00 00 00 00 00 00 00 00 00 00 00 00 00
       0.0 0.0 0.0 0.0
000100 00 00 00 00 00 00 00 00 00 00 00 00 00 00 00 00
       0.0 0.0 0.0 0.0
000110 00 00 00 00 00 00 00 00 00 00 00 00 00 00 00 00
       0.0 0.0 0.0 0.0
000120 00 00 00 00 00 00 00 00 00 00 00 00 00 00 00 00
       0.0 0.0 0.0 0.0
000130 00 00 00 00 00 00 00 00 00 00 00 00 00 00 00 00
       0.0 0.0 0.0 0.0
000140 00 00 00 00 00 00 00 00 00 00 00 00 00 00 00 00
       0.0 0.0 0.0 0.0
000150 00 00 00 00 00 00 00 00 00 00 00 00 00 00 00 00
       0.0 0.0 0.0 0.0
000160 00 00 00 00 00 00 00 00 00 00 00 00 00 00 00 00
       0.0 0.0 0.0 0.0
000170 00 00 00 00 00 00 00 00 00 00 00 00 00 00 00 00
       0.0 0.0 0.0 0.0
000180 00 00 00 00 00 00 00 00 00 00 00 00 00 00 00 00
       0.0 0.0 0.0 0.0
000190 00 00 00 00 00 00 00 00 00 00 00 00 00 00 00 00
       0.0 0.0 0.0 0.0
0001a0 00 00 00 00 00 00 00 00 00 00 00 00 00 00 00 00
       0.0 0.0 0.0 0.0
0001b0 00 00 00 00 00 00 00 00 00 00 00 00 00 00 00 00
       0.0 0.0 0.0 0.0
0001c0 00 00 00 00 00 00 00 00 00 00 00 00 00 00 00 00
       0.0 0.0 0.0 0.0
0001d0 00 00 00 00 00 00 00 00 00 00 00 00 00 00 00 00
       0.0 0.0 0.0 0.0
0001e0 00 00 00 00 00 00 00 00 00 00 00 00 00 00 00 00
       0.0 0.0 0.0 0.0
0001f0 00 00 00 00 00 00 00 00 00 00 00 00 00 00 00 00
       0.0 0.0 0.0 0.0

network_body._body_endoder.seq_layers.2.weight f4 [128, 128]
000000 70 4b 0f bb f8 d9 82 3d e3 72 32 be ef ce 32 bd
       -0.0021865033 0.063892305 -0.17426638 -0.04365438
000010 f1 db d3 bd 8b cb fb bd 0a 58 ef 3d c7 37 10 3e
       -0.10344685 -0.12294682 0.11686714 0.14083777
000020 56 53 58 3e 69 39 69 be 41 b8 89 3c 7e ea 1d bd
       0.2112554 -0.22775806 0.016811492 -0.038553707
000030 99 40 45 be 2f 09 e1 bb d0 c3 1c 3e 6a 04 80 3e
       -0.19262923 -0.00686755 0.15309072 0.25003368
000040 fa 9b 92 bd 52 1c 45 be e9 50 51 3d 3b c0 66 bd
       -0.071586564 -0.19249085 0.051102553 -0.05633567
000050 97 15 fa 3b 56 98 56 3c a9 4a af bd 9a 40 0a 3e
       0.0076319682 0.013097843 -0.08559162 0.13501206
000060 ad ca cd 3b 8e 92 b8 3d 9c c3 11 3d f9 6e 1f 3b
       0.0062802644 0.09012328 0.03558694 0.002432762
000070 41 b0 87 bc fb bb aa 3d 86 f5 88 bd 64 4c e0 3c
       -0.016563537 0.08336636 -0.06687455 0.027380176
000080 2c 58 35 bd 2e 39 0e 3d c7 d4 c7 3d 46 6e 1f 3e
       -0.04427354 0.0347225 0.09757381 0.1556941
000090 07 5d 24 3d 86 4d fb 3d 51 03 2f 3e b6 60 19 be
       0.04012778 0.12270646 0.17091109 -0.14978299
0000a0 d3 06 bb bd 07 13 fd 3d 60 80 86 bd 2e 4d f2 3c
       -0.09132161 0.12357145 -0.06567454 0.029577818
0000b0 56 f0 ea 3d 0c 12 7f bd 6a ee 71 bc 82 4e 9a 3d
       0.11471622 -0.06227307 -0.014766315 0.075345054
0000c0 61 2c ad ba 5e fa 5f 3c 50 20 bf bd 84 30 a3 3d
       -0.0013212078 0.013670532 -0.09332335 0.07968238
0000d0 fc 80 ac 3d b2 b9 93 3d 97 fc bd bc 22 3e 8c bc
       0.08423039 0.07213153 -0.023191733 -0.017119471
0000e0 05 e6 4f 3a df 94 06 bd 26 72 21 bc c5 52 1a be
       0.0007930699 -0.03285682 -0.009853875 -0.15070637
0000f0 8b 45 43 3d 0e 43 ea bd 4c f0 b1 bc f3 93 6b bd
       0.047673743 -0.11438571 -0.021721028 -0.057514142
000100 01 d3 1a bd 39 30 4b bd 0f 87 d4 3d e0 c6 26 be
       -0.037798885 -0.049606536 0.10377323 -0.16286802
000110 54 84 d0 bc 9a 7a 11 3e 25 99 df 3d 29 7c 2d bd
       -0.025453724 0.14206925 0.10917882 -0.042354736
000120 3e cf da bc 34 e7 e0 3d 5a f4 e3 3c 24 ca a4 3d
       -0.026710149 0.109815985 0.027826477 0.08046368
000130 00 3f a2 bd 68 a7 15 be af d7 1a be e0 c0 17 be
       -0.079221725 -0.14614642 -0.1512134 -0.1481967
000140 df a4 97 3c 08 0d 6e 3d 15 00 04 bd 5e 05 f0 bc
       0.018511234 0.058117896 -0.03222664 -0.029299434
000150 b7 58 92 bd 21 a9 c2 bd 2c 38 cc bd 65 7a 85 3d
       -0.07145827 -0.09504915 -0.099716514 0.065174855
000160 36 5d 1e bd 6a 36 73 bc 96 e5 bb 3c 8e 6a aa bd
       -0.03866311 -0.014844516 0.022936624 -0.08321105
000170 fd a0 47 3d cd b2 9b bb 04 7d 76 3d eb 08 30 bd
       0.048737515 -0.0047515393 0.060177818 -0.042977255
000180 65 b4 86 bd 14 07 0f 3e 4c 75 83 bc 36 ec a8 bb
       -0.06577376 0.13967544 -0.016047142 -0.0051551117
000190 31 90 14 bd 05 5b 7d bd 98 fb 44 3e 7a 80 8a be
       -0.036270324 -0.06185438 0.192366 -0.27051145
0001a0 7e e9 16 3e 3d 45 a5 bd 8e 15 05 be 60 d1 65 3d
       0.14737508 -0.08069847 -0.12996504 0.05610788
0001b0 a3 a7 6d 3d 2a a6 d0 bd d7 36 10 be 03 21 db bc
       0.0580212 -0.10187943 -0.1408342 -0.02674914
0001c0 6b ba 2f 3d 3a ed 83 bd db ca ab bd 84 f2 b5 bd
       0.04290239 -0.06441732 -0.08388301 -0.08884147
0001d0 7e b8 17 bd e1 83 c9 3d 8b 24 32 3e 2e 21 c0 bc
       -0.03704118 0.09839607 0.17396753 -0.023453321
0001e0 aa bb f7 3d 46 d3 8c be 02 ca 17 3e 36 8c 74 b6
       0.12096341 -0.2750494 0.14823154 -3.6440447e-06
0001f0 a2 a8 18 be 06 ab 48 3e de 2c 02 3e 9f 4b 1d bc
       -0.14908078 0.1959649 0.12712428 -0.009600549
000200 59 ea 59 3d 69 04 06 3e e1 5c 07 3d bc 54 2b bd
       0.053202007 0.1308762 0.03304756 -0.041828856
000210 09 19 d8 3d 45 55 26 3d e5 0b 8d 3d 98 f5 3a 3d
       0.1055165 0.040608663 0.06887034 0.045644373
000220 db 2b fd bc ad c8 20 bd a7 67 e5 3d 55 45 3e 3d
       -0.030904701 -0.03925388 0.11201411 0.04645284
000230 02 5a 36 3c 04 ed 8f 3b c2 d0 72 3d db ab fb bd
       0.011129858 0.004392268 0.05928112 -0.12288638
000240 fe 66 ae 3b de 55 7c bd a5 aa 4c 3d 58 5e 34 3e
       0.005322336 -0.061605327 0.049967427 0.17614114
000250 90 9d e0 3c 96 fc 08 3e 0c b7 e3 bd 7d cf 06 be
       0.027418882 0.13377604 -0.11118898 -0.13165088
000260 05 f7 13 3d 39 36 56 3d cb 6d 6e bd 63 d5 8e 3d
       0.036124248 0.052297805 -0.058210175 0.06974294
000270 3f 4b 10 3c b6 16 fb 3d 15 3c 10 3b d5 b1 8c 3d
       0.008807003 0.12260191 0.0022008468 0.06869856
000280 f4 75 a5 bd 6f 5f ea 3c 4f ec 63 bd ff 53 dc 3c
       -0.080791384 0.02860996 -0.055645283 0.026895521
000290 22 50 35 bc ec d5 83 bc cf 9f bd bc c8 4c eb 3c
       -0.011066468 -0.016093217 -0.023147492 0.028723136
0002a0 11 14 59 bd 4b 47 d9 bc 0a c2 e1 bc 02 0a 45 3e
       -0.052997652 -0.026523253 -0.027558345 0.19242099
0002b0 a6 a1 91 3c bc 85 9f bd a2 bc 4e 3d 1f 99 c7 bd
       0.017777275 -0.0778918 0.050472863 -0.097460024
0002c0 5e 5c 78 bd a7 c4 02 3e a7 94 9b 3c e4 0e c7 bc
       -0.060634963 0.1277033 0.018991781 -0.024299093
0002d0 a4 32 35 3e 96 17 af bc 1f a8 4d bd f6 c9 04 bd
       0.17695099 -0.021373551 -0.05020916 -0.032419167
0002e0 46 1d b9 bd f3 89 91 3d 0b 4f bc 3c b1 aa 26 3d
       -0.090387866 0.0710639 0.02298691 0.040690128
0002f0 31 ca 82 3b 93 12 34 3e 95 a4 13 bc 9a f0 5c bd
       0.0039913883 0.1758521 -0.009011407 -0.053940393
000300 e1 ed a0 bd 63 63 d9 bd b6 d8 73 3d 3f d4 68 bd
       -0.07857872 -0.1061466 0.059532844 -0.05684304
000310 0e c6 53 3d a0 f2 25 bd a7 00 37 3d df 06 5f be
       0.05170255 -0.04051459 0.044678356 -0.21779965
000320 d7 b3 01 3d e5 b6 17 bd a5 65 0d 3d bd 69 fd 3c
       0.03166565 -0.037039656 0.034520764 0.030934209
000330 5d d9 74 3d a8 97 b2 3d 99 25 62 bd 5a 10 ca 3d
       0.059777606 0.087203324 -0.055211637 0.098664
000340 41 c1 d8 3d f3 e2 84 3d 18 bd 72 bb fa 53 39 3d
       0.10583735 0.064886 -0.0037038978 0.045246102
000350 fe 18 39 bd c9 31 93 3d a3 2d cb 3d 39 9a f5 bd
       -0.04518985 0.0718723 0.09920814 -0.11992306
000360 06 52 ad bd 0b 2b 0a 3e 0f 67 d7 3d 65 f4 20 be
       -0.0846291 0.13492982 0.10517704 -0.15718229
000370 f3 de 95 bd a1 88 33 3c 1f bf 93 3d bb 54 29 3d
       -0.07317915 0.010957868 0.07214188 0.04134057
000380 46 ff b9 bb 3a 50 26 3c f3 72 e2 bd 27 54 84 bd
       -0.005676183 0.010150963 -0.11057081 -0.06461363
000390 fd dc 8d 3c 48 f7 02 be 63 08 f3 bb e9 73 2d bd
       0.01731729 -0.12789643 -0.0074167713 -0.04234687
0003a0 a1 2c 54 3d f7 63 33 3e a6 e9 c9 3c 08 20 00 3e
       0.051800374 0.17518602 0.024647545 0.12512219
0003b0 45 3f 2a bd ad d8 04 be ee 57 15 3d 7e 25 2a bd
       -0.041564245 -0.1297328 0.03646081 -0.04153966
0003c0 da da 78 3c e6 52 d3 3c cc bc 90 3b 59 2c b6 bd
       0.015188897 0.025796365 0.0044170376 -0.088951774
0003d0 ac be 18 3d ce fc 7f 3d 1f 1a fb 3c ce b3 77 3c
       0.037291214 0.062496953 0.030652104 0.015118552
0003e0 a0 64 93 3d dc a8 72 3d 5e 00 09 3e ac 34 00 3d
       0.07196927 0.059243068 0.13379046 0.03130023
0003f0 8c 72 09 be 9d 1f 7c bd bb a7 d7 3d 2a 91 aa 3d
       -0.13422602 -0.061553586 0.10530039 0.08328469

action_model._continuous_distribution.log_sigma f4 [1, 48]
000000 00 00 00 00 00 00 00 00 00 00 00 00 00 00 00 00
       0.0 0.0 0.0 0.0
000010 00 00 00 00 00 00 00 00 00 00 00 00 00 00 00 00
       0.0 0.0 0.0 0.0
000020 00 00 00 00 00 00 00 00 00 00 00 00 00 00 00 00
       0.0 0.0 0.0 0.0
000030 00 00 00 00 00 00 00 00 00 00 00 00 00 00 00 00
       0.0 0.0 0.0 0.0
000040 00 00 00 00 00 00 00 00 00 00 00 00 00 00 00 00
       0.0 0.0 0.0 0.0
000050 00 00 00 00 00 00 00 00 00 00 00 00 00 00 00 00
       0.0 0.0 0.0 0.0
000060 00 00 00 00 00 00 00 00 00 00 00 00 00 00 00 00
       0.0 0.0 0.0 0.0
000070 00 00 00 00 00 00 00 00 00 00 00 00 00 00 00 00
       0.0 0.0 0.0 0.0
000080 00 00 00 00 00 00 00 00 00 00 00 00 00 00 00 00
       0.0 0.0 0.0 0.0
000090 00 00 00 00 00 00 00 00 00 00 00 00 00 00 00 00
       0.0 0.0 0.0 0.0
0000a0 00 00 00 00 00 00 00 00 00 00 00 00 00 00 00 00
       0.0 0.0 0.0 0.0
0000b0 00 00 00 00 00 00 00 00 00 00 00 00 00 00 00 00
       0.0 0.0 0.0 0.0

action_model._continuous_distribution.mu.weight f4 [48, 128]
000000 2f 06 03 3c 44 5b 01 3c 95 43 b0 b9 85 34 e2 ba
       0.00799708 0.007895295 -0.00033619688 -0.0017258084
000010 fa 50 db 3b 73 51 be 3c 32 5d 48 bc 9b 8b 07 3d
       0.006693003 0.023232197 -0.012229251 0.033092123
000020 f2 32 10 bc 98 2c 70 3b f7 3c 9d bc 32 7a 86 3c
       -0.008801209 0.0036647674 -0.01919411 0.01641569
000030 b1 33 be 3b c8 81 7b 39 27 97 b3 bc 9f e3 b0 3a
       0.005804502 0.00023985573 -0.021922661 0.0013495571
000040 84 56 93 3c fc d0 01 bd 7a c7 5f ba d1 28 93 bc
       0.01798559 -0.031693444 -0.0008536499 -0.017963799
000050 6f 5e 8b ba 33 99 28 3c 3f 20 85 3c 73 5d b2 bc
       -0.0010633002 0.010290432 0.016250728 -0.021773076
000060 b6 1e 91 ba d2 c3 50 3b 18 76 66 3d e8 70 59 bc
       -0.0011071775 0.0031855 0.056264967 -0.013271548
000070 3a 17 6a bb 4b ed 1e bd cd 04 c8 bc 0f 0e cc 3c
       -0.003571941 -0.03880052 -0.024416352 0.024909047
000080 44 da 9b 3c ff 2b 21 bd 75 8a e0 bc 92 f1 bb 3b
       0.019024976 -0.0393486 -0.027409771 0.0057355845
000090 a8 82 62 3c 02 c3 96 bc f6 92 99 bc 64 72 96 bc
       0.013825096 -0.018403534 -0.018746834 -0.018365093
0000a0 6e 3b a3 3b 12 50 69 3c 9e 81 4a bb f5 ce 21 3c
       0.00498145 0.014240282 -0.0030900012 0.009876003
0000b0 0d 77 16 3c 3b 4c 98 bb 43 3c 1a bc fe 7a ac bc
       0.009183657 -0.0046477593 -0.009413782 -0.021054741
0000c0 0f fc 5a 3d 7b 19 cd 3b 03 03 12 3d c5 b8 27 3c
       0.053463038 0.006259141 0.035647403 0.010236924
0000d0 94 13 b3 3c 52 65 94 3c 4c 03 0a 3c 23 7a e3 3c
       0.021859922 0.01811472 0.008423638 0.0277682
0000e0 f3 5a a2 bc 0c 52 be 3c fb f0 9b 3c 17 31 66 3c
       -0.019818759 0.023232482 0.019035807 0.01404979
0000f0 85 f0 fb ba e3 e2 48 3b bd 47 5a bc fb 78 bd 3c
       -0.0019221461 0.0030652813 -0.013322768 0.023128977
000100 e2 4f 3a 3c b9 c2 21 3c da 32 03 bd 12 b9 ce 3c
       0.011371585 0.009873086 -0.032030918 0.025234733
000110 3d bf e1 bc a6 1a 03 3d f4 a2 35 bd 25 bf 87 bc
       -0.02755701 0.032007836 -0.044344857 -0.016570637
000120 0c 19 8d bc cb 21 9d bb 52 91 d8 3c 3d 04 91 bc
       -0.017223857 -0.004795288 0.026436482 -0.017702216
000130 d3 9a 25 3d a9 0b 4c bc 39 2f a5 3c ab 51 39 bc
       0.040430855 -0.012453952 0.02016412 -0.011310975
000140 a6 9d 27 3a 12 9b e8 bb ea 99 bd 3a 2d 02 ad bc
       0.0006394036 -0.007098564 0.0014465426 -0.021119202
000150 60 3d 89 3c 7e 6f 2e bd 53 43 71 3c 10 09 64 ba
       0.016752899 -0.042586796 0.014725524 -0.000869886
000160 a7 7d 89 b9 ef fa 07 3c 6a 15 d7 bb 34 46 2f 3c
       -0.00026224295 0.008299573 -0.006563832 0.01069789
000170 e7 98 02 bc 3f 9b 5f 3b 24 84 14 bd 4b c7 af bb
       -0.007971025 0.0034119633 -0.03625883 -0.0053643337
000180 70 37 5f 3c 85 ce 4c bb 25 ad 71 bc 50 a6 d8 3b
       0.013624057 -0.0031251025 -0.0147507535 0.006611623
000190 b3 96 23 bc c0 7e 7f ba f3 ce fc bc 6f 8c b6 3b
       -0.00998466 -0.0009746365 -0.0308604 0.00557094
0001a0 48 b2 2b bc 3a 6f 8a 3c 4f 19 74 3b fa 68 d5 3a
       -0.010479517 0.01689874 0.003724653 0.0016281896
0001b0 27 48 4d bb ee 59 11 3a a8 bd 67 bb af 5e dd b8
       -0.0031323524 0.00055447116 -0.0035360847 -0.000105557374
0001c0 c3 71 b7 3a 7d 3b cf bc c2 c7 74 3c 7c 7f 86 bb
       0.0013995696 -0.02529692 0.014940204 -0.004104553
0001d0 73 c7 f8 bc 82 10 b9 3b db d0 03 3b 9c 49 2a 3c
       -0.030368542 0.00564772 0.0020113501 0.010393526
0001e0 00 0e c7 bc 1d 18 85 bb 5d 8c 11 3c fa da 16 bd
       -0.024298668 -0.0040617124 0.008883563 -0.036829926
0001f0 35 7b 6f 3c bf ae 4a 3c f4 3c c2 bb fa 04 fc bb
       0.014616777 0.012370764 -0.0059276763 -0.007691023
000200 aa f4 ac bc 40 11 b8 3c f6 bf 9b bc 6f d1 31 3c
       -0.021112759 0.022469163 -0.019012433 0.0108531555
000210 75 32 b0 3c 95 8d 51 3c f0 12 2a 3c 95 2b f6 bc
       0.021508435 0.012790103 0.010380492 -0.030050078
000220 56 b1 a5 ba 43 f5 04 3d 9d 3a c7 bb b3 b2 29 bd
       -0.0012641351 0.032460462 -0.0060799853 -0.041430186
000230 1a c9 0d bc 44 79 43 3c 97 af 0c 3d 73 6f fb 3c
       -0.008653903 0.011930767 0.034347143 0.030692792
000240 4e ff 8b 3c 9f b0 fa 3b fa 9f 9a bc ff 19 76 3b
       0.017089512 0.0076504494 -0.01887511 0.0037552116
000250 af c1 08 bd f3 26 1c 3c af 58 02 bd 1b 13 29 3c
       -0.033387836 0.009530771 -0.031822857 0.0103194965
000260 f3 f1 8c bc ec 59 ae bc 53 a2 04 bc 88 05 e1 3a
       -0.017205214 -0.021283112 -0.008095342 0.0017167786
000270 3f d6 94 3c f7 dc ec bb 88 dd 7c 3c 61 93 34 3b
       0.018168567 -0.0072284895 0.015433677 0.0027553665
000280 4f 40 f8 3c 7b 08 9e bc ff 1d a7 3c 12 5c 00 3d
       0.030304102 -0.019291153 0.020400045 0.031337805
000290 b7 2d c7 3c 93 63 de 3b ba b9 2c ba 4b d2 9b 3c
       0.02431379 0.0067867725 -0.0006588955 0.019021174
0002a0 7b b5 a7 3c 27 22 ad bc 33 b5 ef bb 40 0f 01 bd
       0.020472279 -0.02113445 -0.007315302 -0.031508684
0002b0 5b 35 ae 3c 67 29 0a 3d 77 95 4a bc 5a a5 74 3c
       0.021265676 0.03373089 -0.012364737 0.014932001
0002c0 17 64 af 3c d3 54 0d 3c 97 a2 99 bb d0 fd 43 3c
       0.021410031 0.008626181 -0.0046885717 0.011962369
0002d0 97 e2 73 bc 0c e9 01 bd 66 60 9f bb 8d 28 2d bc
       -0.014885566 -0.03171639 -0.0048637865 -0.01056875
0002e0 9c f7 3d 3c ed dd ab 3b d6 ff 9a bc 95 5d 15 bd
       0.011594679 0.0052449615 -0.01892082 -0.0364662
0002f0 e7 38 a7 bc 7c 4c 86 3c f5 56 bb 3a bf dd 0e 3c
       -0.020412875 0.016393892 0.0014292883 0.008719861
000300 8d d4 27 3c 43 1f 25 bc 8b e5 6c b9 03 b0 c4 3c
       0.010243547 -0.010078254 -0.00022592225 0.02400971
000310 0f b8 26 3d f7 05 9c 3a b5 c2 f2 bc 07 d6 4f bc
       0.040702876 0.0011903633 -0.02963386 -0.012685305
000320 cc 1a 33 3c 80 ab c0 bc 84 2f b5 3c 23 98 d3 bb
       0.010931682 -0.023519278 0.022117384 -0.006457345
000330 a3 cb 1f 3c 63 a4 a5 3c 6f 0a 43 3b ab 18 b9 bb
       0.009753141 0.020219987 0.0029760858 -0.0056486926
000340 8d 57 18 bd 31 2e 3a 3d 74 b9 98 3c 6f 5b 21 bc
       -0.03719287 0.045454208 0.018643118 -0.00984846
000350 03 cf d0 3b 1a dd cf ba a6 f3 b5 bb 2d 31 3a bc
       0.006372334 -0.001585874 -0.005552727 -0.0113642635
000360 e1 b4 06 bc 8b 5c 13 3c 66 13 94 3c 4d ea 9a 3c
       -0.008221836 0.008994232 0.018075656 0.018910551
000370 1f e4 5a 3b 6f 2b eb 3a 40 bc 00 bd af e3 28 3d
       0.003340013 0.0017942021 -0.03142953 0.04123276
000380 4f 0a 3f 3c bb f8 da 3c 5b 72 9f 3c 5a 07 83 bc
       0.011660173 0.026729932 0.019463709 -0.015994716
000390 02 5e 43 bc 31 77 0a bd 78 8c 0e 3d 58 7d d0 3c
       -0.011924269 -0.033805076 0.03480193 0.025450394
0003a0 d3 9f 25 3c cd d5 14 bc ca 02 6e 3c e0 cb 3b 3b
       0.010108906 -0.009084177 0.014527032 0.0028655455
0003b0 8f 68 d3 bb cd 62 2c bc 75 78 f8 ba fa 47 a9 bb
       -0.0064516733 -0.010521603 -0.0018956797 -0.005166051
0003c0 77 2c 78 bc a6 70 23 3a 27 8b 25 bc b2 06 11 3c
       -0.01514732 0.00062347425 -0.010103977 0.008851694
0003d0 ab 1a e5 3c bf d2 59 3c 5d 3b eb 3b af 3a 9f bc
       0.027966818 0.013294875 0.0071787075 -0.019437162
0003e0 3a 29 65 3c e7 c1 0a 3d 15 3c 35 3c eb 53 0a bd
       0.01398688 0.033876326 0.011061688 -0.033771437
0003f0 f6 48 25 3d 40 4c e7 bc f3 be d7 3b 50 61 a9 3a
       0.040352784 -0.028234601 0.006584042 0.0012922678

action_model._continuous_distribution.mu.bias f4 [48]
000000 00 00 00 00 00 00 00 00 00 00 00 00 00 00 00 00
       0.0 0.0 0.0 0.0
000010 00 00 00 00 00 00 00 00 00 00 00 00 00 00 00 00
       0.0 0.0 0.0 0.0
000020 00 00 00 00 00 00 00 00 00 00 00 00 00 00 00 00
       0.0 0.0 0.0 0.0
000030 00 00 00 00 00 00 00 00 00 00 00 00 00 00 00 00
       0.0 0.0 0.0 0.0
000040 00 00 00 00 00 00 00 00 00 00 00 00 00 00 00 00
       0.0 0.0 0.0 0.0
000050 00 00 00 00 00 00 00 00 00 00 00 00 00 00 00 00
       0.0 0.0 0.0 0.0
000060 00 00 00 00 00 00 00 00 00 00 00 00 00 00 00 00
       0.0 0.0 0.0 0.0
000070 00 00 00 00 00 00 00 00 00 00 00 00 00 00 00 00
       0.0 0.0 0.0 0.0
000080 00 00 00 00 00 00 00 00 00 00 00 00 00 00 00 00
       0.0 0.0 0.0 0.0
000090 00 00 00 00 00 00 00 00 00 00 00 00 00 00 00 00
       0.0 0.0 0.0 0.0
0000a0 00 00 00 00 00 00 00 00 00 00 00 00 00 00 00 00
       0.0 0.0 0.0 0.0
0000b0 00 00 00 00 00 00 00 00 00 00 00 00 00 00 00 00
       0.0 0.0 0.0 0.0

action_model._discrete_distribution.branches.0.weight f4 [1, 128]
000000 58 1a dc 3b c2 21 ff bb bb 37 61 3b f3 2b cb 3c
       0.0067170076 -0.0077860067 0.0034365493 0.02480123
000010 68 ba 49 3c 0f 34 27 bc 47 3d e6 3a 7b 61 32 3c
       0.012312509 -0.010205283 0.001756587 0.010887499
000020 ef 7d 0d bb 9f 1c 17 3b c3 46 c6 3b fd c8 e0 3a
       -0.0021589955 0.002305783 0.006050916 0.0017149743
000030 de 21 0e bc 8b 3a 5a 3a dc a3 06 3c 72 98 d2 3b
       -0.008675067 0.00083247636 0.008217778 0.0064268643
000040 c8 8f 4b 3b ab 53 70 bb 07 2d 11 bb 25 85 a0 3a
       0.0031061042 -0.0036670964 -0.0022152083 0.0012246711
000050 6e cb 3c 3c c6 ba 41 bc f3 91 d3 b8 0f 73 97 bc
       0.011523111 -0.011824315 -0.00010088449 -0.018487481
000060 02 18 06 bc f8 e6 60 bc 02 e9 48 bb eb e3 7e bc
       -0.008184435 -0.013726942 -0.0030656462 -0.01555727
000070 30 e7 92 bb 4e de a6 38 81 3b 98 3b ab 7b 48 bc
       -0.004483126 7.956904e-05 0.0046457653 -0.012236516
000080 ff a2 48 3c 37 e1 03 3c 19 b9 83 3b 75 84 12 bc
       0.012245893 0.008049301 0.004019868 -0.008942713
000090 f4 f4 97 bb 73 ea 92 bc 73 5f f2 3b c7 11 3b 3c
       -0.004637355 -0.01793406 0.0073966323 0.011417813
0000a0 1a 01 51 3c 23 eb 3c 3c 77 2b b2 bb 0c 1b b0 bb
       0.01275661 0.01153067 -0.0054373103 -0.005374318
0000b0 17 40 c3 bb 3a 85 0d 3b 20 77 2f 3b f3 8c 12 3c
       -0.005958568 0.0021594302 0.0026773885 0.008944738
0000c0 27 85 cc bb 6c 42 a7 3b b2 77 d4 b9 d3 43 16 bb
       -0.006241459 0.0051043537 -0.0004052497 -0.002292861
0000d0 3f 5e 2e ba fb 93 c6 bb 3f 44 99 b8 87 4e c0 3b
       -0.0006651617 -0.006060121 -7.30832e-05 0.005868736
0000e0 95 32 f0 3a b9 37 8c 3c bf 0d 0d 3c 58 8c e7 3b
       0.0018325621 0.017116414 0.008609234 0.007066291
0000f0 5f bc 76 bb 17 2e 0f 3c 02 a5 85 3a a3 57 31 bb
       -0.00376489 0.008739016 0.0010196271 -0.0027060292
000100 a0 cd d2 3a bf 54 f6 3a aa 78 16 3b 57 90 1a b9
       0.001608301 0.0018793567 0.0022960105 -0.00014740355
000110 52 f0 94 3b 13 2f 80 bb c4 76 3b bb ca c8 4a bc
       0.00454525 -0.0039118617 -0.0028604725 -0.012376973
000120 4c 2c 3a 3b 0b 6f 1b bc 68 0d 65 bc af 1e a2 3b
       0.002840775 -0.009486924 -0.013980247 0.0049475054
000130 33 0c 17 3b 4b ed 41 3a 90 b2 0e 3c 2b e2 1d 3b
       0.0023048043 0.0007397725 0.008709565 0.0024091105
000140 c2 89 41 3b a0 81 b9 bb ba 66 25 bc 3f 18 35 bb
       0.0029531573 -0.0056612045 -0.010095293 -0.002763286
000150 92 fe f0 3b f6 27 2a bc 7e b0 cc 37 7a 5a e5 3b
       0.007354566 -0.010385504 2.440088e-05 0.006999311
000160 9b 51 89 bc 0b 7c 1e 3c 1a 4a 3a 3b 38 a9 dd 3b
       -0.016762545 0.009673129 0.0028425516 0.006764557
000170 69 36 a3 3b 32 32 d9 bb 79 fc 2c 3c fd f4 fd 3b
       0.0049808514 -0.006628298 0.010558241 0.007750152
000180 9a b6 52 3c b6 eb 24 3c f4 3c 83 bc 2f 33 8d 3a
       0.012860918 0.0100659635 -0.016020276 0.00107727
000190 cd 7b 73 3b 51 11 44 3b be d3 a8 bb 12 e6 7c 3b
       0.0037152648 0.0029917548 -0.0051521948 0.003858928
0001a0 47 be 59 bc 5f a5 96 bb e7 6a a7 bb 7c b6 01 3c
       -0.013289995 -0.0045973505 -0.0051091793 0.007917043
0001b0 4f c6 25 bc 03 68 a6 3b 6f 98 49 3c ad 1f e3 bb
       -0.010118081 0.005078317 0.012304409 -0.0069312663
0001c0 af 06 63 bb cf 1d 48 bb a9 cc a2 bb 39 60 23 bc
       -0.0034641435 -0.0030535345 -0.004968245 -0.009971672
0001d0 c8 64 74 bb 5b 52 89 3c 3b 03 b8 ba 8b c0 51 3c
       -0.0037291516 0.016762903 -0.0014039049 0.0128022535
0001e0 f9 14 96 3c 23 31 8f bb 02 11 e5 bb 52 57 5f ba
       0.018320547 -0.004369871 -0.006990553 -0.00085197866
0001f0 ef 58 f6 bb 87 26 46 3c 04 c1 88 bb ab 18 8c 3c
       -0.007517926 0.012094147 -0.0041734 0.017101606
