results/baseball1/Baseball/Baseball-1460.onnx (onnx, 510855 bytes, 7 tensors)

network_body._body_endoder.seq_layers.0.weight f4 [128, 805]
0.052679386 0.03200181 -0.01528883 0.06055384 -0.037827425 -0.01494443 -0.00048136504 0.026229905
-0.024557836 0.056719374 0.048735537 0.008716309 0.019025138 0.053681914 -0.01920475 0.025133649
0.008437697 -0.06480815 0.015294428 0.025224222 -0.069042295 -0.04660405 0.013316672 0.030329999
-0.051682975 -0.023403117 0.07502533 -0.03975781 -0.03628105 -0.030352395 0.021060897 -0.05623398
0.005079204 0.04797408 0.020358436 0.025934028 -0.0054413 -0.024994973 -0.07608526 -0.036499042
0.0037049074 0.035685975 -0.03785254 -0.020884141 -0.0076696696 -0.015260552 0.053475067 0.026812186
-0.0057121334 0.015253676 -0.014402961 0.050388288 -0.03490586 0.05591862 0.045855217 0.014727467
-0.0035576138 0.0122669805 -0.025889404 -0.045654215 0.020046726 -0.010405246 0.014989045 -0.036905713
-0.046797108 -0.037098847 0.09571599 0.009277587 0.0064128553 -0.049503367 -0.007065384 -0.026041307
-0.04173048 -0.022523861 -0.009469764 -0.030423757 0.023280038 -0.0052075614 -0.040467177 0.037437987
-0.006688229 0.021453818 0.014799511 0.022649437 -0.03425896 -0.027616661 0.03344299 -0.051314715
0.0385978 -0.013585192 -0.0023852868 -0.060434774 -0.034912452 0.017480196 0.031765327 -0.06954401
-0.0009886811 0.015197927 -0.053214304 -0.06641491 0.038284265 0.01748307 -0.05104378 0.03301471
0.007681079 -0.0055817794 0.013365351 0.0142122 0.06754847 -0.044322584 -0.034286607 -0.022876337
-0.011365594 0.0194455 0.035044502 0.01946094 -0.022280484 -0.0031084223 -0.019097192 0.03434733
-0.021717168 -0.026558405 0.004093203 -0.024746593 0.07054266 0.0176575 0.004873085 -0.009087355
0.020129107 0.01914039 -0.02888191 0.042732276 0.03112383 0.0028189907 -0.025302792 -0.047813598
0.004283906 0.049502358 0.018289978 0.024273412 -0.017659998 -0.00983744 -0.031691168 -0.011465203
-0.04900417 0.033912953 -0.0038274145 -0.0010813518 0.03190687 0.032025274 0.020439513 -0.034249734
0.05693766 -0.0137134055 -0.014267267 0.058107655 0.027106732 0.0026960925 0.08901184 0.001084511
-0.008910993 -0.012245643 -0.007784025 -0.007137217 0.025028817 -0.028340029 -0.0101760905 0.03180299
-0.017229596 -0.022770233 -0.02406167 -0.035552528 0.04747515 -0.00698536 -0.0007213694 -0.0115664145
-0.023331985 0.04394516 0.023074618 0.026189778 0.05115583 -0.00072534307 -0.0074271625 0.010158262
0.063755214 -0.010205352 0.07486443 -0.039892152 -0.031570688 -0.0671763 -0.055403244 -0.048040785
-0.069005504 0.059505492 -0.032367162 -0.037881266 0.024365665 0.02497657 -0.034145158 0.0050100805
0.054855045 -0.031190425 -0.035788592 0.02607164 0.02554153 0.0043920074 0.045462243 0.014214732
0.037876826 0.049265426 -0.036456253 -0.020604583 0.043644905 -0.016424704 0.055997413 0.005554941
-0.043384064 0.014309062 0.020143498 -0.039699264 0.0013442173 -0.044817735 -0.010637915 -0.011403072
0.049527176 0.027622221 -0.045396756 0.038242448 -0.033882674 0.07165644 0.004560097 0.019219065
-0.03217279 -0.04219697 -0.011756882 0.05340231 -0.012474861 -0.001370457 0.041009687 -0.02378209
-0.003383043 -0.031902913 0.056669686 -0.034464695 -0.025923153 -0.0376463 -0.010608809 0.06046661
-0.0025816592 0.028653082 0.018061763 0.00890412 -0.04183492 0.019082539 -0.012425047 0.037055895
00000000: 57c6 573d 5414 033d 007e 7abc 4e07 783d
00000010: eef0 1abd 7cd9 74bc b95f fcb9 19e0 d63c
00000020: 842d c9bc 9352 683d ea9e 473d dace 0e3c
00000030: 9bda 9b3c 91e1 5b3d 4853 9dbc 15e5 cd3c
00000040: 443e 0a3c 23ba 84bd 7b95 7a3c 07a3 ce3c
00000050: 0c66 8dbd e3e3 3ebd 2c2e 5a3c 9e76 f83c
00000060: 87b1 53bd e5b7 bfbc e1a6 993d 16d9 22bd
00000070: 709b 14bd 96a5 f8bc e787 ac3c 9a55 66bd
00000080: 746f a63b 7880 443d bcc6 a63c 9973 d43c
00000090: ef4c b2bb 42c2 ccbc 97d2 9bbd 0580 15bd
000000a0: 08ce 723b 752b 123d 440b 1bbd 3815 abbc
000000b0: da51 fbbb 6507 7abc ac08 5b3d 3ba5 db3c
000000c0: d92c bbbb 8eea 793c 66fa 6bbc f363 4e3d
000000d0: 72f9 0ebd ec0a 653d aed2 3b3d 794b 713c
000000e0: db26 69bb 72fb 483c 0416 d4bc eaff 3abd
000000f0: 0839 a43c c47a 2abc 9d94 753c 722a 17bd
00000100: 53ae 3fbd f6f4 17bd bf06 c43d 0501 183c
00000110: ee22 d23b 0bc4 4abd bd84 e7bb 9454 d5bc
00000120: 94ed 2abd f683 b8bc 1227 1bbc 3e3b f9bc
00000130: c7b5 be3c 31a4 aabb e9c0 25bd 9358 193d
00000140: ee28 dbbb ebbf af3c a679 723c 508b b93c
00000150: 2053 0cbd 563c e2bc 84fb 083d 612f 52bd
00000160: ba18 1e3d 6d94 5ebc 7952 1cbb 748a 77bd
00000170: 5c00 0fbd a132 8f3c 5c1c 023d 176d 8ebd
00000180: a296 81ba ba00 793c 3ef7 59bd 8a04 88bd
00000190: f6cf 1c3d a838 8f3c 4813 51bd 6f3a 073d
000001a0: 90b1 fb3b 5ce7 b6bb 58fa 5a3c 4ada 683c
000001b0: da56 8a3d 998b 35bd 1d70 0cbd 2867 bbbc
000001c0: c236 3abc 2b4c 9f3c d38a 0f3d 8d6c 9f3c
000001d0: 9085 b6bc acb6 4bbb b771 9cbc c9af 0c3d
000001e0: 34e8 b1bc 0391 d9bc 4720 863b 5eb9 cabc
000001f0: ac78 903d 76a6 903c 66ae 9f3b 21e3 14bc
00000200: cce5 a43c 4fcc 9c3c c199 ecbc 0a08 2f3d
00000210: 67f7 fe3c d1be 383b cd47 cfbc 31d8 43bd
00000220: 0260 8c3b fcc2 4a3d ddd4 953c 09d9 c63c
00000230: b3ab 90bc 372d 21bc 99ce 01bd 8cd8 3bbc
00000240: 99b8 48bd 4fe8 0a3d 5cd5 7abb 25bc 8dba
00000250: c7b0 023d ef2c 033d c470 a73c 7349 0cbd
00000260: 7737 693d 31ae 60bc 41c1 69bc 4b02 6e3d
00000270: f00e de3c edb0 303b d74b b63d 2726 8e3a
00000280: 6aff 11bc f3a1 48bc 2211 ffbb 51df e9bb
00000290: 3c09 cd3c 5929 e8bc 9eb9 26bc da43 023d
000002a0: 1525 8dbc a488 babc fb1c c5bc 879f 11bd
000002b0: 4e75 423d 72e5 e4bb 481a 3dba 0f81 3dbc
000002c0: b822 bfbc d7ff 333d fb06 bd3c f28b d63c
000002d0: c788 513d f324 3eba 8e5f f3bb d76e 263c
000002e0: 1892 823d 5934 27bc 8652 993d f465 23bd
000002f0: 4450 01bd ba93 89bd 83ee 62bd 6ac6 44bd
00000300: c252 8dbd 08bc 733d 6e93 04bd 6329 1bbd
00000310: 819a c73c aa9b cc3c cbdb 0bbd 9a2b a43b
00000320: afaf 603d 1083 ffbc 0f97 12bd 3194 d53c
00000330: 793c d13c d4ea 8f3b 9e36 3a3d e8e4 683c
00000340: bb24 1b3d 8bca 493d 2753 15bd f1ca a8bc
00000350: 00c5 323d 1a8d 86bc 8b5d 653d 3906 b63b
00000360: 7db3 31bd 8e70 6a3c fa03 a53c b29b 22bd
00000370: 7330 b03a cd92 37bd a64a 2ebc f3d3 3abc
00000380: 02dd 4a3d ff47 e23c f3f1 39bd 1da4 1c3d
00000390: 8fc8 0abd 9dc0 923d de6c 953b 4d71 9d3c
000003a0: 9ec7 03bd bbd6 2cbd f09f 40bc 61bc 5a3d
000003b0: 5c63 4cbc e8a0 b3ba c6f9 273d a8d2 c2bc
000003c0: 0bb6 5dbb a1ac 02bd 791e 683d da2a 0dbd
000003d0: cb5c d4bc 0233 1abd 92d0 2dbc d6ab 773d
000003e0: 0e31 29bb deb9 ea3c 43f6 933c 96e2 113c
000003f0: 185b 2bbd fc52 9c3c 6d92 4bbc ecc7 173d

network_body._body_endoder.seq_layers.0.bias f4 [128]
0.0 0.0 0.0 0.0 0.0 0.0 0.0 0.0
0.0 0.0 0.0 0.0 0.0 0.0 0.0 0.0
0.0 0.0 0.0 0.0 0.0 0.0 0.0 0.0
0.0 0.0 0.0 0.0 0.0 0.0 0.0 0.0
0.0 0.0 0.0 0.0 0.0 0.0 0.0 0.0
0.0 0.0 0.0 0.0 0.0 0.0 0.0 0.0
0.0 0.0 0.0 0.0 0.0 0.0 0.0 0.0
0.0 0.0 0.0 0.0 0.0 0.0 0.0 0.0
0.0 0.0 0.0 0.0 0.0 0.0 0.0 0.0
0.0 0.0 0.0 0.0 0.0 0.0 0.0 0.0
0.0 0.0 0.0 0.0 0.0 0.0 0.0 0.0
0.0 0.0 0.0 0.0 0.0 0.0 0.0 0.0
0.0 0.0 0.0 0.0 0.0 0.0 0.0 0.0
0.0 0.0 0.0 0.0 0.0 0.0 0.0 0.0
0.0 0.0 0.0 0.0 0.0 0.0 0.0 0.0
0.0 0.0 0.0 0.0 0.0 0.0 0.0 0.0
00000000: 0000 0000 0000 0000 0000 0000 0000 0000
00000010: 0000 0000 0000 0000 0000 0000 0000 0000
00000020: 0000 0000 0000 0000 0000 0000 0000 0000
00000030: 0000 0000 0000 0000 0000 0000 0000 0000
00000040: 0000 0000 0000 0000 0000 0000 0000 0000
00000050: 0000 0000 0000 0000 0000 0000 0000 0000
00000060: 0000 0000 0000 0000 0000 0000 0000 0000
00000070: 0000 0000 0000 0000 0000 0000 0000 0000
00000080: 0000 0000 0000 0000 0000 0000 0000 0000
00000090: 0000 0000 0000 0000 0000 0000 0000 0000
000000a0: 0000 0000 0000 0000 0000 0000 0000 0000
000000b0: 0000 0000 0000 0000 0000 0000 0000 0000
000000c0: 0000 0000 0000 0000 0000 0000 0000 0000
000000d0: 0000 0000 0000 0000 0000 0000 0000 0000
000000e0: 0000 0000 0000 0000 0000 0000 0000 0000
000000f0: 0000 0000 0000 0000 0000 0000 0000 0000
00000100: 0000 0000 0000 0000 0000 0000 0000 0000
00000110: 0000 0000 0000 0000 0000 0000 0000 0000
00000120: 0000 0000 0000 0000 0000 0000 0000 0000
00000130: 0000 0000 0000 0000 0000 0000 0000 0000
00000140: 0000 0000 0000 0000 0000 0000 0000 0000
00000150: 0000 0000 0000 0000 0000 0000 0000 0000
00000160: 0000 0000 0000 0000 0000 0000 0000 0000
00000170: 0000 0000 0000 0000 0000 0000 0000 0000
00000180: 0000 0000 0000 0000 0000 0000 0000 0000
00000190: 0000 0000 0000 0000 0000 0000 0000 0000
000001a0: 0000 0000 0000 0000 0000 0000 0000 0000
000001b0: 0000 0000 0000 0000 0000 0000 0000 0000
000001c0: 0000 0000 0000 0000 0000 0000 0000 0000
000001d0: 0000 0000 0000 0000 0000 0000 0000 0000
000001e0: 0000 0000 0000 0000 0000 0000 0000 0000
000001f0: 0000 0000 0000 0000 0000 0000 0000 0000

network_body._body_endoder.seq_layers.2.weight f4 [128, 128]
0.07718962 -0.078987695 0.14637852 -0.0608741 -0.022372138 0.1447447 0.07126345 0.047752794
-0.075363144 -0.1928744 -0.0013872655 -0.102349035 0.042986322 0.05380809 0.004185871 -0.03973647
0.13366152 -0.104930766 -0.113477565 -0.005061282 0.05493824 0.034282207 0.048474666 -0.068367876
0.12234122 -0.02017028 0.040376022 -0.0077700834 -0.056003794 -0.05128072 -0.05469963 -0.06733216
-0.08448069 0.033199344 0.029155774 0.023972822 0.13237311 0.0027043181 0.07100204 -0.032370508
-0.11067274 0.008095667 -0.1260591 -0.09376677 -0.0396191 -0.00633893 0.15129386 -0.07044692
0.0104017295 0.013651417 -0.120184086 0.010950139 -0.08691011 -0.06536379 0.13103308 0.14607309
0.06274189 0.013519169 -0.058438197 -0.041981544 -0.056859616 -0.13105011 0.11929911 -0.020410417
-0.19212325 -0.03692618 -0.02721017 0.036847297 -0.056654777 0.11402636 -0.0828066 0.15921584
-0.056239337 0.07897589 -0.119446695 0.053374164 0.013771985 -0.06465411 0.010097955 -0.05760526
-0.091241024 -0.047217935 0.06821781 -0.13073957 0.08657333 -0.1653676 0.15342489 0.01005454
0.116343215 -0.004719091 -0.06488633 -0.04670759 0.043245256 0.12469049 0.0059839822 0.046567887
0.021877373 0.15175301 0.046573658 -0.105898045 0.018164195 -0.0129028885 -0.10055549 0.07323551
0.022685358 0.017420638 -0.039372128 -0.056979615 -0.0022417007 0.011856664 0.0071431957 0.0817531
-0.0822505 0.044452015 0.12867047 0.09497803 0.050343383 0.032617897 -0.08161316 0.15562893
0.12377441 0.16159259 -0.08237432 -0.12411726 0.13193506 -0.19161075 0.17761257 0.080253154
-0.09471694 0.038924556 0.028506044 -0.059277896 -0.08440397 -0.1311963 0.018715698 -0.010182602
-0.10845327 -0.17591576 -0.026541382 0.13777061 0.12474678 -0.024941785 -0.01247184 0.0462458
0.041723654 -0.07028121 0.114591464 -0.124113806 -0.05583263 0.074083626 0.07594271 0.062305905
0.024593744 -0.017242996 -0.06953485 -0.068042666 0.023005784 0.06173317 -0.001585854 -0.079815
-0.008490961 -0.06365674 0.08408823 -0.069859244 -0.022996621 -0.116892524 0.04789547 -0.0719556
-0.15194687 -0.2120977 0.039724763 0.064458385 0.041326627 0.11388086 0.080282226 0.054051142
-0.09687436 -0.10216773 -0.064275965 -0.011114282 0.018931562 0.08690332 -0.0131921545 -0.08434278
0.057145126 -0.0750055 -0.04624504 -0.124252364 -0.032359093 0.020717112 -0.1322894 -0.046987724
0.053628925 0.011763765 -0.09473832 -0.123862505 0.19704573 0.06745207 0.06241991 -0.27838215
0.034156907 0.08439206 -0.013932997 0.09601699 -0.15676233 -0.007909599 0.0076985233 0.026008746
0.108110614 -0.08050738 -0.12455121 -0.041739166 0.07695122 -0.14497459 0.0025061227 0.048877735
0.007962665 0.113606684 0.14426251 0.10719263 -0.011406557 -0.08386812 0.008889056 0.04295236
-0.06768253 -0.09065857 0.13891655 -0.0014567936 -0.021301564 -0.05542913 -0.08403464 0.11677119
0.011099824 0.04631769 0.01086209 0.045270745 0.09815648 0.10399214 0.09559793 -0.04774835
-0.056786235 0.08974062 -0.08592113 0.102896385 0.08210263 0.056185193 -0.09261327 0.05421457
-0.038043883 0.03500547 0.0641292 -0.05865398 -0.117672354 -0.03018277 -0.006005183 -0.10990031
00000000: 9715 9e3d 4dc4 a1bd 40e4 153e 1f57 79bd
00000010: c645 b7bc f437 143e 92f2 913d 6f98 433d
00000020: fe57 9abd de80 45be e8d4 b5ba 5f9c d1bd
00000030: 6d12 303d df65 5c3d a229 893b b5c2 22bd
00000040: 91de 083e f1e5 d6bd ed66 e8bd 1cd9 a5bb
00000050: ec06 613d 806b 0c3d 5f8d 463d 7504 8cbd
00000060: 098e fa3d 253c a5bc 5461 253d 2f9c febb
00000070: 3c64 65bd bb0b 52bd b80c 60bd 72e5 89bd
00000080: 3604 adbd 09fc 073d 17d8 ee3c a762 c43c
00000090: d18c 073e ee3a 313b 8469 913d f096 04bd
000000a0: 64a8 e2bd b0a3 043c a315 01be cb08 c0bd
000000b0: a347 22bd cdb6 cfbb c7ec 1a3e 7a46 90bd
000000c0: 046c 2a3c 31aa 5f3c 1323 f6bd 3668 333c
000000d0: eefd b1bd 73dd 85bd 892d 063e 2f94 153e
000000e0: d27e 803d 817f 5d3c e45c 6fbd d7f4 2bbd
000000f0: a1e5 68bd 0032 06be 1753 f43d bf33 a7bc
00000100: f5bb 44be e83f 17bd dde7 debc 31ed 163d
00000110: d70e 68bd a786 e93d 8296 a9bd 7a09 233e
00000120: 385b 66bd 1dbe a13d 78a0 f4bd de9e 5a3d
00000130: e4a3 613c 6069 84bd e571 253c 7ef3 6bbd
00000140: 93dc babd 9867 41bd c7b5 8b3d 98e0 05be
00000150: 5c4d b13d 2056 29be 6a1b 1d3e ccbb 243c
00000160: 5a45 ee3d 9ba2 9abb 20e3 84bd 7550 3fbd
00000170: f021 313d ba5d ff3d 4815 c43b f8bd 3e3d
00000180: 2d38 b33c 2465 1b3e 05c4 3e3d 13e1 d8bd
00000190: 14cd 943c a366 53bc 09f0 cdbd 80fc 953d
000001a0: a5d6 b93c bab5 8e3c ab44 21bd 7563 69bd
000001b0: 7fe9 12bb 7442 423c 7811 ea3b 2b6e a73d
000001c0: f372 a8bd 5113 363d 31c2 033e d783 c23d
000001d0: dd34 4e3d 589a 053d cd24 a7bd 315d 1f3e
000001e0: 707d fd3d 8778 253e deb3 a8bd 3131 febd
000001f0: fc19 073e 9c35 44be 12e0 353e c45b a43d
00000200: f4fa c1bd 5b6f 1f3d 8285 e93c 61cd 72bd
00000210: fddb acbd 5358 06be aa51 993c eed4 26bc
00000220: bf1c debd 4323 34be 506d d9bc bd13 0d3e
00000230: 3d7b ff3d b752 ccbc b056 4cbc 3c6c 3d3d
00000240: 6ce6 2a3d 98ef 8fbd eeae ea3d 612f febd
00000250: c1b0 64bd 28b9 973d da87 9b3d 7a34 7f3d
00000260: d278 c93c 2f41 8dbc 4a68 8ebd f459 8bbd
00000270: a076 bc3c ecdb 7c3d 6edc cfba 0c76 a3bd
00000280: ac1d 0bbc 775e 82bd 7336 ac3d 5d12 8fbd
00000290: 6963 bcbc 5965 efbd 0a2e 443d 755d 93bd
000002a0: f697 1bbe 2430 59be 6fb6 223d c202 843d
000002b0: 1c46 293d 5e3a e93d 026b a43d bb64 5d3d
000002c0: 1166 c6bd 513d d1bd 1ea3 83bd ad18 36bc
000002d0: 5d16 9b3c 5efa b13d e823 58bc e8bb acbd
000002e0: 0211 6a3d 7c9c 99bd 706b 3dbd 0678 febd
000002f0: f88a 04bd efb6 a93c df76 07be 3376 40bd
00000300: 01aa 5b3d cebc 403c 2a06 c2bd a0ab fdbd
00000310: 5bc6 493e 5024 8a3d 05ac 7f3d 1b88 8ebe
00000320: 1de8 0b3d bfd5 ac3d 3a47 64bc 8ea4 c43d
00000330: 4e86 20be 4397 01bc e543 fc3b 4b10 d53c
00000340: 1969 dd3d 0ee1 a4bd b414 ffbd b0f6 2abd
00000350: 9a98 9d3d 3874 14be c33d 243b 0534 483d
00000360: d675 023c 9faa e83d 8db9 133e cf87 db3d
00000370: 91e2 3abc 0dc3 abbd 67a3 113c d0ee 2f3d
00000380: 239d 8abd 33ab b9bd 2440 0e3e e2f1 beba
00000390: 9e80 aebc a809 63bd 5a1a acbd bc25 ef3d
000003a0: 09dc 353c 9eb7 3d3d e8f6 313c d16d 393d
000003b0: 4406 c93d d5f9 d43d d9c8 c33d c693 43bd
000003c0: af98 68bd eec9 b73d 6bf7 afbd 57bb d23d
000003d0: 6c25 a83d 7222 663d 07ac bdbd 1910 5e3d
000003e0: e7d3 1bbd e561 0f3d 2c56 833d 283f 70bd
000003f0: 34fe f0bd db41 f7bc 20c7 c4bb 6a13 e1bd

action_model._continuous_distribution.log_sigma f4 [1, 48]
0.0 0.0 0.0 0.0 0.0 0.0 0.0 0.0
0.0 0.0 0.0 0.0 0.0 0.0 0.0 0.0
0.0 0.0 0.0 0.0 0.0 0.0 0.0 0.0
0.0 0.0 0.0 0.0 0.0 0.0 0.0 0.0
0.0 0.0 0.0 0.0 0.0 0.0 0.0 0.0
0.0 0.0 0.0 0.0 0.0 0.0 0.0 0.0
00000000: 0000 0000 0000 0000 0000 0000 0000 0000
00000010: 0000 0000 0000 0000 0000 0000 0000 0000
00000020: 0000 0000 0000 0000 0000 0000 0000 0000
00000030: 0000 0000 0000 0000 0000 0000 0000 0000
00000040: 0000 0000 0000 0000 0000 0000 0000 0000
00000050: 0000 0000 0000 0000 0000 0000 0000 0000
00000060: 0000 0000 0000 0000 0000 0000 0000 0000
00000070: 0000 0000 0000 0000 0000 0000 0000 0000
00000080: 0000 0000 0000 0000 0000 0000 0000 0000
00000090: 0000 0000 0000 0000 0000 0000 0000 0000
000000a0: 0000 0000 0000 0000 0000 0000 0000 0000
000000b0: 0000 0000 0000 0000 0000 0000 0000 0000

action_model._continuous_distribution.mu.weight f4 [48, 128]
0.005721712 0.02464771 -0.013682987 0.002571661 -0.0035626513 -0.000812901 -0.015965281 -0.0026189468
0.024511239 0.009284339 -0.0084059695 -0.027719209 -0.028387506 -0.0150787085 0.022749497 -0.014094673
-0.035585925 0.009004039 -0.02153497 0.0026229897 -0.027538566 -0.0067126616 0.01947241 0.003868488
-0.011334398 -0.011738251 -0.009133558 -0.03986762 -0.009681208 -0.01525903 -0.03217531 0.01945654
-0.005873668 0.001808792 0.01501326 -0.0041067195 -0.010604023 -0.0015017494 0.0013350206 0.031446036
-0.021429183 0.01115835 0.01819562 0.012062835 -0.01496986 -0.021626217 -0.011305788 0.00213523
-0.01590128 0.011312312 -0.011033355 0.015430631 0.0073995874 -0.010544303 0.02287267 0.006973474
0.018398145 0.010417712 -0.010425651 -0.03373153 0.003627481 0.019670961 0.01465797 -0.027091805
0.0065343827 0.051379837 0.021271588 -0.0429923 0.0068577277 0.0135475695 -0.016884549 -0.027971638
-0.011571517 0.017826358 -0.01754859 -0.00032829985 0.013442992 0.012315802 -0.028071774 -0.006732656
0.0014313961 0.03142022 0.018161472 0.0011467615 0.003745813 -0.023327934 0.0032046647 0.013957719
-0.018717911 -0.0031657286 0.03627786 -0.01758429 0.019722244 -0.005645443 0.005741821 0.035830114
-0.032772224 -0.0054352037 -0.03489181 -0.017221376 -0.026833097 -0.024666086 -0.003976695 0.020707255
-0.022625094 0.025921483 0.010235105 0.0008171564 0.014047165 -0.008697502 -0.005570762 0.010172405
-0.014401761 0.0152339535 0.024562135 0.0031132184 2.76966e-05 -0.017805709 0.006004073 0.010503542
0.01533176 -0.008916636 -0.012858808 0.027737021 0.0018833046 -0.0014726224 -0.043232404 0.009455148
-0.017065927 -0.038287085 -0.0077030766 0.008257377 -0.0046457164 0.01861663 0.031411555 -0.009081916
-0.03348504 0.010061252 0.025400324 0.031227121 -0.006848497 -0.003970127 -0.018505191 0.018063132
0.00977778 -0.001580173 -0.02192047 0.00968426 0.0049847947 0.01569662 0.019834548 -0.002322644
-0.0049113617 -0.011528911 -0.033970516 0.010648586 0.0344972 0.03445336 0.006231917 -0.0038295083
0.031865384 0.0119562615 -0.021079645 -0.012416607 0.02812771 0.016009036 0.022828156 -0.029726176
0.002717132 -0.0040165465 0.014748896 0.021162732 0.0032512718 0.009767744 0.0151475025 0.005715492
0.0029135633 -0.018769903 0.020146038 -0.0490613 0.051207956 -0.034664076 0.005373321 0.030233359
-0.015525487 -0.01804441 -0.007837375 0.0013198069 0.0010874043 0.015398365 0.022090768 0.0030660955
-0.009704052 0.016811699 0.0024276893 -0.022465035 -0.03893243 0.023478901 0.004978001 -0.006321281
0.03299306 0.023137283 -0.011953032 -0.025353387 0.020487806 -0.032567568 0.029659033 -0.020398803
0.039254542 0.010081103 0.001391246 0.0084931 0.0053296383 0.041553613 -0.012047683 0.0255321
0.009616157 0.0018018803 0.0024580315 -0.008394454 -0.0165868 -0.021680726 -0.02349738 0.04476443
-0.022759302 -0.023620898 0.00035253403 0.019538222 0.0083721 -0.043187123 0.001275726 -0.008933161
-0.0042841486 0.024323782 -0.0076359534 -0.010841537 -0.0030403305 -0.0009872615 -0.0009853125 0.008347705
0.00089492736 0.009267891 -0.003264128 -0.013606404 -0.016394043 -0.0052059297 -0.008955757 -0.0025009557
-0.021367539 0.023095183 0.014621215 0.011115555 0.017474866 -0.017826581 -0.005319607 0.03044343
00000000: 337d bb3b ffe9 c93c 9b2e 60bc 5089 283b
00000010: 5f7b 69bb dd18 55ba 9fc9 82bc a3a2 2bbb
00000020: cbcb c83c 571d 183c 31b9 09bc 6513 e3bc
00000030: ea8c e8bc b00c 77bc 275d ba3c 58ed 66bc
00000040: 8cc2 11bd ad85 133c 1b6a b0bc 77e6 2b3b
00000050: 8f98 e1bc e3f5 dbbb 9b84 9f3c 7586 7d3b
00000060: e9b3 39bc cb51 40bc eba4 15bc 3b4c 23bd
00000070: ee9d 1ebc 0301 7abc 42ca 03bd 5263 9f3c
00000080: e677 c0bb fd14 ed3a 2dfa 753c a991 86bb
00000090: 7fbc 2dbc 59d6 c4ba dcfb ae3a 8fcd 003d
000000a0: 418c afbc 83d1 363c fb0e 953c 32a3 453c
000000b0: 2544 75bc 7729 b1bc e93b 39bc 37ef 0b3b
000000c0: 6743 82bc 4757 393c 3fc5 34bc c2d0 7c3c
000000d0: 3d78 f23b 03c2 2cbc 775f bb3c bd81 e43b
000000e0: b5b7 963c 0daf 2a3c 5ad0 2abc 132a 0abd
000000f0: 08bb 6d3b ff24 a13c fb27 703c a2ef ddbc
00000100: 601e d63b aa73 523d c141 ae3c b218 30bd
00000110: cab6 e03b a0f6 5d3c 7751 8abc c724 e5bc
00000120: 7696 3dbc 9508 923c 10c2 8fbc a91f acb9
00000130: ff3f 5c3c 38c8 493c c7f6 e5bc 9d9d dcbb
00000140: af9d bb3a 7db2 003d 5ec7 943c ee4e 963a
00000150: 507c 753b 391a bfbc 5a05 523b ebae 643c
00000160: 4e56 99bc 1d78 4fbb 1898 143d ee0c 90bc
00000170: 8b90 a13c 69fd b8bb e325 bc3b 99c2 123d
00000180: 2b3c 06bd cb19 b2bb b7ea 0ebd d813 8dbc
00000190: 15d1 dbbc 8810 cabc ef4e 82bb 43a2 a93c
000001a0: 4358 b9bc 4a59 d43c 24b1 273c 7036 563a
000001b0: 1526 663c f87f 0ebc f08a b6bb 29aa 263c
000001c0: 5df5 6bbc d597 793c 8836 c93c 2307 4c3b
000001d0: ff55 e837 47dd 91bc d1bd c43b 0c17 2c3c
000001e0: 1032 7b3c 1517 12bc c0ad 52bc c038 e33c
000001f0: 37d9 f63a 0205 c1ba 7614 31bd c4e9 1a3c
00000200: d8cd 8bbc ebd2 1cbd 176a fcbb f349 073c
00000210: 183b 98bb e781 983c 67a9 003d 51cc 14bc
00000220: 9c27 09bd f3d7 243c 5714 d03c 05d0 ff3c
00000230: 5b69 e0bb d717 82bb 3398 97bc 22f9 933c
00000240: fb32 203c cf1d cfba 8f92 b3bc bbaa 1e3c
00000250: 7d57 a33b 3396 803c 107c a23c 8037 18bb
00000260: 7def a0bb c2e3 3cbc ab24 0bbd 6877 2e3c
00000270: f04c 0d3d f71e 0d3d 1c35 cc3b 7df8 7abb
00000280: 4785 023d 32e4 433c 38af acbc 066f 4bbc
00000290: 156c e63c 6225 833c 1d02 bb3c 4f84 f3bc
000002a0: e911 323b 3c9d 83bb 5aa5 713c 775d ad3c
000002b0: 4a13 553b e308 203c 3b2d 783c 0649 bb3b
000002c0: 7bf1 3e3b 57c3 99bc 4e09 a53c 80f4 48bd
000002d0: 6fbf 513d ebfb 0dbd af12 b03b f3ab f73c
000002e0: 9d5e 7ebc dfd1 93bc 5568 00bc 5ffd ac3a
000002f0: 3c87 8e3a 6d49 7c3c b3f7 b43c 8cf0 483b
00000300: befd 1ebc b0b8 893c de19 1f3b 9808 b8bc
00000310: 9d77 1fbd d356 c03c 801e a33b c022 cfbb
00000320: bb23 073d 668a bd3c a6d6 43bc e8b1 cfbc
00000330: 0bd6 a73c 9265 05bd 80f7 f23c 641b a7bc
00000340: 5fc9 203d 362b 253c 785a b63a a526 0b3c
00000350: 3fa4 ae3b 1f34 2a3d a563 45bc b228 d13c
00000360: 168d 1d3c 122d ec3a ed16 213b e488 09bc
00000370: 0ae1 87bc c79b b1bc 947d c0bc e85a 373d
00000380: b771 babc 9d80 c1bc 51d4 b839 9f0e a03c
00000390: 222b 093c fbe4 30bd 4336 a73a 655c 12bc
000003a0: 0b62 8cbb ab42 c73c 0537 fabb b4a0 31bc
000003b0: 4840 47bb 0067 81ba 9a25 81ba d0c4 083c
000003c0: 8f99 6a3a 5ad8 173c fbea 55bb 65ed 5ebc
000003d0: cd4c 86bc 8196 aabb 2bbb 12bc 13e7 23bb
000003e0: fa0a afbc 1c32 bd3c d28d 6f3c 041e 363c
000003f0: 7327 8f3c 0d09 92bc 1950 aebb 8064 f93c

action_model._continuous_distribution.mu.bias f4 [48]
0.0 0.0 0.0 0.0 0.0 0.0 0.0 0.0
0.0 0.0 0.0 0.0 0.0 0.0 0.0 0.0
0.0 0.0 0.0 0.0 0.0 0.0 0.0 0.0
0.0 0.0 0.0 0.0 0.0 0.0 0.0 0.0
0.0 0.0 0.0 0.0 0.0 0.0 0.0 0.0
0.0 0.0 0.0 0.0 0.0 0.0 0.0 0.0
00000000: 0000 0000 0000 0000 0000 0000 0000 0000
00000010: 0000 0000 0000 0000 0000 0000 0000 0000
00000020: 0000 0000 0000 0000 0000 0000 0000 0000
00000030: 0000 0000 0000 0000 0000 0000 0000 0000
00000040: 0000 0000 0000 0000 0000 0000 0000 0000
00000050: 0000 0000 0000 0000 0000 0000 0000 0000
00000060: 0000 0000 0000 0000 0000 0000 0000 0000
00000070: 0000 0000 0000 0000 0000 0000 0000 0000
00000080: 0000 0000 0000 0000 0000 0000 0000 0000
00000090: 0000 0000 0000 0000 0000 0000 0000 0000
000000a0: 0000 0000 0000 0000 0000 0000 0000 0000
000000b0: 0000 0000 0000 0000 0000 0000 0000 0000

action_model._discrete_distribution.branches.0.weight f4 [1, 128]
-0.017645566 -0.0071234195 -0.005398418 0.018986426 -0.008673167 0.0056217066 -0.002615844 0.014111205
-0.016144143 0.0036582244 0.007047619 -0.0011121196 -0.008200616 -0.0028571335 0.0042344243 0.0016464385
0.01361523 0.0035879933 -0.0071109063 0.013332252 0.00080301735 0.0031895917 0.002724257 -0.0045156707
-0.0066185542 0.00914086 -0.0040688156 -0.009635055 -0.019169077 -0.014447282 0.0070798635 -0.019127022
-0.005601221 0.009913165 -0.009974736 0.014095622 -0.022779748 -0.012127239 -0.0076259524 0.011523105
-0.0049424535 0.004279103 -0.0013877697 0.006531294 0.012592837 0.013089056 0.005504686 0.0033558395
-0.0037630983 -0.0051497864 -0.009511183 -0.0034760272 0.001759576 -0.006330855 -0.0033049711 -0.012495654
-0.0007683494 0.0066084876 0.013166278 -0.008480697 0.014593977 0.014577788 0.00776876 0.01606395
-0.0092481915 -0.008945977 -0.011971868 0.008205629 -0.0014713736 0.011918483 0.008899885 -0.0071431953
0.013565183 -0.015559206 0.0033723183 -0.0057858075 0.0047059827 0.018504806 0.013031768 0.009386439
0.0048958985 0.013691939 0.0074546384 -0.0069754557 0.00045401166 0.000928109 0.0056891567 0.002115158
0.010523255 0.0039921454 0.0055180094 0.016061908 0.006931409 -0.0015859178 -0.019279081 -0.0007577121
-0.0066913064 -0.0046388432 0.010438228 -0.0015390465 -0.0007485144 -0.011450293 -0.0030014645 -0.015994
-0.00092975376 -0.012484452 -0.00060808845 -0.004941235 -0.0071790772 -0.016050922 -0.00082531257 0.009954038
-0.008282499 -0.0040980713 0.0014576408 0.0057235244 0.003287966 0.0012811002 0.00081926584 0.0015013268
0.01875594 -0.0019777128 0.0015566855 0.0016863979 -0.010939593 0.0022067034 0.0028886374 0.007080938
00000000: 6f8d 90bc 936b e9bb 36e5 b0bb 6c89 9b3c
00000010: e619 0ebc 4b36 b83b 946e 2bbb af32 673c
00000020: b940 84bc d2be 6f3b b7ef e63b 8bc4 91ba
00000030: e05b 06bc bf3e 3bbb edc0 8a3b 4fcd d73a
00000040: 6a12 5f3c 8a24 6b3b 9b02 e9bb 856f 5a3c
00000050: 9581 523a 7808 513b 7389 323b 31f8 93bb
00000060: 75e0 d8bb 8cc3 153c b353 85bb 5adc 1dbc
00000070: 7808 9dbc 4bb4 6cbc 33fe e73b 46b0 9cbc
00000080: 738a b7bb d46a 223c 136d 23bc 53f1 663c
00000090: 989c babc 54b1 46bc 20e3 f9bb 68cb 3c3c
000000a0: 4ef4 a1bb b837 8c3b d3e5 b5ba 7704 d63b
000000b0: 3052 4e3c 7b73 563c a760 b43b a5ed 5b3b
000000c0: 509e 76bb 8abf a8bb cbd4 1bbc 0fce 63bb
000000d0: 93a1 e63a 1073 cfbb 3798 58bb 92ba 4cbc
000000e0: 0e6b 49ba 038c d83b 5fb7 573c 9ff2 0abc
000000f0: 931b 6f3c add7 6e3c 1591 fe3b 8b98 833c
00000100: ba85 17bc 2692 12bc a725 44bc e770 063c
00000110: 1bdb c0ba be45 433c d3d0 113c 7711 eabb
00000120: 8040 5e3c 0aec 7ebc 1d02 5d3b df96 bdbb
00000130: a534 9a3b 6497 973c 3283 553c 94c9 193c
00000140: c66d a03b 2854 603c 0a46 f43b 5d92 e4bb
00000150: 6a08 ee39 574c 733a 1b6c ba3b 769e 0a3b
00000160: bb69 2c3c 8bd0 823b 6bd0 b43b 4394 833c
00000170: df20 e33b 92de cfba 2aef 9dbc 33a1 46ba
00000180: bf42 dbbb 7001 98bb 1a05 2b3c d5b9 c9ba
00000190: f337 44ba 029a 3bbc 38b4 44bb d905 83bc
000001a0: b8ba 73ba 968b 4cbc 2068 1fba 15ea a1bb
000001b0: 773e ebbb 397d 83bc ca59 58ba 4316 233c
000001c0: 52b3 07bc 1d49 86bb 4f0e bf3a 678c bb3b
000001d0: ea7a 573b 97ea a73a 00c4 563a 2bc8 c43a
000001e0: 0fa6 993c 849c 01bb b309 cc3a 200a dd3a
000001f0: fb3b 33bc 579e 103b 4b4f 3d3b 3707 e83b
