results/baseball1/Baseball/Baseball-15539.pt (torch, 993354 bytes, 13 tensors)

network_body._body_endoder.seq_layers.0.weight f4 [128, 805]
000000 ab 75 91 bc 04 70 c4 3c 06 b9 bf 3c 00 c6 d1 3c
       -0.017756304 0.023979194 0.023403656 0.02560711
000010 8d f8 ff bc 90 8a 86 bd 50 b1 f2 bc c0 b0 d5 bc
       -0.031246448 -0.065693974 -0.029625565 -0.026085258
000020 12 8d 0d bd 74 dd fd bb 47 f0 6c bc 2f 5e 1e bd
       -0.034558363 -0.0077473465 -0.014461583 -0.03866404
000030 46 ea dd bc b3 93 25 3d 70 93 08 3d 7e 68 5f bc
       -0.02708925 0.04042406 0.033343732 -0.013635753
000040 65 d6 23 3d 46 6f 92 3d 9b bf 65 bd c0 45 98 bc
       0.039999384 0.0715013 -0.056090932 -0.018587947
000050 5a d9 36 3d 38 4f 91 3c 26 7e 47 3d c4 50 c6 3c
       0.044640876 0.01773797 0.04870429 0.024208434
000060 d5 d2 70 bd 05 81 42 3c b1 f3 4d bc 72 8d 1e 3a
       -0.058794815 0.011871581 -0.012570308 0.00060482987
000070 ae ad 6a 3b 10 48 87 bc 24 bd 92 3c 5f 5f ba bc
       0.0035809088 -0.016513854 0.017912455 -0.022750555
000080 57 f5 bb 3c 34 c2 06 3d 43 65 ae 3b cd 35 a1 bd
       0.022944136 0.03290005 0.00532213 -0.0787159
000090 18 c3 56 bc a7 6d aa bc 00 e1 31 bc 19 18 07 3c
       -0.013108037 -0.02080424 -0.010856867 0.008245491
0000a0 9f 44 ab bb 71 9a 49 3d a9 df 98 3c 4b 94 75 bb
       -0.005226686 0.049219552 0.018661337 -0.0037472423
0000b0 22 0c 34 3b a3 61 b2 3a 21 28 00 bd 92 17 ba 3c
       0.0027473052 0.001360942 -0.03128827 0.022716317
0000c0 3c d9 22 3d 80 71 4a 3c f0 0a 00 3d 58 0e 68 bd
       0.039757952 0.012356162 0.03126043 -0.056654304
0000d0 b4 89 32 3c f6 3a b7 bc ea 07 8c bd d2 d1 38 3d
       0.010897089 -0.022366982 -0.06837447 0.045121975
0000e0 62 fd 46 bd e2 8a 41 3c 9a f0 5e 3d 14 0b 3a ba
       -0.04858149 0.011812897 0.054428674 -0.00070969877
0000f0 fe 4e 32 bd 4b ec a4 3d a4 e5 f4 bc c1 c6 c1 bc
       -0.043532364 0.08052882 -0.029894657 -0.023654344
000100 da cb 83 bc 61 9c 90 bd c5 df 5a 3c 14 d3 ab 3d
       -0.016088415 -0.07061077 0.013359015 0.08389869
000110 a6 de 96 bc c1 f8 50 3c ba e0 23 3d 70 3e 34 bd
       -0.018416714 0.01275462 0.040009238 -0.044004858
000120 51 26 5e bd bd e1 8c 3d a2 a5 85 bc d3 3a 0c 3c
       -0.05423576 0.06878994 -0.016314331 0.008558947
000130 a4 7a 87 3b 2b bd 09 3d 44 2b 36 3c 9a 21 d1 3c
       0.004134493 0.03362767 0.011118714 0.025528718
000140 a2 71 02 3d b1 89 3d 3b ff a5 50 bb 1d b1 70 bc
       0.03184665 0.0028921182 -0.0031837223 -0.014690665
000150 cf 10 0f bd 04 f1 47 bc 83 da d2 3c c7 ac 1e 3d
       -0.03492814 -0.012203459 0.02573896 0.038738992
000160 be 65 ac bc 43 13 1d bd 6a e8 a2 bc 25 5f 97 bc
       -0.021044608 -0.038348448 -0.019886214 -0.018477986
000170 ee 70 47 bc 6d 56 99 3c 2f fb 22 bc a0 34 00 3d
       -0.012172921 0.018717969 -0.009947582 0.031300187
000180 a7 c2 9a bd e9 da bb 3c cf 33 d8 bc 9a e9 97 bb
       -0.07556658 0.022931533 -0.026391892 -0.004636002
000190 8e d8 05 3d 9d f4 29 bd 3f 0d 04 3d 41 8c 96 bc
       0.032677226 -0.041493047 0.032239195 -0.018377425
0001a0 3b 7f 38 3d 6c 6c 8e bd e2 7f a3 3a 2f 49 b4 3b
       0.04504321 -0.069542736 0.0012474025 0.005501888
0001b0 36 a7 91 3c cb 0d 8f 3d 77 0e 16 3d 45 e1 d7 bc
       0.017779928 0.06985053 0.03663489 -0.026352534
0001c0 dd 71 6b bc 0c 01 3c 3b 64 68 d3 3c 0b aa 7a bd
       -0.014370409 0.0028687147 0.025806613 -0.06119732
0001d0 45 fe a8 bc 58 cd 5b bb 3d 76 2a 3b cb 67 ee 3b
       -0.020629058 -0.0033539142 0.0026010417 0.0072755567
0001e0 18 6e 99 bb dd 6d 15 bd 04 4b 92 bd 39 42 10 bd
       -0.0046823137 -0.036481727 -0.07143214 -0.035219405
0001f0 1b 6f 90 3b 17 d4 8f bc 08 84 36 bc 56 5f 00 bd
       0.004407776 -0.017557187 -0.011139877 -0.03134092
000200 28 b8 8a bb c3 c3 25 bd f4 9d fe bc 32 80 47 bd
       -0.004233379 -0.040469896 -0.031081177 -0.04870624
000210 89 60 86 3c e5 6d 19 bc 0c 0d 7d 3c e4 6e 89 3c
       0.016403453 -0.00936458 0.015445005 0.01677651
000220 89 67 8a 3d a6 ae 47 bc 29 f4 1f 3c 72 38 f2 ba
       0.06758029 -0.0121876355 0.009762802 -0.0018479957
000230 fb b7 51 bc ee 7e 5a bd 87 fd 08 bd e8 53 58 bc
       -0.012800212 -0.053343706 -0.033444908 -0.013203599
000240 77 4a 9e bc f1 27 19 3d 42 05 c2 ba 1d 2d 56 3c
       -0.019322617 0.037391607 -0.0014802592 0.013072279
000250 5d 4f b3 bc e8 3d cb 3b 0f 9e f0 3b 20 6c 11 3c
       -0.02188843 0.006202448 0.007343061 0.008875877
000260 7d ae 94 bc ce 2b 95 3c 2c d4 16 bd cc 80 fc 3c
       -0.018149609 0.018209364 -0.036823437 0.030823134
000270 5c 02 4d bd b1 37 1d 3c 78 3b ed 3b 87 59 d2 bc
       -0.05005108 0.009595797 0.0072397552 -0.025677456
000280 59 53 93 bd d6 fe 05 bb 09 c3 1c bc 63 af 8c bd
       -0.07193632 -0.0020446084 -0.009567984 -0.0686939
000290 b1 85 2d bd 61 8b b0 3c a0 54 b5 3c 14 93 f5 bc
       -0.042363826 0.021550836 0.022135079 -0.029977359
0002a0 61 b9 01 bc bf c7 98 bb d4 26 46 3d 8f 35 4e 3c
       -0.007917733 -0.0046624835 0.048376873 0.012586012
0002b0 87 b2 80 bc c9 56 f7 3c 73 ca d7 3c ba ca 63 3d
       -0.015710128 0.03019275 0.026341652 0.055613257
0002c0 f7 1d a0 bc ea b3 67 bb e9 1a ef bc 22 6f 53 bc
       -0.019545538 -0.003535504 -0.029187636 -0.012904914
0002d0 cb dc 3d 3d c2 b6 3f bd f7 17 5a bd fc 26 82 bc
       0.046353143 -0.04680515 -0.05324551 -0.01588773
0002e0 21 8b dd 3c 8a 60 3b 3c 1e 5d 09 3d 6f 2d e2 bc
       0.02704388 0.011436591 0.03353607 -0.027609555
0002f0 c3 22 55 3d ee fa 45 3d b9 52 a1 bc b0 49 3b bd
       0.052035104 0.04833501 -0.019692766 -0.04572457
000300 1b dd cc bb 2a f8 d3 3c 73 74 a1 3c b1 3d 5d bd
       -0.0062519438 0.02587517 0.019708848 -0.05401391
000310 31 91 91 bc da 03 a4 bc 80 22 66 bc 7c fa 7b bc
       -0.017769428 -0.020021368 -0.014046311 -0.015379544
000320 b9 ea 25 3c 9c 1f ae bd 1d e8 b2 bc 33 e3 2d bc
       0.010126763 -0.08502123 -0.021839196 -0.010613251
000330 6f 9f ab 3c 5a 58 45 3d d4 8c 3d 3c 4e cb 07 3c
       0.020950047 0.04817996 0.011569221 0.008288218
000340 5d 33 46 bd f2 2d 19 3d 4c 1a d5 3b 70 17 14 bd
       -0.048388828 0.037397332 0.006503379 -0.036155164
000350 67 37 79 bc bf 67 a8 3b 89 d1 df bb 2a d4 34 3d
       -0.015210963 0.0051393206 -0.0068303985 0.044147648
000360 e6 51 af bc 42 64 37 3d aa 4c 3d 3d 65 92 cc 3c
       -0.021401357 0.044773348 0.04621569 0.02497215
000370 55 59 68 bd a9 22 50 bc 94 ef 01 3d e4 26 22 3c
       -0.05672582 -0.012703576 0.03172262 0.009896968
000380 84 b0 2a 3c 85 de 44 bc 70 7a 49 3d 7e 30 9a 3c
       0.010418061 -0.012015943 0.04918903 0.018821951
000390 6d 15 1e 3d 91 37 91 bc c0 50 a8 bd 65 88 d7 b9
       0.038594652 -0.017726691 -0.08218527 -0.00041109617
0003a0 17 bd d5 3b 84 53 23 bc 41 c6 dc bc e8 4b 92 3d
       0.0065227854 -0.009968642 -0.026950004 0.07143384
0003b0 1a 36 51 3d f3 19 be 3c 6b 45 e4 bb 12 ef dc bc
       0.051076986 0.023205733 -0.006966283 -0.026969466
0003c0 0d ef aa bb d3 7b 39 bd a7 40 9b 3d 0e 5f 40 3d
       -0.0052164854 -0.045284104 0.07580691 0.04696565
0003d0 cb eb f8 bb 53 10 53 bd 00 2b 3c bc b6 3b f8 bb
       -0.007596468 -0.05152924 -0.011484861 -0.0075754775
0003e0 94 f9 77 3d c7 9c 9b 3c dd aa 41 bc dc 8e bd 3b
       0.06054075 0.018995656 -0.011820522 0.0057848524
0003f0 b3 9a 3d bc a6 ed fb bc 07 ba 34 3b 05 4b b8 3d
       -0.011572528 -0.030752968 0.0027576701 0.08998684

network_body._body_endoder.seq_layers.0.bias f4 [128]
000000 00 00 00 00 00 00 00 00 00 00 00 00 00 00 00 00
       0.0 0.0 0.0 0.0
000010 00 00 00 00 00 00 00 00 00 00 00 00 00 00 00 00
       0.0 0.0 0.0 0.0
000020 00 00 00 00 00 00 00 00 00 00 00 00 00 00 00 00
       0.0 0.0 0.0 0.0
000030 00 00 00 00 00 00 00 00 00 00 00 00 00 00 00 00
       0.0 0.0 0.0 0.0
000040 00 00 00 00 00 00 00 00 00 00 00 00 00 00 00 00
       0.0 0.0 0.0 0.0
000050 00 00 00 00 00 00 00 00 00 00 00 00 00 00 00 00
       0.0 0.0 0.0 0.0
000060 00 00 00 00 00 00 00 00 00 00 00 00 00 00 00 00
       0.0 0.0 0.0 0.0
000070 00 00 00 00 00 00 00 00 00 00 00 00 00 00 00 00
       0.0 0.0 0.0 0.0
000080 00 00 00 00 00 00 00 00 00 00 00 00 00 00 00 00
       0.0 0.0 0.0 0.0
000090 00 00 00 00 00 00 00 00 00 00 00 00 00 00 00 00
       0.0 0.0 0.0 0.0
0000a0 00 00 00 00 00 00 00 00 00 00 00 00 00 00 00 00
       0.0 0.0 0.0 0.0
0000b0 00 00 00 00 00 00 00 00 00 00 00 00 00 00 00 00
       0.0 0.0 0.0 0.0
0000c0 00 00 00 00 00 00 00 00 00 00 00 00 00 00 00 00
       0.0 0.0 0.0 0.0
0000d0 00 00 00 00 00 00 00 00 00 00 00 00 00 00 00 00
       0.0 0.0 0.0 0.0
0000e0 00 00 00 00 00 00 00 00 00 00 00 00 00 00 00 00
       0.0 0.0 0.0 0.0
0000f0 00 00 00 00 00 00 00 00 00 00 00 00 00 00 00 00
       0.0 0.0 0.0 0.0
000100 00 00 00 00 00 00 00 00 00 00 00 00 00 00 00 00
       0.0 0.0 0.0 0.0
000110 00 00 00 00 00 00 00 00 00 00 00 00 00 00 00 00
       0.0 0.0 0.0 0.0
000120 00 00 00 00 00 00 00 00 00 00 00 00 00 00 00 00
       0.0 0.0 0.0 0.0
000130 00 00 00 00 00 00 00 00 00 00 00 00 00 00 00 00
       0.0 0.0 0.0 0.0
000140 00 00 00 00 00 00 00 00 00 00 00 00 00 00 00 00
       0.0 0.0 0.0 0.0
000150 00 00 00 00 00 00 00 00 00 00 00 00 00 00 00 00
       0.0 0.0 0.0 0.0
000160 00 00 00 00 00 00 00 00 00 00 00 00 00 00 00 00
       0.0 0.0 0.0 0.0
000170 00 00 00 00 00 00 00 00 00 00 00 00 00 00 00 00
       0.0 0.0 0.0 0.0
000180 00 00 00 00 00 00 00 00 00 00 00 00 00 00 00 00
       0.0 0.0 0.0 0.0
000190 00 00 00 00 00 00 00 00 00 00 00 00 00 00 00 00
       0.0 0.0 0.0 0.0
0001a0 00 00 00 00 00 00 00 00 00 00 00 00 00 00 00 00
       0.0 0.0 0.0 0.0
0001b0 00 00 00 00 00 00 00 00 00 00 00 00 00 00 00 00
       0.0 0.0 0.0 0.0
0001c0 00 00 00 00 00 00 00 00 00 00 00 00 00 00 00 00
       0.0 0.0 0.0 0.0
0001d0 00 00 00 00 00 00 00 00 00 00 00 00 00 00 00 00
       0.0 0.0 0.0 0.0
0001e0 00 00 00 00 00 00 00 00 00 00 00 00 00 00 00 00
       0.0 0.0 0.0 0.0
0001f0 00 00 00 00 00 00 00 00 00 00 00 00 00 00 00 00
       0.0 0.0 0.0 0.0

network_body._body_endoder.seq_layers.2.weight f4 [128, 128]
000000 2f ab fb bc fa cd 38 3b 78 00 2e bc 47 a7 e6 bd
       -0.030721275 0.0028198943 -0.010620229 -0.11262374
000010 51 89 32 be da 05 d3 bd 16 13 57 bd 74 05 71 bd
       -0.17435195 -0.103038505 -0.052508436 -0.05884309
000020 a1 a5 f6 3c 7e bc 25 bd cf 94 83 3d ee 17 a4 bd
       0.030108275 -0.040462963 0.06424867 -0.08012377
000030 1c f6 9e 3d f4 b3 1d bd d4 24 07 3e ae 03 17 bd
       0.077617854 -0.038501695 0.13197643 -0.036868744
000040 7f f9 fb bd 95 18 1b be 1f 8f b6 3d e3 4e 87 3c
       -0.12303447 -0.15146096 0.08914017 0.016517108
000050 02 bb 8a 3d 1c f0 e9 3d 52 34 98 bd 92 d0 66 bd
       0.0677395 0.1142275 -0.07431854 -0.056351252
000060 67 8f c7 3c fe f1 6c 3c 56 ac 21 3d 10 c5 c0 3c
       0.024360372 0.014461992 0.039470993 0.023531467
000070 7f c3 8f bd 97 c1 a6 3d f2 ec 6a 3d 51 ad eb 3d
       -0.0701971 0.08142393 0.057354875 0.11507667
000080 02 93 cd bc 3d d9 0d bd 60 44 3b be 2d f9 6a 3b
       -0.025094513 -0.034631003 -0.18287802 0.0035854087
000090 a3 84 e9 bd b4 17 0e 3e 5d 77 d1 bd 9b 42 77 3d
       -0.114022516 0.1387623 -0.10227845 0.060366254
0000a0 a0 40 43 3c e1 16 e8 bd 9f 2a 57 3d dd b2 d3 bd
       0.011917263 -0.11332489 0.05253088 -0.1033685
0000b0 1f cd cc 3b e3 da b1 3d db 48 24 3d 00 0f e8 bc
       0.0062500383 0.086843275 0.040108543 -0.028327465
0000c0 9a fb 17 be 4a a1 a4 3d b1 cb f8 3d 42 61 bc bd
       -0.14842072 0.08038576 0.12148226 -0.09198238
0000d0 f5 59 08 bd 78 d0 2e bd 3f a5 d7 3d b2 10 53 3e
       -0.033288915 -0.04267928 0.10529565 0.20611838
0000e0 b2 2a b6 3d fc d6 6a bd d9 f0 2e bd b2 e4 fb bd
       0.08894862 -0.05733393 -0.04271016 -0.122994795
0000f0 d6 dc 40 bc 6c f4 dd bc 85 7d 18 bc eb 37 2c be
       -0.011771401 -0.027094088 -0.00930727 -0.16818206
000100 ba db b1 3d 23 62 02 bc a9 8b 8f bd 90 77 a9 3d
       0.08684488 -0.007957968 -0.0700906 0.08274758
000110 e5 bf ae 3c 02 c4 37 3c 97 df 1a 3e e7 86 37 bd
       0.021331737 0.0112161655 0.15124355 -0.044806387
000120 2a f4 52 3d 13 6e 64 3c 0b 7b e1 3d f5 bd c9 bd
       0.051502384 0.013942259 0.11009797 -0.098506846
000130 e6 0b 48 3c 8d 5d e7 3c 5d b4 81 bd 1c f2 9f 3c
       0.012209868 0.02824285 -0.0633323 0.019524626
000140 0c 42 59 bb 88 b2 de bd a5 0d 3c 3b 94 6a b8 bc
       -0.003315094 -0.10873896 0.0028694656 -0.022511758
000150 d4 81 06 3e 5f 7e fc bc aa 4e 6e 3d f9 fc 06 3d
       0.13135463 -0.030821977 0.05818049 0.032956097
000160 17 60 1f 3b 7a 61 31 bd 26 87 c5 bd d7 44 21 bd
       0.0024318749 -0.04330585 -0.09644918 -0.03937229
000170 aa b8 98 3d b9 4b f5 bd eb 75 85 bc ee 64 ea bc
       0.07457097 -0.119773336 -0.01629158 -0.02861258
000180 bf 30 b5 3c 94 77 b0 bc a1 88 44 bd 96 5f 58 bc
       0.02211797 -0.021541394 -0.047981862 -0.013206383
000190 e5 28 c1 bd 63 c1 46 3d d9 da 53 bd 0b 21 7e bd
       -0.09431628 0.04852427 -0.05172238 -0.06204323
0001a0 d2 b7 52 3e 63 db 4e 3d 5a 03 96 bd c9 18 a1 bd
       0.20577934 0.050502192 -0.07324858 -0.078660555
0001b0 8c 4c a9 bd 89 f1 4f be 9a 2a 13 3d 55 93 e3 3d
       -0.08266553 -0.20306982 0.0359293 0.11112086
0001c0 c9 78 f8 bd 5a 37 b4 bd 4a eb 2b 3d 65 3d c0 3d
       -0.12132413 -0.0879962 0.041972436 0.0938671
0001d0 60 fc af bd 08 9a ac 3d e7 94 63 bd f5 cf b5 3d
       -0.085930586 0.08427817 -0.055561926 0.08877555
0001e0 92 01 2f be e2 b0 16 bd 0e ec 6e bd 93 7d 97 bd
       -0.17090443 -0.036789782 -0.058330588 -0.07396998
0001f0 f7 a0 e9 bd 9f c8 d1 bc b3 b7 1c 3d b4 53 b2 bd
       -0.11407655 -0.025608359 0.038261127 -0.08707371
000200 3d 7b bf 3d 49 83 88 3d 1e 19 04 3c b9 6c 2a 3d
       0.09349678 0.06665666 0.008062629 0.041607592
000210 d0 26 81 bc 5b da 5d ba 74 aa 50 3c 2f e5 1d 3e
       -0.015765578 -0.00084630185 0.012735952 0.15419458
000220 06 7b 46 3d 26 62 0a 3b bb 3c 11 bd a3 af 53 bd
       0.048457168 0.002111563 -0.035458308 -0.051681172
000230 93 9c 95 bd f5 08 91 3d 46 e2 8b bc e3 6d 16 bd
       -0.07305255 0.070817865 -0.017075669 -0.03672589
000240 e4 72 7d bd 20 bc 9b 3d b9 47 cc bd 93 bc b3 bd
       -0.061877146 0.07604241 -0.099746175 -0.08776202
000250 13 43 a0 bc 7f 84 51 bc 29 c3 e9 3d f4 7f b9 bd
       -0.019563233 -0.012787937 0.11414177 -0.09057608
000260 a2 01 00 3d 9a 8c 40 3d 46 b4 08 be d6 85 f1 3d
       0.031251557 0.047009088 -0.13350019 0.11793105
000270 9f 00 ff bc 28 79 06 3e cf 97 41 3d e1 bd 91 bd
       -0.031128226 0.13132155 0.047263917 -0.07116295
000280 fe 94 8c bd 17 5f bf 3d 75 7f 81 bd 91 39 b5 3d
       -0.068643555 0.09344309 -0.063231386 0.088488705
000290 f4 59 52 3d e2 7c cf 3d 6a 34 f8 bd 22 b9 8d bd
       0.051355317 0.101312414 -0.12119372 -0.06920077
0002a0 28 65 38 bd 34 b5 f9 bd 65 df b2 3d 69 2f e2 3d
       -0.045018345 -0.12192765 0.087340154 0.11044199
0002b0 36 a7 2a 3e 89 97 da 3d 88 67 f6 3d 7d 2c 05 3e
       0.16665348 0.10673434 0.12031466 0.13005252
0002c0 13 d2 ba 3d 8e bf cb bd 35 6b 27 3e 4f 55 bf 3c
       0.091221 -0.099486455 0.1634949 0.023356108
0002d0 35 3d 81 bd 55 84 b4 3d 2a c7 93 bd f4 9d 45 3d
       -0.063105024 0.08814303 -0.07215722 0.04824634
0002e0 be c9 97 3d c7 65 8b 3d 34 e2 3e 3b df 12 9b 3c
       0.07411526 0.06806522 0.0029126527 0.018929897
0002f0 bd c6 87 3c 3b 45 da bc 2d 74 0a 3e c4 b9 2a bd
       0.016574258 -0.02664434 0.1352088 -0.041681066
000300 48 c8 06 be 0e 2c 39 bc 3f ce 7c bd 17 73 a5 bd
       -0.13162339 -0.011302007 -0.06172013 -0.08078592
000310 58 8e 16 be 2f 57 50 be f0 97 0c bd ca 22 f9 bc
       -0.14702737 -0.20345758 -0.034324586 -0.030412097
000320 28 44 c8 bd 88 4d 45 3c ea 06 da 3c 45 31 82 3b
       -0.09778625 0.012042411 0.026614625 0.0039731585
000330 1f c4 87 bd 21 3a 92 3d d5 49 6e 3d 90 d5 e3 bd
       -0.06629204 0.071399935 0.05817588 -0.11124718
000340 88 eb e0 bd fc d8 91 3c 01 dc 76 3d 39 4f c4 3d
       -0.10982424 0.017803662 0.060268406 0.09585423
000350 f2 4e 9d bd 6b 3d dc 3d 58 ff a4 bd 5b 75 41 bc
       -0.07681073 0.10753902 -0.080565155 -0.011807765
000360 29 30 04 be 1f 45 e9 bc 4d 6f ff 3c 1a 06 11 bb
       -0.12908997 -0.028475342 0.031181002 -0.002212888
000370 47 21 09 be 85 9b 95 bc 58 59 a5 3d a2 07 5d 3c
       -0.133916 -0.018262634 0.080736816 0.013490589
000380 1b 80 ed 3b 78 38 87 3d cf 28 09 3e e4 e6 1f bd
       0.0072479374 0.066025674 0.13394473 -0.039038554
000390 a1 0c d1 3d fd 7b 42 3d 29 11 99 bc 16 81 aa 3d
       0.10207487 0.047481526 -0.01868494 0.083254024
0003a0 4b b1 54 bd 0f 3f 84 3d 84 07 c6 3d bf db 14 3d
       -0.051926892 0.0645734 0.09669402 0.03634238
0003b0 79 fc 4e 3d 8c 8e c0 bc ff 68 b4 3d 0b 85 50 3d
       0.050533745 -0.023505472 0.08809089 0.05090813
0003c0 2a 46 d3 3c 48 0f f1 bb 43 b7 2a 3b 57 76 a6 3a
       0.025790293 -0.007356558 0.0026049174 0.0012700063
0003d0 2a eb e6 bc 5b fa 38 be 5f c7 aa bc 18 80 a1 3d
       -0.028188307 -0.18064253 -0.02084702 0.0788576
0003e0 2a c0 a3 bd 53 75 28 3c 37 3e 16 3b f8 ae 42 bd
       -0.07995637 0.0102818785 0.0022925267 -0.047530144
0003f0 22 68 18 3d e3 e0 4d bd a3 c8 33 be 5a 7d 74 be
       0.037208684 -0.050263297 -0.17557006 -0.23875943

network_body._body_endoder.seq_layers.2.bias f4 [128]
000000 00 00 00 00 00 00 00 00 00 00 00 00 00 00 00 00
       0.0 0.0 0.0 0.0
000010 00 00 00 00 00 00 00 00 00 00 00 00 00 00 00 00
       0.0 0.0 0.0 0.0
000020 00 00 00 00 00 00 00 00 00 00 00 00 00 00 00 00
       0.0 0.0 0.0 0.0
000030 00 00 00 00 00 00 00 00 00 00 00 00 00 00 00 00
       0.0 0.0 0.0 0.0
000040 00 00 00 00 00 00 00 00 00 00 00 00 00 00 00 00
       0.0 0.0 0.0 0.0
000050 00 00 00 00 00 00 00 00 00 00 00 00 00 00 00 00
       0.0 0.0 0.0 0.0
000060 00 00 00 00 00 00 00 00 00 00 00 00 00 00 00 00
       0.0 0.0 0.0 0.0
000070 00 00 00 00 00 00 00 00 00 00 00 00 00 00 00 00
       0.0 0.0 0.0 0.0
000080 00 00 00 00 00 00 00 00 00 00 00 00 00 00 00 00
       0.0 0.0 0.0 0.0
000090 00 00 00 00 00 00 00 00 00 00 00 00 00 00 00 00
       0.0 0.0 0.0 0.0
0000a0 00 00 00 00 00 00 00 00 00 00 00 00 00 00 00 00
       0.0 0.0 0.0 0.0
0000b0 00 00 00 00 00 00 00 00 00 00 00 00 00 00 00 00
       0.0 0.0 0.0 0.0
0000c0 00 00 00 00 00 00 00 00 00 00 00 00 00 00 00 00
       0.0 0.0 0.0 0.0
0000d0 00 00 00 00 00 00 00 00 00 00 00 00 00 00 00 00
       0.0 0.0 0.0 0.0
0000e0 00 00 00 00 00 00 00 00 00 00 00 00 00 00 00 00
       0.0 0.0 0.0 0.0
0000f0 00 00 00 00 00 00 00 00 00 00 00 00 00 00 00 00
       0.0 0.0 0.0 0.0
000100 00 00 00 00 00 00 00 00 00 00 00 00 00 00 00 00
       0.0 0.0 0.0 0.0
000110 00 00 00 00 00 00 00 00 00 00 00 00 00 00 00 00
       0.0 0.0 0.0 0.0
000120 00 00 00 00 00 00 00 00 00 00 00 00 00 00 00 00
       0.0 0.0 0.0 0.0
000130 00 00 00 00 00 00 00 00 00 00 00 00 00 00 00 00
       0.0 0.0 0.0 0.0
000140 00 00 00 00 00 00 00 00 00 00 00 00 00 00 00 00
       0.0 0.0 0.0 0.0
000150 00 00 00 00 00 00 00 00 00 00 00 00 00 00 00 00
       0.0 0.0 0.0 0.0
000160 00 00 00 00 00 00 00 00 00 00 00 00 00 00 00 00
       0.0 0.0 0.0 0.0
000170 00 00 00 00 00 00 00 00 00 00 00 00 00 00 00 00
       0.0 0.0 0.0 0.0
000180 00 00 00 00 00 00 00 00 00 00 00 00 00 00 00 00
       0.0 0.0 0.0 0.0
000190 00 00 00 00 00 00 00 00 00 00 00 00 00 00 00 00
       0.0 0.0 0.0 0.0
0001a0 00 00 00 00 00 00 00 00 00 00 00 00 00 00 00 00
       0.0 0.0 0.0 0.0
0001b0 00 00 00 00 00 00 00 00 00 00 00 00 00 00 00 00
       0.0 0.0 0.0 0.0
0001c0 00 00 00 00 00 00 00 00 00 00 00 00 00 00 00 00
       0.0 0.0 0.0 0.0
0001d0 00 00 00 00 00 00 00 00 00 00 00 00 00 00 00 00
       0.0 0.0 0.0 0.0
0001e0 00 00 00 00 00 00 00 00 00 00 00 00 00 00 00 00
       0.0 0.0 0.0 0.0
0001f0 00 00 00 00 00 00 00 00 00 00 00 00 00 00 00 00
       0.0 0.0 0.0 0.0

action_model._continuous_distribution.log_sigma f4 [1, 48]
000000 00 00 00 00 00 00 00 00 00 00 00 00 00 00 00 00
       0.0 0.0 0.0 0.0
000010 00 00 00 00 00 00 00 00 00 00 00 00 00 00 00 00
       0.0 0.0 0.0 0.0
000020 00 00 00 00 00 00 00 00 00 00 00 00 00 00 00 00
       0.0 0.0 0.0 0.0
000030 00 00 00 00 00 00 00 00 00 00 00 00 00 00 00 00
       0.0 0.0 0.0 0.0
000040 00 00 00 00 00 00 00 00 00 00 00 00 00 00 00 00
       0.0 0.0 0.0 0.0
000050 00 00 00 00 00 00 00 00 00 00 00 00 00 00 00 00
       0.0 0.0 0.0 0.0
000060 00 00 00 00 00 00 00 00 00 00 00 00 00 00 00 00
       0.0 0.0 0.0 0.0
000070 00 00 00 00 00 00 00 00 00 00 00 00 00 00 00 00
       0.0 0.0 0.0 0.0
000080 00 00 00 00 00 00 00 00 00 00 00 00 00 00 00 00
       0.0 0.0 0.0 0.0
000090 00 00 00 00 00 00 00 00 00 00 00 00 00 00 00 00
       0.0 0.0 0.0 0.0
0000a0 00 00 00 00 00 00 00 00 00 00 00 00 00 00 00 00
       0.0 0.0 0.0 0.0
0000b0 00 00 00 00 00 00 00 00 00 00 00 00 00 00 00 00
       0.0 0.0 0.0 0.0

action_model._continuous_distribution.mu.weight f4 [48, 128]
000000 45 4c 15 bd cb 23 f9 bc 94 46 06 bd 89 38 09 ba
       -0.03644969 -0.030412575 -0.032782152 -0.00052345596
000010 cc cf 30 3c 7b f8 ed bb 56 00 4b 3d 9a 8c 93 bc
       0.01079173 -0.007262287 0.049560867 -0.01801138
000020 0b dd 12 3d 13 31 ce bc ab 60 c5 3c 87 99 12 3a
       0.035855334 -0.025169885 0.024093946 0.00055923354
000030 7a 9a c2 bb b3 5d c5 bc cc 5e ad bb aa d1 e2 3b
       -0.005938825 -0.02409253 -0.0052908417 0.0069219666
000040 c7 bc c4 bc ab ee 6f 3c cf cc 03 bd e5 79 6f bc
       -0.024015797 0.014644305 -0.032177743 -0.014616464
000050 c8 31 3f 3c 41 68 31 3b 8f 73 2e 3a 23 eb 88 3c
       0.011669584 0.0027070197 0.0006654793 0.016713684
000060 ea 4a fd 3c 77 89 92 3c bf a4 22 bc 3a 35 81 bb
       0.03091951 0.017887814 -0.009926974 -0.0039431127
000070 b2 d4 30 bc 4d ee 2d 3c 9f 32 bb bc 5f 25 9d bc
       -0.010792898 0.010615897 -0.022851286 -0.019182859
000080 78 d0 65 ba 37 30 5b 3b 12 7b f0 bc 5d 92 0d 3a
       -0.0008766721 0.0033445486 -0.02935556 0.0005400533
000090 00 2d 00 3d 5d b9 68 3b 90 74 fb bb 96 cc 18 3c
       0.031292915 0.0035510876 -0.0076738074 0.009326121
0000a0 d3 c8 31 bc b0 13 7d bb 0b ee c9 3c 76 75 b3 bc
       -0.010851103 -0.003861647 0.02464964 -0.021906596
0000b0 e3 6a 69 3c 76 5d ad 3b c0 98 56 ba 60 ac db 3b
       0.014246675 0.0052906824 -0.00081862137 0.0067038983
0000c0 e2 90 80 bc 04 63 04 bd 17 52 07 bd b7 84 fb bc
       -0.015694086 -0.03232099 -0.03303727 -0.030702932
0000d0 e8 6e 94 3b cb 6c 0b 3d 56 12 33 3b 35 bd cf bb
       0.0045298226 0.0340393 0.0027324161 -0.006339694
0000e0 fa 44 ae 3c b2 c4 bc 3b 6b 56 c8 bc 61 96 32 3b
       0.021273125 0.0057607526 -0.02445527 0.0027250277
0000f0 48 19 38 bc b2 b6 9c 3c 88 fb fe 3a 75 3c d9 ba
       -0.011236496 0.019130085 0.0019453624 -0.0016573804
000100 90 9b 1b bc e8 e2 0a bc e7 20 d5 3b 50 86 07 bc
       -0.009497538 -0.00847695 0.0065041664 -0.008271769
000110 9f 4b 37 bb ff d4 2a bd a8 a1 ff 3b 97 13 ae bc
       -0.0027968658 -0.041707035 0.0078012533 -0.021249576
000120 b0 24 60 bb 79 18 a4 3b 25 f6 0e 3c f3 d7 ca bc
       -0.0034201555 0.0050078 0.008725678 -0.024761176
000130 b2 2f c4 bb 2d 25 aa 3c 52 9e 0e 3d 04 ae 80 bc
       -0.005987131 0.02076968 0.034818955 -0.015707977
000140 0c 64 2f bb b4 a0 89 3c a7 29 46 bb ef 60 2c 3b
       -0.0026762513 0.016800262 -0.003023723 0.0026302894
000150 5a 11 0e bc c3 e9 e4 3b 4f 8a 56 3c fb 00 78 3c
       -0.008671129 0.0069858744 0.013094499 0.0151369525
000160 7a 29 5c bc f8 51 f3 bc ff 38 79 3c 8b f2 88 bc
       -0.013437623 -0.029702172 0.015211343 -0.016717216
000170 bb 67 20 3c 4c 47 aa 3b 6d 78 28 3b 5a 8b cd 3c
       0.009790356 0.0051964875 0.0025706545 0.025090862
000180 1d d3 85 3c 58 31 ad bc 05 a7 7b bc a2 ff 9d bc
       0.016336018 -0.021141693 -0.015359645 -0.019286934
000190 50 40 be bc da 38 ee bc 32 ec de 3c 15 8e be bc
       -0.023224026 -0.029079843 0.027212236 -0.02326111
0001a0 f4 bc a7 3a b7 5e aa bb e4 bc 1a bc 72 ea b1 bc
       0.0012797401 -0.005199279 -0.009444449 -0.021718238
0001b0 25 88 d8 bb ba c0 40 bc 13 26 1a bc e5 fa d5 ba
       -0.0066080266 -0.0117647 -0.009408492 -0.0016325383
0001c0 54 28 c5 bb 40 c5 bd 3c 0f 96 0e bb 80 b9 cf bb
       -0.0060167704 0.023165345 -0.0021756922 -0.006339252
0001d0 e9 82 bd 3a ef b9 86 bc 82 cc 8c 3c ba 54 9e 3b
       0.001445857 -0.016446082 0.01718736 0.0048318775
0001e0 43 fd a1 3b 77 38 61 bb 83 b0 a8 3b 03 ff 2a 3c
       0.004943521 -0.003436593 0.005147995 0.010436776
0001f0 2f 76 ce 3b aa 02 e1 bc c5 57 70 3c 58 d2 ef 3b
       0.0063007097 -0.02746709 0.014669363 0.007318776
000200 a0 4b c3 3c 6a 53 4a bb 5e 20 bc 3b 45 d6 83 bb
       0.023839772 -0.0030872473 0.005741163 -0.0040233457
000210 f8 c3 b0 3c 50 6f f3 bc d5 f7 a9 3c ce 57 8e 3c
       0.02157782 -0.029716164 0.020748058 0.017375853
000220 67 ff 8c bc 83 4b 97 bc c9 20 b7 ba de 71 c0 3c
       -0.01721163 -0.018468624 -0.0013971563 0.023491796
000230 d5 21 05 bc da 02 d0 bc 8f 23 a3 3c 83 18 a6 3c
       -0.008125742 -0.025391985 0.019914417 0.02027536
000240 97 36 b1 bc 79 83 9f bc 65 ff 64 bc 72 c5 5b b8
       -0.021632476 -0.01947187 -0.013976906 -5.2397554e-05
000250 99 68 38 bc 22 30 cf 3c d7 1e 24 3c 5b 95 9e 3c
       -0.011255407 0.025291506 0.010017118 0.019358328
000260 c8 31 f3 bc a5 6c 8f bc 3f 1c b7 ba b2 f8 14 bc
       -0.029686823 -0.01750786 -0.001397021 -0.009092497
000270 8b b1 0e bd 59 cb 30 3c 17 19 44 3c 7e 87 02 3c
       -0.034837287 0.010790669 0.0119688725 0.007966874
000280 ed 5d 59 3c 96 9e ad 3c 64 c9 26 3b b0 c1 e4 bb
       0.013267023 0.021193784 0.0025449628 -0.006981097
000290 b2 cc 81 bc 8d fc f5 bc 3d 1f e1 b9 7b 40 5a bc
       -0.015844677 -0.030027652 -0.0004293862 -0.013321037
0002a0 ba 85 de bc 77 26 45 bc 22 75 4a 3c 23 12 84 3b
       -0.027163375 -0.0120330965 0.012357028 0.0040304824
0002b0 08 21 8b 3b eb 2d 1a bc 21 e3 2e 3c 6a 23 6b 3c
       0.004245881 -0.009410362 0.010674269 0.014351705
0002c0 cd 06 0d 3d 97 b8 90 3c 5b 05 0d bc 90 9a 90 3c
       0.034430314 0.017666144 -0.008607234 0.017651826
0002d0 de 21 cb bc 03 04 8c bc e1 c5 46 bc 14 88 9b 3c
       -0.024796423 -0.017091757 -0.012132139 0.018985786
0002e0 33 a6 58 bc 2c 7f bd 3c e2 6a fe ba 4a 83 59 3c
       -0.013223219 0.02313193 -0.0019410516 0.013275931
0002f0 63 2d f5 3a 4f a9 18 bc 3a 0c b5 bb 11 71 17 bd
       0.0018705543 -0.00931771 -0.005525139 -0.036973063
000300 be 1f b5 3c 5f d1 b9 ba 58 55 40 bc e2 d5 f6 bc
       0.022109862 -0.0014176777 -0.011739098 -0.030131284
000310 d7 9a 06 bc 63 0b 14 3c 0c 31 3f 3c 26 5e 2f 3c
       -0.008215628 0.009035918 0.0116694085 0.010703599
000320 7a b5 f8 bb 88 5d f4 bc 9f 4c 80 3d 03 6b 85 3b
       -0.007589993 -0.029829755 0.06264614 0.0040715947
000330 b3 fe 8f bc 77 54 ab 3c dd aa 9c 3c 55 9e d0 3b
       -0.017577505 0.0209143 0.019124443 0.006366531
000340 4a 0e 1a 3c 8f c5 bd bc 0f d4 08 3d 35 70 6c 3c
       0.009402821 -0.023165492 0.03340536 0.014431049
000350 40 f6 95 3b 3d 53 1c bc 0d 4c 83 bb b3 37 17 bd
       0.0045764744 -0.00954133 -0.0040068687 -0.036918353
000360 0d 25 65 b9 ab 01 67 bc 59 d6 37 bc b5 40 1d bc
       -0.00021852944 -0.014099519 -0.011220538 -0.009597947
000370 aa fd db 3b 17 35 1f bd 40 66 6b bc 1c 26 44 bd
       0.0067135887 -0.03886899 -0.01436764 -0.047887906
000380 8f b6 3b 3a 2f 2e cf bc 16 24 90 3c ed ce 59 3c
       0.0007160687 -0.025290577 0.017595332 0.013293964
000390 ef f9 26 bc 3b 55 5d 3c 5f 2f 10 3c 94 5d 38 3d
       -0.010191425 0.01350909 0.008800357 0.045011118
0003a0 47 3b a5 3a 83 3a 5b bc 16 57 35 3c a9 30 32 bc
       0.0012606167 -0.0133806495 0.011068126 -0.010875859
0003b0 99 2c aa 3b 38 18 9d 3c 53 da 92 bc 6c 37 0e bc
       0.0051933047 0.019176587 -0.01792637 -0.008680206
0003c0 92 c2 1a 3d fd a0 99 3b 5a e7 e0 bb d2 13 1c bd
       0.037783213 0.0046883808 -0.0068635168 -0.03810484
0003d0 49 fe 2b bd bb 04 09 bc 8f 6c 59 3c 83 7a df bc
       -0.041990552 -0.008362944 0.013270511 -0.027280098
0003e0 91 4f bc 3c 07 fe 95 3b fb 06 25 bc bb cc 59 bc
       0.022987159 0.0045774016 -0.010072465 -0.01329344
0003f0 2a 04 46 3c 6b 8b 39 3d 8f 97 7f bc 77 c6 d8 bc
       0.012085954 0.045298975 -0.015600099 -0.026461823

action_model._continuous_distribution.mu.bias f4 [48]
000000 00 00 00 00 00 00 00 00 00 00 00 00 00 00 00 00
       0.0 0.0 0.0 0.0
000010 00 00 00 00 00 00 00 00 00 00 00 00 00 00 00 00
       0.0 0.0 0.0 0.0
000020 00 00 00 00 00 00 00 00 00 00 00 00 00 00 00 00
       0.0 0.0 0.0 0.0
000030 00 00 00 00 00 00 00 00 00 00 00 00 00 00 00 00
       0.0 0.0 0.0 0.0
000040 00 00 00 00 00 00 00 00 00 00 00 00 00 00 00 00
       0.0 0.0 0.0 0.0
000050 00 00 00 00 00 00 00 00 00 00 00 00 00 00 00 00
       0.0 0.0 0.0 0.0
000060 00 00 00 00 00 00 00 00 00 00 00 00 00 00 00 00
       0.0 0.0 0.0 0.0
000070 00 00 00 00 00 00 00 00 00 00 00 00 00 00 00 00
       0.0 0.0 0.0 0.0
000080 00 00 00 00 00 00 00 00 00 00 00 00 00 00 00 00
       0.0 0.0 0.0 0.0
000090 00 00 00 00 00 00 00 00 00 00 00 00 00 00 00 00
       0.0 0.0 0.0 0.0
0000a0 00 00 00 00 00 00 00 00 00 00 00 00 00 00 00 00
       0.0 0.0 0.0 0.0
0000b0 00 00 00 00 00 00 00 00 00 00 00 00 00 00 00 00
       0.0 0.0 0.0 0.0

action_model._discrete_distribution.branches.0.weight f4 [1, 128]
000000 37 41 f8 3b cb 2a 5f 3c 1b 2d 89 bc 2d 2e 12 3c
       0.0075761336 0.0136210425 -0.01674514 0.008922142
000010 9d 7b 75 bb 2d 80 05 bc 6a ab cc 3a ef 93 43 3b
       -0.0037457712 -0.008148235 0.001561505 0.0029842814
000020 3b 48 fc bb 4a de c6 37 4b e5 65 3b 6a 3e af 3b
       -0.00769904 2.370695e-05 0.0035079296 0.0053480165
000030 2e 5f 41 bc 37 1a bd bb 58 f5 48 3c 46 0c 0c 3b
       -0.011802478 -0.0057709473 0.012265526 0.002136962
000040 ef bb d8 39 05 32 16 3c d0 50 39 3c 79 09 24 bc
       0.00041338752 0.009167199 0.011310771 -0.010012024
000050 83 ca b7 3a 39 79 89 ba cb 3e 88 3b 10 64 53 3c
       0.0014022145 -0.0010488398 0.004157876 0.012902275
000060 38 b0 45 3b bd be e9 3b a3 8b 4d 3c 6f 65 8b bb
       0.003016485 0.0071333335 0.012545499 -0.004254035
000070 13 d9 d6 bb 47 64 b2 3b b7 79 a3 3b ee b4 2e 3c
       -0.006556639 0.005444083 0.004988875 0.010663254
000080 d4 d1 a7 3a 6f 66 78 bb ab 1c 6d 3b 92 11 33 bb
       0.0012803623 -0.0037902852 0.0036180418 -0.0027323705
000090 a2 8e d7 bb 12 c9 e2 3b 68 c5 0d 3a ea f3 93 3b
       -0.0065782825 0.006920942 0.0005408139 0.004515161
0000a0 c7 10 b2 3b 28 3c 68 3b 1d f6 4d 3b 92 82 4f bc
       0.005434129 0.0035436247 0.0031427213 -0.012665408
0000b0 fe 83 34 38 de ef 24 3b 8d 23 ef 3b f5 e5 ce ba
       4.303827e-05 0.0025167386 0.007297939 -0.0015785085
0000c0 a7 cf e4 bb c2 d0 6a 3c 63 53 6e 3a 33 f4 8b 3b
       -0.006982762 0.014331998 0.0009091405 0.004271054
0000d0 6f de 9f bb 37 24 71 3b ce 1a 84 3b b4 ad ae bb
       -0.004878811 0.0036795267 0.0040315157 -0.0053307656
0000e0 d7 a7 be bb eb d9 28 bc ff 6a ff bb b5 d6 fc bb
       -0.005818348 -0.010305862 -0.0077947374 -0.0077160248
0000f0 b7 73 cc bb 86 20 2a 3c 93 c8 d0 bb 4a b8 17 bc
       -0.00623938 0.010383731 -0.0063715666 -0.0092602465
000100 62 48 6c 3b 56 ed 90 bb 78 38 4c bc df a5 ed 3b
       0.0036053886 -0.004422824 -0.012464635 0.0072524394
000110 20 d2 d7 3b b7 e9 49 3c 23 ed 19 3c da b3 4f ba
       0.006586328 0.012323788 0.009394917 -0.00079232233
000120 10 83 20 3c a2 6d d4 3b 8b 55 11 3c 85 f3 50 bc
       0.009796873 0.006482796 0.008870493 -0.012753372
000130 14 ad 1f 3b 53 35 d9 ba 07 b9 e7 b8 01 82 44 bb
       0.0024364637 -0.0016571678 -0.000110494024 -0.0029984715
000140 1c 47 a7 bb ad c5 21 bc 19 30 05 3c 4b a6 16 3c
       -0.0051049124 -0.00987379 0.008129143 0.009194921
000150 42 1d 6f 3c 2b ad 35 bc d6 26 cc ba a3 1e 95 3b
       0.014594378 -0.01108865 -0.0015575539 0.0045507713
000160 66 93 08 bc 4f af 86 3c 05 08 5d 3a 77 86 c0 3b
       -0.008335924 0.016441016 0.0008431676 0.0058754045
000170 ad fc 52 3c a3 23 d5 bb e3 ad a3 bc 33 7f de 3b
       0.012877625 -0.0065044924 -0.019980377 0.0067900657
000180 9f 6e 2c 3c 2f d3 13 3c e1 f3 47 3b d7 86 14 bc
       0.010524421 0.009022518 0.0030510353 -0.009065351
000190 b9 34 23 3b 58 e6 29 bb b7 03 14 bc 93 81 3a 3a
       0.0024903251 -0.002592465 -0.009034089 0.0007114645
0001a0 5a 2b a9 3c 35 4a 07 3c 20 50 be bb 05 2a b2 ba
       0.020650554 0.008257438 -0.0058078915 -0.0013592845
0001b0 55 b3 06 bc 97 5a 68 3c f3 7e 0a 3c 4d 56 a1 ba
       -0.008221467 0.014181755 0.008453119 -0.0012309045
0001c0 77 e4 47 ba 08 06 ce 3b 0f e2 41 3c ab c9 43 bc
       -0.00076252915 0.00628734 0.011833682 -0.011949937
0001d0 70 59 14 bb 32 e3 8b bb ea 6c 38 bc 4f 89 70 bb
       -0.0022636317 -0.004269027 -0.011256436 -0.0036702936
0001e0 96 0a 23 3c 0b cd 88 3b c3 fc 89 bb 78 60 b9 bb
       0.009951254 0.0041748337 -0.0042110397 -0.005657252
0001f0 5f e5 9f bb d0 2a 7b 3b c5 f3 20 3c df 70 10 bc
       -0.004879638 0.0038325079 0.009823744 -0.008815973

network_body._body_endoder.seq_layers.0.weight f4 [128, 805]
000000 66 32 58 3d 4e 94 ed 3c 3e 98 4d 3d e8 f1 27 3d
       0.05278244 0.029001381 0.050194018 0.041002184
000010 64 b0 5b bc b1 79 22 3d 83 e5 60 3d b7 70 80 3d
       -0.013408754 0.039666835 0.05490638 0.06271499
000020 2e 4e ba 3c d1 e9 bf 3c ac 2e 53 3b 65 40 0f 3c
       0.022742357 0.023426922 0.0032223864 0.00874338
000030 66 6d d3 3b 84 6b 0d 3c a4 21 a2 3d 13 f6 92 bc
       0.0064522503 0.008631591 0.07916573 -0.017939603
000040 6a d4 d1 3c 75 a2 27 3d 41 27 ed bd b8 31 bf 3c
       0.025613982 0.040926415 -0.11579753 0.023339137
000050 12 70 56 3d 8a e3 b9 3b 9d cb e8 bc cd 60 64 3d
       0.052352972 0.0056728767 -0.028417403 0.05575638
000060 50 88 12 3d 0c 80 9c bc c1 bc d8 bc 9c 2c 2d 3d
       0.03577453 -0.019104026 -0.026457192 0.04227887
000070 a6 e4 65 3c ed ce c8 bc 56 8e 3d bc f2 fb ca bc
       0.014031565 -0.024512732 -0.01156958 -0.02477834
000080 18 d9 09 bd 63 8c a8 3c 18 1a 17 bc db 64 00 3d
       -0.033654302 0.020574754 -0.00922253 0.031346183
000090 b5 18 c5 3b 66 9a 8e 3c 4a 33 04 bd 1e 9d 2e bc
       0.006014908 0.017407607 -0.032275476 -0.010657577
0000a0 f6 c4 b1 bc 25 7a 97 bd 68 f2 2d 3d c4 59 1c bd
       -0.021700364 -0.07396344 0.042467505 -0.038171545
0000b0 06 5f 67 bc 4f 7c 1b 3c 96 95 40 3c 73 2e 8e 3d
       -0.014121776 0.009490087 0.011754414 0.06942453
0000c0 94 9c 7a bd f3 84 55 3c 67 2c 0d 3c 41 ee 25 bd
       -0.06118448 0.013032186 0.008616543 -0.04051042
0000d0 15 93 05 3a 10 7e 49 3d d6 16 15 3c 4a b8 07 bc
       0.00050954643 0.04919249 0.009099683 -0.008283684
0000e0 dd 4e 49 3d a9 a8 3d 3b 8b 7a 86 3b 2c 47 68 3d
       0.049147476 0.002893964 0.0041039637 0.0567085
0000f0 c1 38 67 bd 28 8e 8b 3d 7c c9 44 bd 61 3e af 3d
       -0.05645061 0.068142235 -0.048043713 0.0855682
000100 37 93 09 3c 42 31 9b 38 d7 5f 1c bd 6b 0f 06 bd
       0.008396915 7.400151e-05 -0.038177337 -0.032729547
000110 2d a4 20 3b 42 b9 05 3c 45 19 07 bd bf 62 05 3d
       0.002451192 0.008161845 -0.032983083 0.032564875
000120 fc 7c 31 3d 95 5a eb 3b 70 39 d6 bc 30 c8 85 bd
       0.043332085 0.007182429 -0.026150435 -0.06532323
000130 08 4e 00 bd 1a 9d 0a bd 4a aa f7 3c 1d 4c f0 3b
       -0.031324416 -0.03384123 0.030232567 0.007333292
000140 8a df 91 bc 22 3b a8 39 92 33 1d bd b0 50 0e bc
       -0.017806787 0.00032087514 -0.03837926 -0.00868623
000150 8c 1b c8 3d 80 90 1f bd d8 37 22 bd 1f 6a 93 bd
       0.09770879 -0.038956165 -0.039604038 -0.07197975
000160 bb 89 2c 3d b0 13 5d 3a 88 65 5e 38 84 c7 d4 bb
       0.042123538 0.00084334146 5.3023483e-05 -0.0064935107
000170 fa d7 6e bc 50 27 93 bd d7 bd 98 bc 1e 07 29 bc
       -0.01457786 -0.07185233 -0.01864521 -0.010316638
000180 33 2c 2c 3c 26 cb b4 3b 2b 0d de bc ed f1 07 3d
       0.010508585 0.0055173812 -0.027105888 0.033189703
000190 0b ed 72 bc 67 4a b5 3c ae 13 1b bd 9f 82 65 3c
       -0.014827023 0.022130204 -0.037860565 0.014008193
0001a0 65 ae d5 bc 10 97 61 bd e2 d5 dc bc c7 bc 07 3c
       -0.026084134 -0.055075705 -0.026957456 0.008284754
0001b0 47 d6 5b bd a7 2b 8d 3d 38 37 fa bc 88 a2 fd bc
       -0.053671148 0.06893092 -0.030543908 -0.03096129
0001c0 2d 9e 07 3d 0f 98 cb 3d 92 cd 35 bd 63 93 73 3d
       0.033109833 0.09941112 -0.0443855 0.05946673
0001d0 d0 e2 1e 3c 7e 61 2f bd d3 68 c3 bc d3 ba be bc
       0.009697631 -0.042817585 -0.023853695 -0.023282444
0001e0 f1 39 57 ba bb 38 21 bd e4 ad 7f bb 31 09 69 3d
       -0.0008210233 -0.039360743 -0.003901356 0.05689353
0001f0 5c f8 28 bd 14 12 a3 bd 7a 29 d4 3c 48 74 4d 3d
       -0.04125248 -0.079624325 0.025898684 0.050159723
000200 cf 09 78 3c 17 7b 29 3c 1c 1d 41 bc 25 33 ca bc
       0.015139057 0.010344288 -0.011786725 -0.02468259
000210 6c ca 63 3b 6d 2f 46 3d f0 0d fb 3b 4f f9 59 3c
       0.0034758104 0.048385072 0.0076615736 0.013304069
000220 e8 9e da bc 73 24 f2 bc bb 41 10 3c 89 b3 71 3c
       -0.0266871 -0.029558396 0.008804734 0.014752277
000230 88 90 3f 3c 43 f3 64 3c cb 82 a3 bd 78 2f 29 3d
       0.011692174 0.013974014 -0.07983931 0.041305035
000240 fd 80 88 bc 86 32 9b bc 47 61 dc bc 80 9c 16 3d
       -0.016663069 -0.01894499 -0.026901854 0.036770344
000250 6b 22 0d bd b3 62 77 3d a0 f1 97 bb 5f 45 9f 3c
       -0.03445665 0.06039686 -0.0046369582 0.019442258
000260 b2 47 30 bc e5 48 8c 3d a7 0a f5 bc ef 22 43 3b
       -0.010759281 0.06849841 -0.029912306 0.002977546
000270 dd 38 88 3d 82 4f 27 3a 04 5a b5 bd 5f 68 6d 3c
       0.06651471 0.0006382392 -0.0885506 0.014490216
000280 3b 5d bb 3b 73 15 fa 3b 81 39 78 bc 26 78 fb bc
       0.005717901 0.0076319515 -0.015150429 -0.03069694
000290 c8 84 8c 3b ea 8e e9 bc d2 c2 15 3d 1b 33 3c bc
       0.0042882897 -0.02851053 0.03656275 -0.011486794
0002a0 79 d3 58 bd 8f a0 d5 bb b3 c4 44 bd 51 33 b1 3c
       -0.05293605 -0.006519384 -0.04803915 0.021630915
0002b0 03 8a 26 bc e3 ae 21 3c 67 07 62 bb 6f b0 00 bc
       -0.0101647405 0.009868356 -0.0034489275 -0.007854565
0002c0 8f 53 38 3b 19 c8 a7 3b ab 1f a9 3d 11 8e c6 3d
       0.0028125977 0.005120289 0.08257993 0.09695066
0002d0 c5 71 10 bd d5 9f 74 3b 50 32 9d 3d 8f 5c 70 3c
       -0.03526475 0.0037326713 0.07675612 0.014670505
0002e0 4c c4 19 bd a6 62 46 3d ab 54 cc b9 3f 6e 02 3d
       -0.03754072 0.048433922 -0.00038972995 0.03184342
0002f0 23 d7 89 bd 82 19 9c bc 97 99 16 bc 56 9b 1c bd
       -0.06730487 -0.019055132 -0.009191892 -0.038234077
000300 c2 2a a3 bc 24 b6 3b 3c a3 e7 75 3b 4d d3 d4 ba
       -0.01991785 0.011457 0.00375221 -0.0016237289
000310 5d 3c 44 3d 44 05 5f bd ae 5d f4 3c 54 12 91 bd
       0.04790913 -0.05444838 0.029829826 -0.07083574
000320 f1 cf 8d bc 43 b7 b5 bc 21 06 85 3c 53 a2 3f 3c
       -0.017311068 -0.022182113 0.016238274 0.011696416
000330 c3 3b 2a bd a7 8b 08 bd 5a c9 43 bb d8 15 9a 3c
       -0.0415609 -0.033336308 -0.0029874654 0.018809244
000340 d2 f9 c7 3c fb 07 b9 bc 5e 94 78 3c f1 8d fe bb
       0.024411116 -0.022586813 0.015172092 -0.0077683856
000350 65 a3 25 3d 4c a1 af 3c 47 f2 55 3c 3f 19 dc bc
       0.04043903 0.021439217 0.013058252 -0.026867507
000360 a5 85 8b 3d e0 3e ba bc 40 ad 8a bd fc e6 09 3d
       0.068126 -0.02273506 -0.06771326 0.03366755
000370 e5 a3 77 bc 88 c5 2e bd a6 4b 0a bc dd c0 c1 bc
       -0.015114759 -0.04266885 -0.008440888 -0.023651535
000380 7b e7 e5 3c a7 41 36 bb c5 4a d6 bc 8d 28 b8 bc
       0.02806448 -0.0027810128 -0.0261587 -0.022480274
000390 4d 23 f2 bc 65 80 b2 3c 4f 19 4d 3b dd e7 a3 3c
       -0.029557848 0.021789739 0.0031295603 0.020008022
0003a0 80 c1 bd bc c8 18 a3 3c 73 07 24 3d 61 50 11 3d
       -0.023163557 0.019909278 0.040046167 0.035477046
0003b0 05 b5 a8 bd 9b d0 ad 3c 65 f7 31 3d e6 da bc bc
       -0.08237652 0.021217635 0.043448824 -0.023053598
0003c0 46 68 46 3c 63 17 e2 bc 6a 22 e3 3c 29 6f 1c bd
       0.012109822 -0.027599042 0.02772637 -0.038191948
0003d0 6d e2 0f bb 9a 66 8a 3c 9a bd ce bb 18 3f d8 bc
       -0.0021955029 0.016894627 -0.0063092234 -0.026397273
0003e0 32 ab 12 bd 23 35 b5 bc bf 90 19 3c 50 2c 73 bb
       -0.035807796 -0.022120064 0.009372889 -0.003710527
0003f0 10 56 bd bc 81 c1 8a bc 14 5f 9d 3c da ad c8 3c
       -0.023112327 -0.016937973 0.019210376 0.024496961

network_body._body_endoder.seq_layers.0.bias f4 [128]
000000 00 00 00 00 00 00 00 00 00 00 00 00 00 00 00 00
       0.0 0.0 0.0 0.0
000010 00 00 00 00 00 00 00 00 00 00 00 00 00 00 00 00
       0.0 0.0 0.0 0.0
000020 00 00 00 00 00 00 00 00 00 00 00 00 00 00 00 00
       0.0 0.0 0.0 0.0
000030 00 00 00 00 00 00 00 00 00 00 00 00 00 00 00 00
       0.0 0.0 0.0 0.0
000040 00 00 00 00 00 00 00 00 00 00 00 00 00 00 00 00
       0.0 0.0 0.0 0.0
000050 00 00 00 00 00 00 00 00 00 00 00 00 00 00 00 00
       0.0 0.0 0.0 0.0
000060 00 00 00 00 00 00 00 00 00 00 00 00 00 00 00 00
       0.0 0.0 0.0 0.0
000070 00 00 00 00 00 00 00 00 00 00 00 00 00 00 00 00
       0.0 0.0 0.0 0.0
000080 00 00 00 00 00 00 00 00 00 00 00 00 00 00 00 00
       0.0 0.0 0.0 0.0
000090 00 00 00 00 00 00 00 00 00 00 00 00 00 00 00 00
       0.0 0.0 0.0 0.0
0000a0 00 00 00 00 00 00 00 00 00 00 00 00 00 00 00 00
       0.0 0.0 0.0 0.0
0000b0 00 00 00 00 00 00 00 00 00 00 00 00 00 00 00 00
       0.0 0.0 0.0 0.0
0000c0 00 00 00 00 00 00 00 00 00 00 00 00 00 00 00 00
       0.0 0.0 0.0 0.0
0000d0 00 00 00 00 00 00 00 00 00 00 00 00 00 00 00 00
       0.0 0.0 0.0 0.0
0000e0 00 00 00 00 00 00 00 00 00 00 00 00 00 00 00 00
       0.0 0.0 0.0 0.0
0000f0 00 00 00 00 00 00 00 00 00 00 00 00 00 00 00 00
       0.0 0.0 0.0 0.0
000100 00 00 00 00 00 00 00 00 00 00 00 00 00 00 00 00
       0.0 0.0 0.0 0.0
000110 00 00 00 00 00 00 00 00 00 00 00 00 00 00 00 00
       0.0 0.0 0.0 0.0
000120 00 00 00 00 00 00 00 00 00 00 00 00 00 00 00 00
       0.0 0.0 0.0 0.0
000130 00 00 00 00 00 00 00 00 00 00 00 00 00 00 00 00
       0.0 0.0 0.0 0.0
000140 00 00 00 00 00 00 00 00 00 00 00 00 00 00 00 00
       0.0 0.0 0.0 0.0
000150 00 00 00 00 00 00 00 00 00 00 00 00 00 00 00 00
       0.0 0.0 0.0 0.0
000160 00 00 00 00 00 00 00 00 00 00 00 00 00 00 00 00
       0.0 0.0 0.0 0.0
000170 00 00 00 00 00 00 00 00 00 00 00 00 00 00 00 00
       0.0 0.0 0.0 0.0
000180 00 00 00 00 00 00 00 00 00 00 00 00 00 00 00 00
       0.0 0.0 0.0 0.0
000190 00 00 00 00 00 00 00 00 00 00 00 00 00 00 00 00
       0.0 0.0 0.0 0.0
0001a0 00 00 00 00 00 00 00 00 00 00 00 00 00 00 00 00
       0.0 0.0 0.0 0.0
0001b0 00 00 00 00 00 00 00 00 00 00 00 00 00 00 00 00
       0.0 0.0 0.0 0.0
0001c0 00 00 00 00 00 00 00 00 00 00 00 00 00 00 00 00
       0.0 0.0 0.0 0.0
0001d0 00 00 00 00 00 00 00 00 00 00 00 00 00 00 00 00
       0.0 0.0 0.0 0.0
0001e0 00 00 00 00 00 00 00 00 00 00 00 00 00 00 00 00
       0.0 0.0 0.0 0.0
0001f0 00 00 00 00 00 00 00 00 00 00 00 00 00 00 00 00
       0.0 0.0 0.0 0.0

network_body._body_endoder.seq_layers.2.weight f4 [128, 128]
000000 f1 97 ad bd cf e7 49 be a4 3a a0 bd ee 86 d8 bd
       -0.08476246 -0.19717334 -0.07823685 -0.10572611
000010 61 79 ee 3a ad 2b e7 bc 75 d6 34 3d cb e2 9c bd
       0.0018194133 -0.028219068 0.044149835 -0.07660445
000020 3c 36 1d be 12 86 ce bd a5 33 31 3d e3 d7 90 be
       -0.1535272 -0.10084166 0.043262143 -0.28289708
000030 04 26 05 be 84 b5 5f 3b df d1 03 bd 64 76 87 be
       -0.13002783 0.0034135291 -0.03218257 -0.26457512
000040 22 06 53 3d 67 54 98 3d 78 21 c6 bd a5 5b 9c bd
       0.05151952 0.074379735 -0.096743524 -0.07634667
000050 32 48 b2 bd 2e 6f 34 bd 17 68 55 bd dc 97 33 bd
       -0.087051764 -0.04405134 -0.05210122 -0.043845996
000060 4b f8 85 bd ea 54 d0 bd 62 f5 74 bd 26 00 10 3e
       -0.06541499 -0.10172446 -0.059804328 0.14062557
000070 fa 4c f6 3c c7 57 7b 3d 40 50 49 3d 0a a0 a1 bb
       0.030066002 0.061363008 0.049148798 -0.004932408
000080 76 29 78 3d 82 00 0a 3e 74 6d 53 3d 1e cb de 3d
       0.060586415 0.13476756 0.051618055 0.10878585
000090 90 a7 76 3d 09 88 b7 bd 4c f9 05 be 30 e5 26 bd
       0.060218394 -0.089614935 -0.1308338 -0.040745914
0000a0 ca 99 99 bd 2d 27 0c 3e ca 9c 08 3e 42 53 60 3b
       -0.07500036 0.1368682 0.1334106 0.0034229313
0000b0 07 80 1b be cf c8 32 bd 07 f1 8c bd 8b c0 df bd
       -0.15185557 -0.043648537 -0.0688191 -0.109253965
0000c0 ae a8 83 3d 5a f5 83 be 44 b2 06 3c 37 08 75 3c
       0.064286575 -0.25773126 0.008221213 0.014955572
0000d0 ab c5 5e bd d4 e6 e0 3b f7 42 01 bb 09 dc 8d bd
       -0.05438773 0.0068634544 -0.0019723752 -0.06926734
0000e0 e9 c2 1e 3c b6 dc d9 bd d9 54 91 3e cd 0e d2 bd
       0.009690025 -0.106378004 0.28385046 -0.10256729
0000f0 4a dd dd 3d fa c6 d2 3d d7 7f db 3d 80 38 49 bd
       0.10833223 0.10291858 0.10717743 -0.04912615
000100 96 63 1b be 8e 0d 28 bd b9 9d 07 3d 09 94 0f bc
       -0.15174708 -0.04102855 0.0331094 -0.008763322
000110 ac 19 bd bc 40 c3 e0 bd 8a 11 38 3d 19 d3 84 3c
       -0.02308353 -0.10974741 0.0449386 0.01621394
000120 9e 74 25 bd 17 20 a8 bb 1f d6 f8 3d e1 47 c0 bc
       -0.040394418 -0.0051307785 0.12150215 -0.023471775
000130 74 21 ee bd 8a 83 8d bd b5 90 b9 bd e0 6d bd 3c
       -0.116274744 -0.06909855 -0.09060804 0.023123682
000140 e7 49 ed bc 66 7d 31 3c 6b f3 66 3d ed f8 cf bc
       -0.028965903 0.01083312 0.056384485 -0.025387252
000150 d0 3a ac 3d 49 cb 0a bc 0e 40 29 3d 92 b1 1e bc
       0.08409655 -0.0084713185 0.041320853 -0.009685891
000160 6c 6b cf 3d 91 7c 2e 3e 28 d1 b1 bd bb 6b 90 bd
       0.10127911 0.17039706 -0.086824715 -0.07051798
000170 b8 0a ac 3c 0f d7 61 3d bf c1 ed bd 59 c4 70 be
       0.021001205 0.055136736 -0.1160922 -0.235124
000180 0c e0 1c be d2 e1 2c 3e 1a 56 34 be b1 00 48 3e
       -0.15319842 0.16883019 -0.1761097 0.19531514
000190 3c 63 c5 bd 6a 90 6a bd f9 fe 82 3c cc 8b 80 3d
       -0.09638068 -0.05726663 0.015990721 0.06276664
0001a0 94 e4 fa 3c ab 38 92 bb 44 ef eb bd d4 0e 8c 3d
       0.030626573 -0.0044623218 -0.11520246 0.06838766
0001b0 31 26 c0 ba 70 ce a3 bd ab a2 13 3d a7 95 23 3c
       -0.001465982 -0.07998359 0.036043804 0.00998441
0001c0 e0 1c 21 3d 39 9f cc bc 23 88 cc 3d a8 df 82 3c
       0.039334178 -0.024978267 0.099869035 0.015975788
0001d0 16 17 cc 3c c0 cc 18 bd 1d 90 85 bb 36 6d 38 bd
       0.024913352 -0.03730464 -0.0040760175 -0.045026027
0001e0 14 84 6d bd 16 a6 28 3d 13 92 1a bd bb 24 60 bb
       -0.057987288 0.041174017 -0.037736963 -0.003420158
0001f0 42 7c 2b bd aa b4 54 3d 02 d3 ed bd 03 a5 e6 bd
       -0.04186655 0.051930107 -0.11612512 -0.11261942
000200 d3 47 04 3e 71 c3 7e 3c 4b d2 6f 3c 0a 7b 91 bd
       0.12918024 0.015549527 0.01463754 -0.07103546
000210 7c 69 cc 3d 32 61 04 3d b9 ac b2 3d 61 77 b8 bd
       0.09981057 0.032319255 0.087243505 -0.09007145
000220 35 89 72 bd 25 9e 51 bd 14 e3 1e be 32 5d 84 bd
       -0.059212882 -0.05117621 -0.15516311 -0.06463088
000230 cc bd 04 3e 40 2e 3f bd 77 ae cf 3d 84 54 4c bc
       0.12963027 -0.046674967 0.101406984 -0.012471322
000240 be 4f dd 3c c8 ff ed 3d f8 7a d4 bb 3c 70 09 3e
       0.027015563 0.11621052 -0.0064843856 0.1342172
000250 9e 02 8d 3d 81 9c 64 3e 9f dd 4b 3e b9 c3 49 3d
       0.06885265 0.22325327 0.1990876 0.04925892
000260 0d 1f 90 3c a3 e1 99 3d ed 35 fc 3d 59 65 7f bd
       0.017592931 0.0751374 0.12314973 -0.062352512
000270 8c fc 4e 3d b9 ef 88 bc 64 a7 a5 bd 1b 0c 27 bc
       0.050533816 -0.016715871 -0.08088568 -0.010195757
000280 b3 0a 90 3d 39 44 97 bd 69 fd f5 3d 92 3e e5 bc
       0.07033291 -0.07386059 0.12011225 -0.027983937
000290 d1 a2 d8 bd 5e a4 18 3e b6 15 db 3c ff 5b 81 bc
       -0.1057793 0.14906451 0.026743751 -0.015790937
0002a0 21 84 5b be fe 26 42 3c f2 f0 2f 3e 48 4a a7 3d
       -0.21437122 0.011850117 0.17181757 0.08168465
0002b0 60 41 90 3d 77 12 31 3b 6b b0 15 be dc 6b 01 be
       0.07043719 0.0027019063 -0.1461808 -0.12638801
0002c0 32 5c 3d 3d 87 47 a1 bd d8 89 67 bd 48 c6 c4 bb
       0.046230502 -0.07874971 -0.056527942 -0.0060050823
0002d0 20 f3 fa 3d 3d 52 ae 3c 68 f4 d4 bc 34 01 c8 3d
       0.12253404 0.021279449 -0.025995448 0.097658545
0002e0 e4 f2 e2 3d 80 e5 1b bd 11 49 a1 bd 51 4f 83 3e
       0.11081484 -0.038060665 -0.078752644 0.2564645
0002f0 3f 48 91 3b 2e ea 46 bd 85 f8 d6 bd 36 18 89 bd
       0.0044336612 -0.048563175 -0.1049662 -0.06694071
000300 02 96 07 be b9 35 7e 3d 98 c7 bb 3d a9 23 fb bd
       -0.13240817 0.062062953 0.09168929 -0.12262661
000310 88 e7 83 3c 44 49 80 3d c6 7b a1 3d 64 36 e1 3d
       0.016101614 0.06263974 0.07884936 0.10996702
000320 ef bb 9a 3d ad 5f 55 3d b2 32 23 be 8f ad 8a bd
       0.07555377 0.052093197 -0.15937307 -0.06771385
000330 6c 76 68 3e 64 cb 17 3e a8 87 7a bd 96 61 ba 3d
       0.22701424 0.14823681 -0.061164528 0.09100644
000340 4a 34 89 bc 4d 2e ec bd b4 54 ca 3d 9f 20 81 3e
       -0.016748566 -0.11532269 0.09879437 0.252202
000350 77 15 bd bd e0 67 39 3d 0a 6d 40 3d 33 23 ae 3d
       -0.0923261 0.04526508 0.046978988 0.085028075
000360 23 0d df 3d 9b 77 4b 3d 17 61 60 3b b3 fe 6d bd
       0.108911775 0.04967461 0.0034237558 -0.05810423
000370 44 df b8 bd 5d 0c 4f 3c dc 23 11 bd 56 82 00 be
       -0.090269595 0.012637225 -0.03543459 -0.12549719
000380 83 ec 4c ba dc 14 dc bc 04 9b 93 bd a4 54 55 3c
       -0.00078172254 -0.026865415 -0.07207301 0.013020668
000390 d2 d3 c7 bd 77 2e 08 bb 3f 1a f3 3c a5 ab b9 bd
       -0.097571984 -0.0020779648 0.029675601 -0.09065942
0003a0 d9 50 c5 3d 30 f2 9f bb 1e 2c 4b 3d 43 42 1b bd
       0.09634561 -0.004881166 0.04960262 -0.03790499
0003b0 69 a1 1a be f2 18 34 3e d7 37 e2 bd 2d 8b 1d 3d
       -0.15100636 0.17587641 -0.11045807 0.038462806
0003c0 4e ba 2c 3e 85 01 e5 bd 60 c1 fa 39 b4 81 41 bd
       0.16867945 -0.111819305 0.0004782779 -0.047242835
0003d0 ab ba 9e 3b 2c 03 8b 3c 71 d0 b0 3d 35 e3 6b 3e
       0.00484403 0.016969286 0.08633507 0.23035891
0003e0 ae 1a 30 3d 1f 37 71 3e e9 97 15 bd 25 29 0f be
       0.042994194 0.23556183 -0.036521826 -0.13980539
0003f0 7b 00 19 3d a8 36 99 bc b2 30 f1 bc e8 6c 85 bd
       0.037353974 -0.01870282 -0.029442165 -0.06514913
