results/baseball1/Baseball/Baseball-2000.onnx (onnx, 510855 bytes, 7 tensors)

network_body._body_endoder.seq_layers.0.weight f4 [128, 805]
00000000: 9c1e 2f3d 427d 65bd 5480 acbc 8b4a 4fbc
00000010: d509 903d 759d 2f3d 0c1e cebb 4485 7d3c
00000020: be1c 6bbd 5781 adbc c262 44bc ec12 463c
00000030: f14a 6ebc facf 683a 4885 b7bc 6f58 563d
00000040: 857c 643d d280 3e3d b7f0 673c 3719 943c
00000050: a210 2abd e076 273d 0162 3a38 f84c 123d
00000060: 8ed7 4cbd d136 c8bc 9e3e b73c 89bb 6a3a
00000070: b1a6 3b3d 4f8d 833c e512 a53d 8e32 f43c
00000080: 7134 07bb 5ef0 12bc 72d5 4b3d d4f5 103d
00000090: af99 383c 6a00 43bc b26e 22bd fc8a 723c
000000a0: 290a 36bd a0a8 2c3d fba6 c33c faf5 573c
000000b0: 07b0 5b3c ef78 82bd 1a4d 92bb f8ef 263d
000000c0: 970a d73b 237f 0dbe 611e bebd aed8 60bb
000000d0: 8713 13bd a560 39bd 5de6 9cbc 5c66 45bc
000000e0: 29b9 1d3d 4235 903c 4490 8cbc 669f 4fbb
000000f0: 41d8 573d b2b8 32bd 6d37 c9bd 6976 25bc
00000100: 8e72 a4bb 9b62 16bd 08c8 db3c 693d 163d
00000110: 4b83 963d cc92 c63c e761 5abd 1714 773d
00000120: 6017 4f3d 56b4 1cbd 23a8 29bd 1277 ecbb
00000130: 3fe7 703c b39e 00bd 6019 983c 0205 09bd
00000140: c5e7 4c3d 6d45 ddbb 1ea1 7d3c 2ba0 4a3d
00000150: f1ed bdbc 38e4 f7bc 134e c3bd ec18 3bbd
00000160: 1888 5f3c 55b2 573c 0456 cfbd 5a1b 71bd
00000170: cb81 85bc cee7 1f3d e562 e33d fc57 0cbc
00000180: 80f4 063c abac 093c 7ef7 34bd de47 64bd
00000190: ed6e 9dbb e386 193a 32c0 0dbd 0806 453b
000001a0: e87e c13c 075a 9ebd aa9d 34bd ef22 54bb
000001b0: 343b 36bd 0619 883c 2bb7 023d 7bdb 013c
000001c0: 0c13 2c3d 017d 36bc b755 bb3b d597 873d
000001d0: 8971 903c 27b9 3f38 fd72 553d 7ee3 b5bc
000001e0: fae7 603d 50a0 2f3d 9b4f ec3b 3752 12bc
000001f0: 649c 8bbd 5b06 1abc f7d8 ad3c 45f6 03bd
00000200: 42ce 6c3d bf85 fd3c db48 0abc 8398 363d
00000210: e4ea debb 6641 cc3a fc92 a43b b9d4 37bd
00000220: 0016 8b3d 357b f03c 446c 13bd 9525 2b3c
00000230: 3e36 523d a105 3e3b 6b8b d23c b461 70bc
00000240: cebf 1abd 6772 c1bc 4910 1bbc 26da a0bd
00000250: 59a9 c1bc b0cd e83c 6f72 b23c d541 b73c
00000260: eb0c 2a3c 05ac 94bc 110a 283d 0d78 923c
00000270: 6b1d 5c3c 3cad 33bd 718b 15bd ab3d 973b
00000280: ea22 7c3c f8c2 87bd 112b 16bc 2ab5 9fbc
00000290: 5dbb 25bd 41b6 103d 74e8 a03b eabc e73b
000002a0: 6c0e 8fbd 6169 783c e1a7 a6bb c844 973d
000002b0: e621 65bd e633 1a3d 4791 aabc 8b84 7fbd
000002c0: 6a0d 9abd b651 433c 5ce4 51bd 0eaf 4dbd
000002d0: f808 09bd 8c32 bcbd 992d a4bd 28ea c33c
000002e0: 68e5 1bbc fcd2 ed3c 1998 c33b a2a9 003d
000002f0: 202c b73b f7a1 2abc 349a a0bb 1921 7c3b
00000300: f697 c13c bab2 6cbd 16e1 ccbd 9fd5 293c
00000310: 8afe 963d d0e6 623b aa1f d33c 6387 923b
00000320: e0e5 423d 01c1 2dbc 14da 0d3b 58f6 513c
00000330: b06e 4c3c 2172 723d c2c3 5b3d 11e9 493c
00000340: 85fa 053d 4f57 35bd 9ad1 183c 6dde 93bb
00000350: 1755 8c3c 4c1a 553d 44ee 99bd c785 87bd
00000360: af64 01bd b20d 3b3d dea0 d43b 31b2 713c
00000370: 1850 983c 679c d13c 2302 103d c5c3 5e3c
00000380: 9a03 d039 4245 42bd 8b66 51bd b2a9 f73c
00000390: 1093 d8bc 58aa 22bd 264e 26bb a146 9f3c
000003a0: 829b 7e3c d9df cd3c 4306 8fbd 1629 83bd
000003b0: db0e ebba ea06 84bb 5b02 82bd 3ae7 b5bc
000003c0: 6768 10ba 84f7 eabc 46b9 3f3d 78e6 78bc
000003d0: 8c33 a5bc 056d 93bd 5118 bdbc 1347 d4bc
000003e0: ad11 e93b 05d9 76bb df8d 723d c5e8 973b
000003f0: fb99 0d3d dcb1 3d39 7c7d 5e3c 8c37 26bd
0.0427538 -0.05602766 -0.021057285 -0.01265205 0.07033125 0.042874772 -0.006290203 0.0154736675
-0.057400458 -0.021179838 -0.011986436 0.012089472 -0.014544235 0.00088810886 -0.02240242 0.05233043
0.055782814 0.04650957 0.014156512 0.01807843 -0.04151977 0.040884852 4.443713e-05 0.035717934
-0.050010256 -0.024440201 0.022368725 0.00089543365 0.045813266 0.016058592 0.080602445 0.029809263
-0.0020630623 -0.008968441 0.049764104 0.03539069 0.01126711 -0.011901954 -0.03965635 0.014803644
-0.044443283 0.042153 0.023883333 0.013181204 0.013408667 -0.063707225 -0.0044647576 0.040756196
0.0065625417 -0.1381803 -0.09283138 -0.0034308839 -0.035907295 -0.045258183 -0.019152815 -0.01204833
0.03850666 0.01760352 -0.017158635 -0.0031680702 0.05269647 -0.04363317 -0.09825025 -0.010099032
-0.005018539 -0.03671513 0.02682878 0.03667966 0.07349261 0.02423992 -0.053316023 0.060321894
0.0505594 -0.03825792 -0.041420113 -0.0072163427 0.014703571 -0.031401347 0.018566787 -0.03345204
0.05002572 -0.006752661 0.015480308 0.049469154 -0.023184748 -0.03026019 -0.09536376 -0.045678064
0.013643287 0.013165076 -0.10123828 -0.058863975 -0.016297242 0.039039426 0.11102847 -0.008565899
0.008237004 0.008402984 -0.04418134 -0.0557326 -0.004804483 0.00058565865 -0.03460712 0.003006341
0.023620084 -0.07732015 -0.044095673 -0.0032369455 -0.044490054 0.016613495 0.031912964 0.007925863
0.042010352 -0.011138202 0.005717005 0.066207565 0.017632263 4.5710385e-05 0.052111614 -0.022203203
0.05490873 0.042877495 0.007211638 -0.008930734 -0.068169385 -0.009400929 0.021221621 -0.032217283
0.05781389 0.030947564 -0.008440222 0.04457904 -0.0068029035 0.0015583455 0.0050224047 -0.044880603
0.067913055 0.029355625 -0.035991922 0.010445972 0.05132126 0.0028995054 0.025701245 -0.014671732
-0.037780575 -0.023614122 -0.009464332 -0.078541085 -0.023640322 0.028418392 0.021783082 0.022370258
0.010379056 -0.018148432 0.041025225 0.01787951 0.013434748 -0.04386638 -0.036509935 0.0046155057
0.015389184 -0.06628984 -0.009165541 -0.019495565 -0.040461887 0.03533006 0.004910523 0.007072081
-0.06985173 0.015161843 -0.0050859307 0.07386166 -0.05594053 0.03764715 -0.020821227 -0.062382262
-0.0752209 0.011921337 -0.05124317 -0.050215773 -0.03345582 -0.091893286 -0.080165096 0.023915365
-0.009515144 0.02903127 0.005969059 0.031411774 0.005589977 -0.010414592 -0.004901195 0.0038471876
0.023632031 -0.057787634 -0.10003869 0.010365873 0.07372768 0.0034622438 0.025771935 0.0044717058
0.047582507 -0.010605098 0.0021644877 0.012815081 0.012477562 0.059190873 0.053653486 0.012323634
0.032709617 -0.044272717 0.009327317 -0.004512599 0.017130418 0.05202703 -0.07516149 -0.06617313
-0.03159016 0.045667358 0.0064889034 0.014751957 0.01859288 0.025587274 0.035158288 0.01359648
0.00039675535 -0.04742933 -0.051123183 0.030232284 -0.026437312 -0.039713234 -0.002537617 0.019442858
0.015540006 0.025131153 -0.06983616 -0.06404321 -0.0017933504 -0.0040291445 -0.063481055 -0.022204984
-0.0005508721 -0.028682478 0.04680755 -0.015191667 -0.020166181 -0.07198528 -0.023082884 -0.025912797
0.007112703 -0.0037665975 0.05921733 0.0046359026 0.034570675 0.00018090702 0.0135797225 -0.040580317

network_body._body_endoder.seq_layers.0.bias f4 [128]
00000000: 0000 0000 0000 0000 0000 0000 0000 0000
00000010: 0000 0000 0000 0000 0000 0000 0000 0000
00000020: 0000 0000 0000 0000 0000 0000 0000 0000
00000030: 0000 0000 0000 0000 0000 0000 0000 0000
00000040: 0000 0000 0000 0000 0000 0000 0000 0000
00000050: 0000 0000 0000 0000 0000 0000 0000 0000
00000060: 0000 0000 0000 0000 0000 0000 0000 0000
00000070: 0000 0000 0000 0000 0000 0000 0000 0000
00000080: 0000 0000 0000 0000 0000 0000 0000 0000
00000090: 0000 0000 0000 0000 0000 0000 0000 0000
000000a0: 0000 0000 0000 0000 0000 0000 0000 0000
000000b0: 0000 0000 0000 0000 0000 0000 0000 0000
000000c0: 0000 0000 0000 0000 0000 0000 0000 0000
000000d0: 0000 0000 0000 0000 0000 0000 0000 0000
000000e0: 0000 0000 0000 0000 0000 0000 0000 0000
000000f0: 0000 0000 0000 0000 0000 0000 0000 0000
00000100: 0000 0000 0000 0000 0000 0000 0000 0000
00000110: 0000 0000 0000 0000 0000 0000 0000 0000
00000120: 0000 0000 0000 0000 0000 0000 0000 0000
00000130: 0000 0000 0000 0000 0000 0000 0000 0000
00000140: 0000 0000 0000 0000 0000 0000 0000 0000
00000150: 0000 0000 0000 0000 0000 0000 0000 0000
00000160: 0000 0000 0000 0000 0000 0000 0000 0000
00000170: 0000 0000 0000 0000 0000 0000 0000 0000
00000180: 0000 0000 0000 0000 0000 0000 0000 0000
00000190: 0000 0000 0000 0000 0000 0000 0000 0000
000001a0: 0000 0000 0000 0000 0000 0000 0000 0000
000001b0: 0000 0000 0000 0000 0000 0000 0000 0000
000001c0: 0000 0000 0000 0000 0000 0000 0000 0000
000001d0: 0000 0000 0000 0000 0000 0000 0000 0000
000001e0: 0000 0000 0000 0000 0000 0000 0000 0000
000001f0: 0000 0000 0000 0000 0000 0000 0000 0000
0.0 0.0 0.0 0.0 0.0 0.0 0.0 0.0
0.0 0.0 0.0 0.0 0.0 0.0 0.0 0.0
0.0 0.0 0.0 0.0 0.0 0.0 0.0 0.0
0.0 0.0 0.0 0.0 0.0 0.0 0.0 0.0
0.0 0.0 0.0 0.0 0.0 0.0 0.0 0.0
0.0 0.0 0.0 0.0 0.0 0.0 0.0 0.0
0.0 0.0 0.0 0.0 0.0 0.0 0.0 0.0
0.0 0.0 0.0 0.0 0.0 0.0 0.0 0.0
0.0 0.0 0.0 0.0 0.0 0.0 0.0 0.0
0.0 0.0 0.0 0.0 0.0 0.0 0.0 0.0
0.0 0.0 0.0 0.0 0.0 0.0 0.0 0.0
0.0 0.0 0.0 0.0 0.0 0.0 0.0 0.0
0.0 0.0 0.0 0.0 0.0 0.0 0.0 0.0
0.0 0.0 0.0 0.0 0.0 0.0 0.0 0.0
0.0 0.0 0.0 0.0 0.0 0.0 0.0 0.0
0.0 0.0 0.0 0.0 0.0 0.0 0.0 0.0

network_body._body_endoder.seq_layers.2.weight f4 [128, 128]
00000000: 1418 eabc a809 f23d 6b8d 82bd 1618 0dbe
00000010: 4406 673d 106e ecbd 94f7 9abd 2648 88b9
00000020: 8d69 853d a3a3 59bd de71 bcbd afad c7bc
00000030: 280d b1bd 548a 22bd 0dd3 093d 4646 a3bd
00000040: 2e63 d13b f8dc 053d 7a80 fc3c 269a 833e
00000050: faad 5bbd 3cec 0bbd 7bdc f8bd 585c 96bd
00000060: 2f3c 88bd 6bae 713d e6d3 ae3d 745f 93bd
00000070: 25e7 5fbd 8a7d babd 70e2 aa3d c27f b6bd
00000080: fa01 4c3d a0fb 86bb 12e6 19be 1a38 793e
00000090: 79e1 06be 8d8e b23d 3e72 073d 824f 6d3d
000000a0: c8c1 fa3c e609 8a3d 0eb6 3b3d 8cf9 163e
000000b0: 0e6f 1ebe 0548 5d3e 0d60 00be 42e7 86bc
000000c0: 9cac fe3c a4d0 b53d b083 613e 71e4 3e3d
000000d0: 397f 14be 5cf7 f1bc 8157 d93d edf2 8b3d
000000e0: 6e9a fe3c 1e77 843d efe4 56bd 0843 c6bd
000000f0: 846a febd 4cd5 57bd 68b7 f83b a223 d63d
00000100: a422 6ebd 7b7c f5bd c2ce cb3c 66d8 4b3d
00000110: 7d6c 7c3e 4ab2 b0ba c62e 493e 3272 e5bc
00000120: b996 893d faef a6bd aec1 c23c 4a57 b33d
00000130: 5f8e 503e 0192 873d ffef edb8 04f7 abbd
00000140: e835 babd 862e ae3d fbcb 26be 4bb2 3ebd
00000150: 32e7 0b3d d5f4 993d f449 c4bd de62 723d
00000160: fd0a ba3d 2427 9b3d 8a1a 36be a291 8abd
00000170: f7e1 343d ebe4 1ebd e50b a2bb 60ef 46bd
00000180: fd2e ef3d 6129 01bc 527f 6cbd c763 42be
00000190: 753b cbbd 5f09 07be 4b33 66bc 09c0 393d
000001a0: 259a 8a3d b474 0fbc ad9c 32bd 2d49 49bd
000001b0: 128f 9a3d 84a5 8fbd a5bd babc 13d8 0dbd
000001c0: 608a c13d ea23 5f3c c4f6 7abd 8202 50bd
000001d0: f11a 71bc e563 473c 3d14 bc3d f318 99bc
000001e0: 1198 9f3d 1977 a33d 868e 03bc 7e06 85bd
000001f0: 1186 d2bb b2ab 6a3d 4034 903d fbcb 69bc
00000200: edea 3a3d a94d 06be d96b ff3d a8b1 f7bd
00000210: 16a2 a13d 5844 34bd ba0a 543d 2f39 14bd
00000220: 5978 14bd 26ac 03be c8f2 2e3e a044 543d
00000230: 861d 2fbe b56e f8bd 71e9 9bbc d31c b73d
00000240: f3eb c03d a22d 083d 0e52 31be bb36 223e
00000250: dc9e 98bd b3ce da3d 65c8 3dbd 660a b33c
00000260: 71db b2bc 2817 36be f431 003c 323c 2fbd
00000270: 6c6e e83b b742 8ebd 61ee 4dbd 0885 cb3d
00000280: 98d9 1bbb 0d92 12be 0be1 613c 85b0 25bd
00000290: ff53 73be aac3 c8bd e80e f83c 4fcb 6e3c
000002a0: 8fe5 8b3c c4a7 29be 17b5 ec38 cbcd 883d
000002b0: 931d 253e 1796 7bbc 1dde 6a3c 1b98 0e3c
000002c0: a6c0 87bc 7ada d4bd ff98 26bc d77a 25bd
000002d0: 27ea dbbc c814 87bd a3c4 31bd d926 843c
000002e0: f964 84bd 3f76 123e f4ae 91bd 6e82 e9b9
000002f0: 4657 b9bd bb9e 04be b0f5 35bc a119 f5bd
00000300: a316 bfba 37a5 273d dc88 ba3c 4ecb ab3d
00000310: fc79 123d 369e b7bd c629 5e3d c6ee 103e
00000320: e4ca f8bd 37f5 31bc f353 783d efa3 83bd
00000330: 7a93 0e3d cf60 163d 8a6d 6c3d e60a 1dbe
00000340: f2da f5bc 8bdb 2abd 6497 b6bc bbca 03bd
00000350: b96e 143e 5ca5 b7bd b0e3 08be 66fa 4abe
00000360: 757f a2bd 48b2 7b3d 85f1 09bd 2825 453d
00000370: bf79 aa3d 926f 103e aaa4 083e 1ed8 853c
00000380: 5718 4f3c 703b f63d c09d ae3d 6d80 23be
00000390: 17b4 853d e4f5 113d 57f4 d13d 6092 873d
000003a0: 9e80 52bd 57fb cdbc 21ff c1bd 6055 9d3d
000003b0: f2c4 5b3e 3a64 75bd c5ae a13d 4d9b e8bc
000003c0: c81b 4cbd 1593 a0bd 9c0e bf3d af1a 1a3d
000003d0: e3c8 a33c 46c2 a2bc 1c02 f03c 4946 abbd
000003e0: 3ef2 25ba 8bfa 2cbe 5452 803d a877 a1bb
000003f0: 862d e6bc 5b49 49be 9163 5b3a e6e9 3ebe
-0.028575934 0.11818248 -0.063746296 -0.1377872 0.05640246 -0.1154443 -0.07566753 -0.00025993696
0.06514273 -0.05313457 -0.09201406 -0.024374811 -0.086450875 -0.0396827 0.03364854 -0.07972388
0.006389997 0.032681435 0.030822981 0.25703543 -0.053632714 -0.034160838 -0.12151428 -0.07341832
-0.06652104 0.05900423 0.0853651 -0.071959406 -0.054663796 -0.09105976 0.08343971 -0.089110866
0.049806572 -0.0041193515 -0.15029171 0.24337807 -0.13171948 0.08718596 0.033067934 0.057937153
0.03060998 0.06740169 0.045827918 0.14743632 -0.15472052 0.21609505 -0.1253664 -0.016467694
0.031088166 0.08877686 0.22022891 0.046604577 -0.14501657 -0.029536895 0.10612393 0.06833444
0.031079497 0.06468032 -0.05246442 -0.09680754 -0.1242266 -0.05269365 0.007590223 0.10456015
-0.058138505 -0.119866334 0.024878863 0.04976692 0.2465076 -0.0013480869 0.19646749 -0.028008554
0.06718201 -0.08151241 0.023773994 0.087568834 0.2036681 0.06619645 -0.000113457434 -0.08396724
-0.09092313 0.085049674 -0.1628875 -0.046556752 0.034156032 0.07517401 -0.09584418 0.05917632
0.09084127 0.07575825 -0.17783561 -0.067660585 0.04416081 -0.038792532 -0.0049452656 -0.04856813
0.11678884 -0.007883401 -0.05773861 -0.18983375 -0.0992345 -0.13187169 -0.014050315 0.045349155
0.06767682 -0.008755852 -0.04360645 -0.04914205 0.0754682 -0.070139915 -0.022795508 -0.034629893
0.09450221 0.013619402 -0.06127049 -0.05078364 -0.014715896 0.012169813 0.09183548 -0.018688655
0.07792676 0.079817005 -0.008029586 -0.06495379 -0.0064246734 0.057292648 0.07041216 -0.014269824
0.0456342 -0.13115562 0.12471742 -0.12094432 0.078922436 -0.04401049 0.051768042 -0.036187347
-0.036247585 -0.12858638 0.17084801 0.05182326 -0.17101106 -0.12130491 -0.019032212 0.08941045
0.09420004 0.033246644 -0.17316458 0.1584119 -0.07452175 0.10683956 -0.04633369 0.021855544
-0.021833153 -0.17782271 0.00782441 -0.042782016 0.0070932414 -0.069463186 -0.050276164 0.09937483
-0.002378082 -0.14313526 0.013786565 -0.040451545 -0.2376251 -0.09802945 0.030280545 0.01457484
0.017077236 -0.16567904 0.000112870875 0.06679877 0.16124563 -0.015355608 0.0143351825 0.008703257
-0.016571354 -0.103932336 -0.010168313 -0.040400352 -0.026845051 -0.065957606 -0.043400418 0.016131805
-0.064645715 0.1430292 -0.07113448 -0.000445384 -0.09049849 -0.12951176 -0.01110594 -0.11967779
-0.001457889 0.040929046 0.022770338 0.08388387 0.035760865 -0.08965723 0.054239057 0.14153585
-0.12148073 -0.010861686 0.060626935 -0.06427752 0.034808613 0.036713418 0.057721652 -0.15336189
-0.030011628 -0.04171328 -0.022288986 -0.03217576 0.14495362 -0.08967087 -0.13368106 -0.19822082
-0.07934467 0.06144932 -0.033677597 0.048131138 0.083240025 0.1410506 0.13344064 0.016338404
0.01264008 0.120230556 0.08526182 -0.1596696 0.0652849 0.03563489 0.10251682 0.06619716
-0.05139219 -0.025144262 -0.0947249 0.076822996 0.21461847 -0.059910037 0.07894663 -0.028394366
-0.04983118 -0.07840554 0.093289584 0.037623104 0.019993251 -0.019868027 0.02929788 -0.08363015
-0.00063303474 -0.1689245 0.06265703 -0.004927594 -0.02809788 -0.19656889 0.00083690236 -0.18643913

action_model._continuous_distribution.log_sigma f4 [1, 48]
00000000: 0000 0000 0000 0000 0000 0000 0000 0000
00000010: 0000 0000 0000 0000 0000 0000 0000 0000
00000020: 0000 0000 0000 0000 0000 0000 0000 0000
00000030: 0000 0000 0000 0000 0000 0000 0000 0000
00000040: 0000 0000 0000 0000 0000 0000 0000 0000
00000050: 0000 0000 0000 0000 0000 0000 0000 0000
00000060: 0000 0000 0000 0000 0000 0000 0000 0000
00000070: 0000 0000 0000 0000 0000 0000 0000 0000
00000080: 0000 0000 0000 0000 0000 0000 0000 0000
00000090: 0000 0000 0000 0000 0000 0000 0000 0000
000000a0: 0000 0000 0000 0000 0000 0000 0000 0000
000000b0: 0000 0000 0000 0000 0000 0000 0000 0000
0.0 0.0 0.0 0.0 0.0 0.0 0.0 0.0
0.0 0.0 0.0 0.0 0.0 0.0 0.0 0.0
0.0 0.0 0.0 0.0 0.0 0.0 0.0 0.0
0.0 0.0 0.0 0.0 0.0 0.0 0.0 0.0
0.0 0.0 0.0 0.0 0.0 0.0 0.0 0.0
0.0 0.0 0.0 0.0 0.0 0.0 0.0 0.0

action_model._continuous_distribution.mu.weight f4 [48, 128]
00000000: 4932 98bc 4b2c 6dbc 2957 493c 155b 48bc
00000010: 0260 d5bc 1b18 3a3b cd43 a73c 4702 233c
00000020: 5e81 bf3c 0fed 4ebc 2a88 553c bbe8 7bbc
00000030: 3df7 b63a a72a a73c 0318 173c 4380 d5bc
00000040: e8d7 95bb 903c 813b f727 9d3a ba8f 51bb
00000050: 3261 eabc a4f4 b73c 3e19 c3ba b604 0fbc
00000060: 5093 ea3a 87c9 cd3c e22e eebb 1a3b 34bd
00000070: 1382 22bc 33f3 9f3b 7f31 78bc a757 6b3c
00000080: e18c 1dbc a252 e83a 286e a13c 6cb5 0d3d
00000090: 3d9f fe3c dad1 1b3c 14a3 4c3c b5d8 86bb
000000a0: d8bc e0bb 48e6 afbc bdcd b3bc 03ee f8bc
000000b0: d38d d8bb bfd9 5cbc 1fa0 123b 8701 8d3c
000000c0: e07b d1bc 3917 17bb 4746 593c fb11 ca3c
000000d0: e0a0 b6bc bbfa 14ba e401 82bb 4159 813b
000000e0: f314 2cbc c7b0 18bd c35a 6aba d3de b33b
000000f0: 9bee 8ebb bfac e5bc d3d8 ed3c 8d02 f83b
00000100: e8a7 20bb a33e 413c edff 003c 4f76 393b
00000110: d077 6f3c db9d c4bb cfd5 67bc 7336 c3bb
00000120: bf36 063b 1be7 0fbb 2d06 753c ca86 743c
00000130: c547 d3ba b768 5ebc f740 ff3b e5b7 0f3c
00000140: 2a79 09bd df6a dfbc 23aa 333c 423a d0bc
00000150: 1efb 2abc 2cc9 853c 3b48 623c 9fe0 ffbc
00000160: fa10 90bc 096b 3abd 1388 143c 25a8 693c
00000170: 78fc a3bb df50 993c db2a 093c 4ac0 0d3c
00000180: 04ab 893c 52c4 7bbc 0677 a83c b95f 01bc
00000190: 32fb c5ba f11c c6bc f5d5 973c 0084 0c3c
000001a0: dd8f d73b ee2c bd3a 587d f03b d8bd acbb
000001b0: 2d43 52bb 5727 1f39 4a88 49bc 1df1 263c
000001c0: 8f61 ee3c 1806 24bd 6bba c0bc f5d8 4d3c
000001d0: f673 113c 3ffb 98bc fbfe 953c dc69 2abc
000001e0: 2205 16bd c924 13bc 0a4f 60bb 0701 e0bc
000001f0: f093 a33c be42 cabc abad e83b 9f0d 223c
00000200: d26f cdbc 84ff b23c 10c2 23bc e8d9 1e3b
00000210: 5328 a2bc 3745 9a3c 3641 48bd c861 593c
00000220: 7fda 2ebc 9e4c 123d 6279 ffba c897 933a
00000230: df98 0ebd 8341 2abc 1b7a 0ebc b251 663c
00000240: 67b0 8cbb 973e e53c de07 b1bb b212 f63b
00000250: 48c6 2c3c 6fd4 afbb b97b 15bb da8e f33b
00000260: aa2b 4abd 093c bcba d7fc a6bc 8ffb 35bc
00000270: f8af 87bc 75fc 2ebc 4d32 f53c 6f76 263c
00000280: 0b87 dc3c d791 253c c526 793d c5a6 0b3b
00000290: 2115 a73a 970e da3c ade0 123d f556 6ebc
000002a0: 4773 c13c fe39 bb3b b252 1cbc d45f 063d
000002b0: 5808 f63a 5683 173b 0bf7 8d3c ed0d fc3b
000002c0: 8f48 393c 43bf e6bc 932e e43c cfa2 ad3b
000002d0: 6dfc be3b c95e 223c 8eae b43c c74d 69bc
000002e0: 94a1 1b3c 2b47 ae3b 05c7 89bb 271a 0b3c
000002f0: 25d7 09bc a757 aabc 0ff4 0e3d 58d6 983b
00000300: c1df ac3a af3f 5fbc 436d c039 b008 ffb8
00000310: ac09 323c 2b42 da3b 863d 06bc 8d90 d2ba
00000320: 8135 b93a 9f96 97bc c193 02bd fb2f 0dbc
00000330: c488 a0bb 4442 253c 883d 093c 72e1 8cbc
00000340: b89e b53b f731 d13b 9774 ab3c e16c 9fbc
00000350: 2960 8c3c 14df 81bb 9dd9 e2bc fb69 b93c
00000360: 7ad8 62bc 535c 063c f54c 27bc 921e 083c
00000370: 8b20 7f3c 5fad 093c a91b cbbc 65f6 20bc
00000380: a525 ab3c 1fe1 433c c28b a4bc e06b eb3b
00000390: 13f7 20bd 81db 163d d9d7 893b e794 af3c
000003a0: 2c60 3d38 e2ff 343b adaf 323d 235f ef39
000003b0: 3790 273c 671c 8a3b 0191 86bb 06f6 28bc
000003c0: c6d7 21bc e670 003d 2386 c8b9 2a98 99bc
000003d0: ea3d 19bc 177a c4bb 5d54 a3bc 65b6 d4bb
000003e0: f70f d13c df43 61bb 159c d63b 0bb4 083d
000003f0: 1f97 8fbb 5065 4fbc 5c98 b3bb 9ce6 20bc
-0.018578665 -0.014475892 0.012288847 -0.012228747 -0.026046757 0.0028395716 0.020418072 0.009949273
0.023377117 -0.012629761 0.013032952 -0.0153753115 0.0013959181 0.02040608 0.009222033 -0.026062137
-0.004572857 0.003943987 0.001199006 -0.0031976537 -0.0286108 0.02245552 -0.0014884842 -0.0087291505
0.0017896686 0.02512051 -0.0072687725 -0.044001676 -0.009918707 0.0048812865 -0.01514852 0.01436416
-0.009616108 0.0017724822 0.019705847 0.034596846 0.03108179 0.009510482 0.012490053 -0.004115189
-0.0068584494 -0.021472111 -0.02194869 -0.03038693 -0.0066087036 -0.013479649 0.0022373272 0.017212642
-0.025571764 -0.0023054613 0.013261384 0.024666777 -0.022293508 -0.00056831137 -0.0039675105 0.0039474075
-0.010503042 -0.037277963 -0.0008939916 0.005489209 -0.00436194 -0.028036473 0.029034054 0.0075686635
-0.0024514142 0.011794719 0.007873517 0.0028299277 0.014615968 -0.006000263 -0.014150097 -0.0059574186
0.0020479409 -0.0021957818 0.014955086 0.014924714 -0.0016119411 -0.013574771 0.007789727 0.008771871
-0.033562817 -0.02727264 0.010965857 -0.025418404 -0.010435848 0.016331278 0.013811166 -0.031235037
-0.01758622 -0.045512233 0.009065646 0.01426128 -0.005004462 0.01871532 0.008372034 0.008651802
0.01680518 -0.015366631 0.020564567 -0.007896357 -0.0015104769 -0.024183722 0.01853464 0.008576393
0.006578429 0.0014432946 0.007339161 -0.0052716546 -0.0032083497 0.00015178077 -0.01230056 0.010189322
0.029099254 -0.040044874 -0.023526391 0.012563934 0.008877745 -0.018674491 0.01831006 -0.010401215
-0.03662599 -0.008980938 -0.0034226798 -0.02734424 0.019968003 -0.024690028 0.007100781 0.009890943
-0.025077734 0.021850355 -0.009994999 0.002423877 -0.019794619 0.018831832 -0.048890315 0.013267942
-0.010672211 0.0357176 -0.0019491131 0.0011260444 -0.034813758 -0.010391596 -0.008696104 0.014057564
-0.0042934897 0.027983947 -0.005402549 0.007509553 0.010545321 -0.0053659 -0.002280934 0.0074328007
-0.049358048 -0.0014361154 -0.020384235 -0.0111073395 -0.0165634 -0.010680308 0.029931212 0.010160073
0.026919862 0.010105572 0.06082799 0.002130912 0.0012747386 0.026618285 0.0358588 -0.014547099
0.023614539 0.0057137003 -0.0095412005 0.032806233 0.0018770797 0.0023119054 0.017329713 0.00769209
0.011308803 -0.028167373 0.02785424 0.0052989493 0.0058284313 0.009910294 0.02205589 -0.014239735
0.009498972 0.0053185425 -0.004204633 0.008490122 -0.008413111 -0.020793749 0.03490072 0.0046642236
0.0013189242 -0.013626023 0.000367025 -0.00012160966 0.010866564 0.00666072 -0.008193379 -0.0016064808
0.0014130325 -0.018504439 -0.03187919 -0.0086173965 -0.0048991162 0.0100866 0.008376487 -0.017197344
0.0055426024 0.00638413 0.020929618 -0.019461097 0.017135696 -0.0039633606 -0.027691657 0.022633543
-0.013845557 0.008200723 -0.010211219 0.00830807 0.015571724 0.008403151 -0.024793463 -0.00982437
0.020891974 0.0119555285 -0.020086173 0.0071844906 -0.03929813 0.03683043 0.0042066392 0.021433307
4.515068e-05 0.0027618338 0.04362457 0.00045656515 0.010227255 0.0042148116 -0.0041066413 -0.010312563
-0.009878105 0.03135767 -0.00038246912 -0.018749315 -0.00935314 -0.0059959996 -0.019937688 -0.0064914697
0.025520308 -0.003437273 0.006549368 0.033374827 -0.0043820287 -0.012658432 -0.005480809 -0.009820607

action_model._continuous_distribution.mu.bias f4 [48]
00000000: 0000 0000 0000 0000 0000 0000 0000 0000
00000010: 0000 0000 0000 0000 0000 0000 0000 0000
00000020: 0000 0000 0000 0000 0000 0000 0000 0000
00000030: 0000 0000 0000 0000 0000 0000 0000 0000
00000040: 0000 0000 0000 0000 0000 0000 0000 0000
00000050: 0000 0000 0000 0000 0000 0000 0000 0000
00000060: 0000 0000 0000 0000 0000 0000 0000 0000
00000070: 0000 0000 0000 0000 0000 0000 0000 0000
00000080: 0000 0000 0000 0000 0000 0000 0000 0000
00000090: 0000 0000 0000 0000 0000 0000 0000 0000
000000a0: 0000 0000 0000 0000 0000 0000 0000 0000
000000b0: 0000 0000 0000 0000 0000 0000 0000 0000
0.0 0.0 0.0 0.0 0.0 0.0 0.0 0.0
0.0 0.0 0.0 0.0 0.0 0.0 0.0 0.0
0.0 0.0 0.0 0.0 0.0 0.0 0.0 0.0
0.0 0.0 0.0 0.0 0.0 0.0 0.0 0.0
0.0 0.0 0.0 0.0 0.0 0.0 0.0 0.0
0.0 0.0 0.0 0.0 0.0 0.0 0.0 0.0

action_model._discrete_distribution.branches.0.weight f4 [1, 128]
00000000: 7f2f 8d3c 0248 5c3a 0571 6a3c 8fc4 533c
00000010: 51c7 0f3c 97b5 353c e913 b0bc 2b01 e4b9
00000020: edc1 32bc 089f 59bc 933d 193c 05c2 39bb
00000030: 6070 a83b d6e2 b2bb db48 86bc 5a9c 203c
00000040: 0a56 a3bc 90bc 0c3c 619a 11bc 226d ee3a
00000050: 1acc eb3b eced 80bb 43ab 0e3b 8f9c d2ba
00000060: f345 e4ba c63e 903b adbe 303c 8280 64bc
00000070: 2736 91bc 6537 ebbb c194 84b8 2734 61ba
00000080: 2647 223c b8f1 74bb 521c 163c 2bf4 50bc
00000090: 0214 91bc 4bae 1a3c 77fb 063c db7e b1bb
000000a0: c516 153c d7c6 8cbc 305e 183c 6f7a 6c3b
000000b0: 2a9f 1d3c b432 3cbc 6e7b 8a3c e34c 0e3c
000000c0: ff73 543b 29eb 203c 0003 cbbb 437e 223c
000000d0: b72b c4bb 9855 d1bb 932f 843c a367 7cbc
000000e0: 74e2 093c 61da 89bb fc39 8f3c 9b4c 193b
000000f0: f5b3 59bb 0b3a c53b bb32 0a3c cd21 833c
00000100: 2fb3 243c df94 ba3b ac19 0fbb 7f22 a03b
00000110: a7d4 733c a208 88bb 1f5f 71bb e48a a9b8
00000120: 6cbf 8c3c af4f e43b 6d10 d73b 6a1d ceb9
00000130: 2bdc bfbc aada d03b 98ef b53b 5539 913a
00000140: 9914 0cbc db5e 193b ef70 c0bb 268c 05bc
00000150: c00a 423c af79 82bb c5bb 513c 0075 06bb
00000160: ad24 5bbc 0578 243c 6cb8 393b 2228 b13b
00000170: 3335 58bc 1245 7e3b 3ca0 91bb bf4b 34bb
00000180: b0f4 703c f113 043c 00aa a53a b0ef 243b
00000190: 3c86 c5bc cb7e 88bb 3550 d5bb 3da7 5a3a
000001a0: 227d 113c fdc3 78bb 536d a43b f379 23bb
000001b0: 6fb2 f0b9 16ed a43b 0f1b 983c 96fe 29bb
000001c0: affe 40bc 7886 163c 6b26 da3b 4fe6 49bb
000001d0: a1dc a13a 4081 693b fb80 893b 58df 4fbc
000001e0: 9dc8 1d3b 655c 87bb 273d b5bb 7ed2 b0ba
000001f0: 5372 88bb 16f5 933b c35a c2bc 03f1 5c3b
0.017234562 0.0008403064 0.0143091725 0.012925281 0.008775548 0.011090658 -0.021493869 -0.0004348842
-0.010910493 -0.013282545 0.009353059 -0.0028344404 0.0051403493 -0.00545917 -0.016392162 0.009802902
-0.019938488 0.008589879 -0.008886904 0.0018190483 0.0071959617 -0.0039346125 0.002176956 -0.0016068387
-0.0017415866 0.0044020144 0.010787648 -0.013946654 -0.017726017 -0.0071782344 -6.321958e-05 -0.000859084
0.009904658 -0.003737552 0.0091620255 -0.012753527 -0.017709736 0.009440969 0.008238665 -0.0054167337
0.009099667 -0.017184658 0.0092998 0.0036083718 0.009620467 -0.011486698 0.016904559 0.008685323
0.0032417772 0.009821692 -0.006195426 0.009917798 -0.0059866565 -0.0063883774 0.016135966 -0.015405568
0.008415807 -0.004206941 0.017483704 0.0023391608 -0.0033218835 0.006018882 0.008434947 0.016007328
0.010052486 0.0056940163 -0.002183537 0.0048869248 0.014882243 -0.0041514197 -0.0036830378 -8.0844184e-05
0.01718112 0.006967507 0.0065632374 -0.00039313297 -0.023420414 0.006373723 0.0055522434 0.0011079708
-0.008549833 0.0023402486 -0.0058728377 -0.00815109 0.011843383 -0.003981791 0.012801115 -0.0020516515
-0.013375443 0.0100383805 0.0028338684 0.0054063955 -0.013196277 0.0038798493 -0.0044441503 -0.0027510969
0.014706776 0.008061395 0.0012639165 0.002516728 -0.02411186 -0.0041655055 -0.0065098056 0.00083409605
0.008879932 -0.0037958615 0.0050179153 -0.0024944514 -0.0004590931 0.0050331457 0.01856759 -0.0025939099
-0.011779471 0.009187333 0.006657412 -0.003080744 0.0012349078 0.0035630018 0.004196284 -0.012687527
0.0024075874 -0.0041308873 -0.0055309716 -0.0013490466 -0.004164019 0.0045153005 -0.02372492 0.003371299
