results/baseball1/Baseball/Baseball-640.pt (torch, 993302 bytes, 13 tensors)

network_body._body_endoder.seq_layers.0.weight f4 [128, 805]
0.035935543 -0.0020609684 -0.027542215 0.008654793 0.025097974 -0.0028360896 0.02265815 -0.0131676905
0.00575414 0.015477894 -0.0307227 -0.050017487 0.014953936 -0.023268921 0.022758726 -0.021221071
0.04413973 0.04839108 -0.02373592 0.059821393 -0.00023673163 -0.04957877 0.019550622 -0.02350512
0.01594334 0.024281785 -0.08135173 0.0043773614 0.04006317 -0.025703195 0.038626395 -0.0025534963
-0.0627195 -0.029640846 0.016860075 -0.04968053 -0.06681019 -0.010770799 -0.020660557 0.010384928
0.027319321 -0.007880538 0.042828545 -0.011031243 0.0044693667 0.006331105 -0.05310094 -0.044884667
-0.028787984 -0.020439234 0.043412577 0.033723272 -0.0010551306 -0.0050268793 0.043015696 -0.020289194
0.014374005 0.02632679 -0.08790261 0.026052134 -0.030313814 0.049281325 -0.023384599 -0.00023986335
0.05268335 0.03790621 -0.0383671 -0.036059424 -0.0039167465 0.00785207 0.015781894 -0.023394682
-0.011976578 0.008444618 -0.019195136 -0.02926426 0.0027805227 0.05612501 -0.056239307 -0.031240718
-0.0021158922 -0.005094786 0.008729667 -0.013985671 0.048208755 0.038427785 0.03810754 0.015981022
0.07689338 -0.011306395 0.039008375 0.005109733 0.004184887 0.042615164 -0.050218318 -0.005224842
-0.007832517 0.050988406 0.026437143 -0.017286932 0.006466842 -0.04566657 -0.019916091 0.0095732575
-0.08089935 0.0016993884 -0.042643517 0.044107296 0.031625208 -0.02211716 0.04023618 0.10817257
-0.03697389 0.03220946 0.0022038196 -0.01920613 -0.008635476 -0.052772135 0.08221162 -0.00043149682
-0.0350477 0.015986359 0.008130697 -0.009806927 0.007176153 0.08938884 0.005921574 -0.00079331896
-0.026212266 -0.012531743 -0.0063208644 0.008271064 -0.0029552781 0.0029807615 0.05619767 -0.02880093
-0.005538823 0.053157397 0.01826224 -0.005077079 -0.02259434 -0.028936585 -0.033838797 -0.06285942
-0.024704894 -0.0063381335 0.030773701 -0.024626777 0.029986203 0.0104381135 0.040709637 -0.008395959
0.05405117 -0.025641726 -0.019434873 -0.021016033 -0.04184596 -0.038514838 -0.058126062 -0.011669304
-0.029182006 -0.020743491 -0.02288442 0.0023865388 0.011160729 -0.057456512 -0.0302211 0.01982179
-0.031339798 0.046606023 0.069766484 -0.04172043 0.062019534 0.0041691465 0.032117955 -0.009397727
0.020612877 0.021491043 0.0023727163 -0.025968231 -0.03496973 0.012420308 0.024039436 0.0010100073
-0.013399283 0.032884575 -0.030375402 -0.03306434 0.04786848 -0.09259834 -0.0036456273 -0.005074403
0.025015993 0.0557658 0.025200995 0.017262975 -0.026402194 -0.028231539 0.0556624 0.008988268
-0.017440375 0.044190913 -0.044694692 -0.020994052 0.036957227 -0.0004630296 -0.023295902 -0.068321615
0.03752938 -0.036043745 -0.048581596 -0.031903237 0.037621755 0.035227217 0.057285935 -0.013029328
0.06083129 -0.008948883 0.0014910438 0.021692503 -0.0057681543 -0.03067842 -0.0035565344 0.014511418
-0.024916288 -0.051106054 -0.03406659 0.0069005787 0.010437568 0.075166054 0.08126699 -0.027412528
-0.026107399 -0.014701449 0.020896357 0.02967124 0.011344463 -0.00093670556 0.0025263238 0.06071707
0.024231726 -0.016839953 0.021791771 -0.055183806 -0.048938878 0.029196039 0.0320962 0.055792
0.040257346 0.008105778 -0.046171993 -0.011984692 0.014952775 -0.0031768698 -0.008622633 -0.010934612
00000000: 2631 133d 5011 07bb 36a0 e1bc d5cc 0d3c
00000010: 449a cd3c b0dd 39bb 969d b93c 4cbd 57bc
00000020: 3a8d bc3b fe96 7d3c 2cae fbbc 23df 4cbd
00000030: 5b01 753c 779e bebc 8270 ba3c d0d7 adbc
00000040: ddcb 343d ba35 463d d571 c2bc 4707 753d
00000050: 2a3b 78b9 1c13 4bbd a028 a03c cf8d c0bc
00000060: 9b9b 823c 98ea c63c bc9b a6bd f86f 8f3b
00000070: 4719 243d 828f d2bc b636 1e3d 8f58 27bb
00000080: 1573 80bd 5cd1 f2bc 241e 8a3c d07d 4bbd
00000090: c8d3 88bd 0178 30bc 5440 a9bc 8c25 2a3c
000000a0: c5cc df3c 5f1d 01bc fc6c 2f3d 63bc 34bc
000000b0: c473 923b 2875 cf3b 5f80 59bd fcd8 37bd
000000c0: c7d4 ebbc 2e70 a7bc 63d1 313d 6a21 0a3d
000000d0: 4f4c 8aba 85b8 a4bb 3a31 303d 8635 a6bc
000000e0: f280 6b3c 48ab d73c 4906 b4bd 496b d53c
000000f0: ad54 f8bc 37db 493d 0f91 bfbc d483 7bb9
00000100: 7fca 573d 8b43 1b3d d226 1dbd 0cb3 13bd
00000110: 0d58 80bb f8a5 003c 0849 813c 34a6 bfbc
00000120: 6939 44bc 4c5b 0a3c 1e3f 9dbc 9abb efbc
00000130: 6e39 363b 57e3 653d 305b 66bd 89ec ffbc
00000140: c8aa 0abb 2af2 a6bb e106 0f3c 2824 65bc
00000150: 8b76 453d 7466 1d3d a716 1c3d a2ea 823c
00000160: 477a 9d3d 753e 39bc 3fc7 1f3d 8c6f a73b
00000170: 6021 893b 3d8d 2e3d b9b1 4dbd 2735 abbb
00000180: f553 00bc 38d9 503d b592 d83c 539d 8dbc
00000190: cde7 d33b df0c 3bbd 1227 a3bc 27d9 1c3c
000001a0: 8fae a5bd 03be de3a f8aa 2ebd daa9 343d
000001b0: 6f89 013d 0c2f b5bc b1ce 243d 9589 dd3d
000001c0: ef71 17bd 11ee 033d f56d 103b 2d56 9dbc
000001d0: d07b 0dbc 9827 58bd 915e a83d 863a e2b9
000001e0: 2d8e 0fbd d3f5 823c 9d36 053c 3cad 20bc
000001f0: ef25 eb3b 7f11 b73d c309 c23b bcf6 4fba
00000200: 1bbb d6bc f151 4dbc 411f cfbb 5b83 073c
00000210: 57ad 41bb e158 433b 872f 663d eeef ebbc
00000220: 047f b5bb 92bb 593d b19a 953c a05d a6bb
00000230: c417 b9bc 6b0c edbc 8d9a 0abd 71bc 80bd
00000240: eb61 cabc 1eb0 cfbb 2119 fc3c 18be c9bc
00000250: a0a5 f53c 9f04 2b3c 26bf 263d 348f 09bc
00000260: c264 5d3d 990e d2bc e235 9fbc d129 acbc
00000270: ab66 2bbd bcc1 1dbd 9815 6ebd 9c30 3fbc
00000280: 1a0f efbc 41ee a9bc 1b78 bbbc 7a67 1c3b
00000290: 7edb 363c 8557 6bbd 3e92 f7bc 4e61 a23c
000002a0: 295e 00bd f5e5 3e3d bbe1 8e3d 0be3 2abd
000002b0: 3208 7e3d 569d 883b 1e8e 033d edf8 19bc
000002c0: 56dc a83c fc0d b03c 937f 1b3b 54bb d4bc
000002d0: 6b3c 0fbd 8c7e 4b3c 5aee c43c 3962 843a
000002e0: ab88 5bbc fab1 063d d6d5 f8bc 796e 07bd
000002f0: bd11 443d 33a4 bdbd 7aeb 6ebb 2d47 a6bb
00000300: 57ee cc3c ae6a 643d 5172 ce3c 156b 8d3c
00000310: 6a49 d8bc d445 e7bc 42fe 633d 8743 133c
00000320: 1edf 8ebc 8801 353d c811 37bd b8fb abbc
00000330: 7660 173d c8c2 f2b9 0cd7 bebc 34ec 8bbd
00000340: 68b8 193d 9ba2 13bd 7ffd 46bd f8ac 02bd
00000350: 4519 1a3d 6a4a 103d a8a4 6a3d f678 55bc
00000360: 3b2a 793d 569e 12bc 216f c33a 7ab4 b13c
00000370: c902 bdbb 4f51 fbbc bf14 69bb 4cc1 6d3c
00000380: 3e1d ccbc 9554 51bd 6989 0bbd 401e e23b
00000390: 5502 2b3c a9f0 993d 4f6f a63d 3d90 e0bc
000003a0: 2fdf d5bc 59de 70bc d62e ab3c 1a11 f33c
000003b0: 20de 393c 3f8d 75ba ae90 253b 76b2 783d
000003c0: 9d81 c63c f1f3 89bc a884 b23c 6a08 62bd
000003d0: 2274 48bd 882c ef3c 4e77 033d 2786 643d
000003e0: e3e4 243d 19ce 043c d81e 3dbd 715b 44bc
000003f0: 7cfc 743c 0833 50bb f245 0dbc 1627 33bc

network_body._body_endoder.seq_layers.0.bias f4 [128]
0.0 0.0 0.0 0.0 0.0 0.0 0.0 0.0
0.0 0.0 0.0 0.0 0.0 0.0 0.0 0.0
0.0 0.0 0.0 0.0 0.0 0.0 0.0 0.0
0.0 0.0 0.0 0.0 0.0 0.0 0.0 0.0
0.0 0.0 0.0 0.0 0.0 0.0 0.0 0.0
0.0 0.0 0.0 0.0 0.0 0.0 0.0 0.0
0.0 0.0 0.0 0.0 0.0 0.0 0.0 0.0
0.0 0.0 0.0 0.0 0.0 0.0 0.0 0.0
0.0 0.0 0.0 0.0 0.0 0.0 0.0 0.0
0.0 0.0 0.0 0.0 0.0 0.0 0.0 0.0
0.0 0.0 0.0 0.0 0.0 0.0 0.0 0.0
0.0 0.0 0.0 0.0 0.0 0.0 0.0 0.0
0.0 0.0 0.0 0.0 0.0 0.0 0.0 0.0
0.0 0.0 0.0 0.0 0.0 0.0 0.0 0.0
0.0 0.0 0.0 0.0 0.0 0.0 0.0 0.0
0.0 0.0 0.0 0.0 0.0 0.0 0.0 0.0
00000000: 0000 0000 0000 0000 0000 0000 0000 0000
00000010: 0000 0000 0000 0000 0000 0000 0000 0000
00000020: 0000 0000 0000 0000 0000 0000 0000 0000
00000030: 0000 0000 0000 0000 0000 0000 0000 0000
00000040: 0000 0000 0000 0000 0000 0000 0000 0000
00000050: 0000 0000 0000 0000 0000 0000 0000 0000
00000060: 0000 0000 0000 0000 0000 0000 0000 0000
00000070: 0000 0000 0000 0000 0000 0000 0000 0000
00000080: 0000 0000 0000 0000 0000 0000 0000 0000
00000090: 0000 0000 0000 0000 0000 0000 0000 0000
000000a0: 0000 0000 0000 0000 0000 0000 0000 0000
000000b0: 0000 0000 0000 0000 0000 0000 0000 0000
000000c0: 0000 0000 0000 0000 0000 0000 0000 0000
000000d0: 0000 0000 0000 0000 0000 0000 0000 0000
000000e0: 0000 0000 0000 0000 0000 0000 0000 0000
000000f0: 0000 0000 0000 0000 0000 0000 0000 0000
00000100: 0000 0000 0000 0000 0000 0000 0000 0000
00000110: 0000 0000 0000 0000 0000 0000 0000 0000
00000120: 0000 0000 0000 0000 0000 0000 0000 0000
00000130: 0000 0000 0000 0000 0000 0000 0000 0000
00000140: 0000 0000 0000 0000 0000 0000 0000 0000
00000150: 0000 0000 0000 0000 0000 0000 0000 0000
00000160: 0000 0000 0000 0000 0000 0000 0000 0000
00000170: 0000 0000 0000 0000 0000 0000 0000 0000
00000180: 0000 0000 0000 0000 0000 0000 0000 0000
00000190: 0000 0000 0000 0000 0000 0000 0000 0000
000001a0: 0000 0000 0000 0000 0000 0000 0000 0000
000001b0: 0000 0000 0000 0000 0000 0000 0000 0000
000001c0: 0000 0000 0000 0000 0000 0000 0000 0000
000001d0: 0000 0000 0000 0000 0000 0000 0000 0000
000001e0: 0000 0000 0000 0000 0000 0000 0000 0000
000001f0: 0000 0000 0000 0000 0000 0000 0000 0000

network_body._body_endoder.seq_layers.2.weight f4 [128, 128]
-0.050592255 -0.06559328 0.042689368 0.18651603 0.028076246 -0.14217736 0.056335382 0.10124736
-0.13139845 -0.047117967 0.026739188 -0.032206874 0.11220175 0.08693338 0.078607656 -0.08215363
0.0997461 0.07867351 -0.08953226 0.17267634 -0.064609446 -0.04100431 0.016849682 0.07363812
0.04202405 0.078605905 0.028354771 -0.13963094 0.16734886 -0.02177498 0.014127827 0.032349043
-0.004921915 -0.088010415 -0.068932824 -0.15283845 -0.12536068 0.089762345 -0.19093601 -0.006364254
0.121543 0.022429477 -0.07432546 0.044594117 0.052705072 0.058254167 0.042586602 0.007698798
0.08861515 -0.12807317 0.17592198 0.031628687 0.039527394 -0.12741116 0.013586317 0.1667966
-0.018659873 -0.043677993 -0.0017695006 0.17532639 -0.000959896 -0.04412921 0.0872589 -0.09453147
0.09700596 -0.09676387 -0.010367678 -0.14654148 0.12660691 -0.010847669 0.053731836 0.047137525
0.034410827 0.065434664 -0.036107983 -0.07354016 0.17217875 -0.008239605 0.0012651798 -0.04310841
0.041227624 -0.0053706085 0.052003242 -0.1362872 0.094376035 -0.026123857 -0.031823173 -0.065819025
-0.083765574 -0.0021012994 -0.022053462 -0.11439165 -0.18290235 0.23130643 0.10681226 0.11575925
-0.04864159 -0.20250186 0.018078981 0.08468936 0.12537165 -0.073663734 -0.07708913 0.015219311
0.016169325 0.017761936 -0.004484386 0.03824471 -0.052884627 0.09195476 -0.066119276 0.00038190812
-0.038271446 0.09947626 -0.012319842 0.053061463 0.0095434645 0.15409641 -0.0437279 -0.032789055
0.042108733 0.05360931 0.18459196 0.09011843 -0.05082204 -0.061163273 0.09075155 0.02336021
0.1402352 0.07226749 0.030843895 -0.1678609 -0.07265478 -0.22868933 0.18363652 -0.029429747
-0.05529337 0.103871346 0.029412398 -0.035482984 -0.11160102 -0.011947283 -0.09840323 -0.21441346
0.08912754 0.1048607 0.12205351 0.009007907 0.09508049 -0.10379024 0.04013207 0.023150977
-0.04296712 -0.12693928 -0.117307805 0.11234649 0.04792567 0.0036215624 0.0512919 0.028038459
-0.0876063 0.034755014 -0.085150786 -0.15852772 0.13591038 -0.14612585 0.13371286 -0.20771971
-0.1544512 -0.051302787 0.03578428 0.0039889365 -0.06647712 -0.0672878 0.069135875 -0.018996349
0.052661132 -0.08948831 0.082305826 -0.121888585 0.07490756 -0.07329735 -0.027543692 0.0229609
0.009326413 0.048118286 -0.038131777 0.0038142304 0.039261654 0.03492637 -0.013603882 0.11489479
-0.13039698 -0.00103617 -0.10753454 0.064744785 0.030004779 0.004405923 0.10095333 -0.1450427
-0.0071134698 0.15995875 -0.04689201 0.0055609164 0.16302381 -0.004039464 0.11205493 -0.02566485
0.0048480444 -0.10540043 0.20450735 -0.017073877 0.014664662 0.008571431 0.0022092494 -0.022112424
-0.03430151 0.090537824 0.1202141 0.1088968 -0.03288857 -0.07197001 -0.036432784 0.11774816
-0.1260337 0.08004843 0.0010455059 -0.022564063 0.01316396 0.022133501 0.040171444 -0.0051125437
0.07724789 0.031538356 0.05883172 0.09418224 0.051128324 0.08200618 0.07124118 0.056099597
-0.0919624 -0.066164635 -0.10381398 0.0062256516 -0.026330475 0.08262055 -0.035446312 -0.067943476
-0.037694637 -0.16343954 0.05954234 -0.011045183 -0.13659884 0.056274273 1.6349937e-05 -0.07619423
00000000: d339 4fbd c555 86bd 0cdb 2e3d 0ffe 3e3e
00000010: 2800 e63c f196 11be eebf 663d c75a cf3d
00000020: 518d 06be c5fe 40bd 240c db3c 5beb 03bd
00000030: 08ca e53d 210a b23d 0dfd a03d 2a40 a8bd
00000040: af47 cc3d 941f a13d b15c b7bd 11d2 303e
00000050: f551 84bd 23f4 27bd 5808 8a3c 95cf 963d
00000060: 6921 2c3d 22fc a03d 4448 e83c 6afb 0ebe
00000070: 805d 2b3e 7161 b2bc 6778 673c 6e80 043d
00000080: 0448 a1bb ce3e b4bd a72c 8dbd af81 1cbe
00000090: 8d5e 00be 52d5 b73d bb84 43be 3b8b d0bb
000000a0: 89eb f83d 06be b73c f237 98bd 52a8 363d
000000b0: 46e1 573d ec9b 6e3d 4a6f 2e3d 3346 fc3b
000000c0: dc7b b53d 9d25 03be e424 343e 158d 013d
000000d0: 7ae7 213d 1278 02be 2599 5e3c bacc 2a3e
000000e0: 97dc 98bc b2e7 32bd 96ee e7ba c388 333e
000000f0: 88a1 7bba d5c0 34bd cbb4 b23d b799 c1bd
00000100: 10ab c63d 232c c6bd 31dd 29bc f80e 16be
00000110: 3ea5 013e 6cba 31bc ea15 5c3d 4713 413d
00000120: 5ef2 0c3d 9c02 863d f7e5 13bd 399c 96bd
00000130: a04f 303e 69ff 06bc 64d4 a53a 7292 30bd
00000140: 4cde 283d eefb afbb 5a01 553d df8e 0bbe
00000150: 3948 c13d b301 d6bc 0459 02bd 20cc 86bd
00000160: 498d abbd f4b5 09bb 76a9 b4bc 2b46 eabd
00000170: c14a 3bbe 98db 6c3e 63c0 da3d 3013 ed3d
00000180: 673c 47bd a65c 4fbe 5f1a 943c 9d71 ad3d
00000190: 6d61 003e 03dd 96bd e8e0 9dbd 6b5a 793c
000001a0: 8875 843c 7b81 913c c2f1 92bb 7ca6 1c3d
000001b0: 8d9d 58bd c752 bc3d 8b69 87bd d73a c839
000001c0: 85c2 1cbd 36ba cb3d 2ad9 49bc fa56 593d
000001d0: 315c 1c3c 73cb 1d3e 071c 33bd d14d 06bd
000001e0: 357a 2c3d 7095 5b3d ad05 3d3e 0390 b83d
000001f0: c52a 50bd 5786 7abd f3db b93d e95d bf3c
00000200: d199 0f3e fa00 943d 56ac fc3c bae3 2bbe
00000210: 07cc 94bd 892d 6abe 360b 3c3e a716 f1bc
00000220: 4d7b 62bd 80ba d43d 45f2 f03c 9b56 11bd
00000230: 138f e4bd 89be 43bc a287 c9bd 348f 5bbe
00000240: 8088 b63d 35c1 d63d 31f7 f93d e695 133c
00000250: 8fb9 c23d fa8f d4bd 8761 243d 1ea7 bd3c
00000260: 4afe 2fbd 5ffc 01be 133f f0bd eb15 e63d
00000270: b54d 443d bc57 6d3b 7517 523d e9b0 e53c
00000280: ef6a b3bd 465b 0e3d 8963 aebd 1755 22be
00000290: 172c 0b3e 04a2 15be 06ec 083e 7ab4 54be
000002a0: 7528 1ebe df22 52bd 8a92 123d a0b5 823b
000002b0: 2825 88bd 30ce 89bd 1c97 8d3d 3b9e 9bbc
000002c0: 33b3 573d a645 b7bd f58f a83d b9a0 f9bd
000002d0: 2369 993d ec1c 96bd 4fa3 e1bc 7f18 bc3c
000002e0: d0cd 183c ae17 453d 1130 1cbd 2bf8 793b
000002f0: d4d0 203d f40e 0f3d d1e2 5ebc f64d eb3d
00000300: c986 05be 19d0 87ba 123b dcbd ea98 843d
00000310: 95cc f53c 905f 903b 9fc0 ce3d 1386 14be
00000320: 1c18 e9bb 3acc 233e d611 40bd 5938 b63b
00000330: b7ef 263e 7b5d 84bb 0e7d e53d 173f d2bc
00000340: 58dc 9e3b 2edc d7bd 606a 513e 84de 8bbc
00000350: 0d44 703c 306f 0c3c 0ec9 103b 1d25 b5bc
00000360: bd7f 0cbd e56b b93d cf32 f63d 4905 df3d
00000370: 2ab6 06bd 0365 93bd 8b3a 15bd f325 f13d
00000380: fa0e 01be 6ef0 a33d 5b09 893a 45d8 b8bc
00000390: a6ad 573c 5151 b53c d08a 243d 2087 a7bb
000003a0: 2434 9e3d 5d2e 013d 88f9 703d 9ee2 c03d
000003b0: ef6b 513d dbf2 a73d e5e6 913d b1c8 653d
000003c0: c856 bcbd 5381 87bd 6d9c d4bd 8d00 cc3b
000003d0: 02b3 d7bc f734 a93d 2730 11bd f325 8bbd
000003e0: b165 1abd b25c 27be abe2 733d dbf6 34bc
000003f0: 91e0 0bbe da7f 663d 3927 8937 b80b 9cbd

network_body._body_endoder.seq_layers.2.bias f4 [128]
0.0 0.0 0.0 0.0 0.0 0.0 0.0 0.0
0.0 0.0 0.0 0.0 0.0 0.0 0.0 0.0
0.0 0.0 0.0 0.0 0.0 0.0 0.0 0.0
0.0 0.0 0.0 0.0 0.0 0.0 0.0 0.0
0.0 0.0 0.0 0.0 0.0 0.0 0.0 0.0
0.0 0.0 0.0 0.0 0.0 0.0 0.0 0.0
0.0 0.0 0.0 0.0 0.0 0.0 0.0 0.0
0.0 0.0 0.0 0.0 0.0 0.0 0.0 0.0
0.0 0.0 0.0 0.0 0.0 0.0 0.0 0.0
0.0 0.0 0.0 0.0 0.0 0.0 0.0 0.0
0.0 0.0 0.0 0.0 0.0 0.0 0.0 0.0
0.0 0.0 0.0 0.0 0.0 0.0 0.0 0.0
0.0 0.0 0.0 0.0 0.0 0.0 0.0 0.0
0.0 0.0 0.0 0.0 0.0 0.0 0.0 0.0
0.0 0.0 0.0 0.0 0.0 0.0 0.0 0.0
0.0 0.0 0.0 0.0 0.0 0.0 0.0 0.0
00000000: 0000 0000 0000 0000 0000 0000 0000 0000
00000010: 0000 0000 0000 0000 0000 0000 0000 0000
00000020: 0000 0000 0000 0000 0000 0000 0000 0000
00000030: 0000 0000 0000 0000 0000 0000 0000 0000
00000040: 0000 0000 0000 0000 0000 0000 0000 0000
00000050: 0000 0000 0000 0000 0000 0000 0000 0000
00000060: 0000 0000 0000 0000 0000 0000 0000 0000
00000070: 0000 0000 0000 0000 0000 0000 0000 0000
00000080: 0000 0000 0000 0000 0000 0000 0000 0000
00000090: 0000 0000 0000 0000 0000 0000 0000 0000
000000a0: 0000 0000 0000 0000 0000 0000 0000 0000
000000b0: 0000 0000 0000 0000 0000 0000 0000 0000
000000c0: 0000 0000 0000 0000 0000 0000 0000 0000
000000d0: 0000 0000 0000 0000 0000 0000 0000 0000
000000e0: 0000 0000 0000 0000 0000 0000 0000 0000
000000f0: 0000 0000 0000 0000 0000 0000 0000 0000
00000100: 0000 0000 0000 0000 0000 0000 0000 0000
00000110: 0000 0000 0000 0000 0000 0000 0000 0000
00000120: 0000 0000 0000 0000 0000 0000 0000 0000
00000130: 0000 0000 0000 0000 0000 0000 0000 0000
00000140: 0000 0000 0000 0000 0000 0000 0000 0000
00000150: 0000 0000 0000 0000 0000 0000 0000 0000
00000160: 0000 0000 0000 0000 0000 0000 0000 0000
00000170: 0000 0000 0000 0000 0000 0000 0000 0000
00000180: 0000 0000 0000 0000 0000 0000 0000 0000
00000190: 0000 0000 0000 0000 0000 0000 0000 0000
000001a0: 0000 0000 0000 0000 0000 0000 0000 0000
000001b0: 0000 0000 0000 0000 0000 0000 0000 0000
000001c0: 0000 0000 0000 0000 0000 0000 0000 0000
000001d0: 0000 0000 0000 0000 0000 0000 0000 0000
000001e0: 0000 0000 0000 0000 0000 0000 0000 0000
000001f0: 0000 0000 0000 0000 0000 0000 0000 0000

action_model._continuous_distribution.log_sigma f4 [1, 48]
0.0 0.0 0.0 0.0 0.0 0.0 0.0 0.0
0.0 0.0 0.0 0.0 0.0 0.0 0.0 0.0
0.0 0.0 0.0 0.0 0.0 0.0 0.0 0.0
0.0 0.0 0.0 0.0 0.0 0.0 0.0 0.0
0.0 0.0 0.0 0.0 0.0 0.0 0.0 0.0
0.0 0.0 0.0 0.0 0.0 0.0 0.0 0.0
00000000: 0000 0000 0000 0000 0000 0000 0000 0000
00000010: 0000 0000 0000 0000 0000 0000 0000 0000
00000020: 0000 0000 0000 0000 0000 0000 0000 0000
00000030: 0000 0000 0000 0000 0000 0000 0000 0000
00000040: 0000 0000 0000 0000 0000 0000 0000 0000
00000050: 0000 0000 0000 0000 0000 0000 0000 0000
00000060: 0000 0000 0000 0000 0000 0000 0000 0000
00000070: 0000 0000 0000 0000 0000 0000 0000 0000
00000080: 0000 0000 0000 0000 0000 0000 0000 0000
00000090: 0000 0000 0000 0000 0000 0000 0000 0000
000000a0: 0000 0000 0000 0000 0000 0000 0000 0000
000000b0: 0000 0000 0000 0000 0000 0000 0000 0000

action_model._continuous_distribution.mu.weight f4 [48, 128]
0.012236637 -0.01586591 0.0103854025 -0.007283052 -0.008033425 0.001165205 -0.014922963 0.02781848
0.018774433 0.015044739 0.0042108665 -0.011425188 -0.0016658852 0.008133173 0.015008084 -0.0017940843
-0.0018658778 -0.0046988907 -0.02040291 -0.015629506 0.01887048 0.021011924 0.008781357 0.003938922
0.015291293 0.0076562553 -0.0057568713 -0.006077285 0.008206583 0.020132858 -0.0048563825 0.014797381
0.040067624 -0.0039010537 -0.014930119 0.015979225 0.006054522 -0.010505201 -0.0156088015 0.005896938
-0.008958724 -0.042368397 0.0037285357 -0.019938363 -0.014494429 0.021939546 -0.013201147 0.018588169
-0.0049280887 0.0052416055 0.0036548562 0.024012145 0.009575147 0.015567659 0.017958565 -0.005297743
-0.032750748 -0.0045040566 0.0117138 0.020194663 -0.008669534 -0.016242296 0.0047292984 0.00059551274
-0.003296186 -0.0013711472 -0.012143704 -0.016258873 -0.004649886 0.012214903 -0.010943704 -0.031991206
0.014075935 0.0051896735 0.008648275 0.003110401 0.016761778 0.00036176862 0.027899772 0.0050471807
-0.0043629683 -0.032100987 0.014393498 -0.015625529 -0.04402166 -0.013707778 0.003034325 0.009528975
0.008960688 -0.002115244 -0.018971605 -0.016022125 -0.0023050439 0.02788091 0.012880904 -0.016436208
-0.008386261 0.01126773 0.007826513 0.02684553 0.031066734 0.011460366 -0.014227494 0.015650734
0.021480437 0.0019977926 -0.00035991753 -0.010160213 0.0068931873 0.008425648 -0.0034923088 0.014077159
-0.031589843 -0.017613871 0.011698556 0.007674006 0.0032581815 0.017683629 -0.00016372818 -0.033671744
0.026506195 0.01271079 -0.020040873 0.010854429 -0.03674258 -0.039441414 0.005637495 -0.029292673
-0.0006865472 0.010263145 0.002859146 0.0007073726 -0.018199442 -0.02306761 0.029966801 0.022121996
-0.015284808 0.0039716577 0.023046978 0.0071812305 0.027681453 0.0072981226 -0.0052368403 0.013834453
0.010145116 0.030746076 0.01021425 -0.030431291 0.023199081 0.010648317 0.017332906 0.0459553
0.02234874 0.025126223 -0.01483155 0.0010035859 0.005144112 -0.010621213 -0.0047908085 0.0006525416
-0.0099049695 0.009569048 -0.036805157 0.009725093 0.0041794064 0.010657315 0.030983344 0.027998408
-0.009752057 0.0014632738 0.017536132 -0.0010706766 0.00071829074 0.0153369075 0.018075537 0.0038419329
0.016349165 0.010934481 -0.009586978 -0.023056662 -0.015494606 -0.012475342 -0.0012115838 0.025072975
-0.027195493 0.018316193 -0.012503716 -0.03237528 0.022363804 0.006969616 -0.026981762 0.014446989
-0.014585239 -0.006390869 0.0016780943 0.012713424 0.029245306 -0.0069281394 0.009373745 0.021128174
-0.011248246 0.03257439 -0.008546137 0.011900558 0.011306211 0.013385996 -0.010553734 -0.0317123
0.019936757 -0.0050620525 -0.006031062 -0.030317826 -0.022090841 -0.012807119 0.004059888 0.028910467
-0.014323527 -0.0028008525 -0.032217927 -0.0026768302 0.03881829 -0.010149184 -0.0056025675 0.0035167278
0.00034895318 0.0011225807 0.022706488 -0.012821615 -0.021882838 0.00018522148 0.0072571053 0.012778622
-0.0025498017 -0.014627923 0.01605549 0.015046145 -0.004231124 -0.015277616 0.029215274 0.0041602813
0.02211887 -0.025842821 0.009193843 0.021990294 -0.003117282 0.0026541946 0.0023164477 -0.010172996
-0.005751638 0.005322087 0.013960155 0.0019520546 0.01946623 -0.018652972 -0.03433961 -0.008274618
00000000: 2d7c 483c 3af9 81bc 8927 2a3c aba6 eebb
00000010: a09e 03bc cbb9 983a 727f 74bc 95e3 e33c
00000020: d7cc 993c 357e 763c 4ffb 893b b630 3bbc
00000030: d559 daba 0041 053c 77e4 753c 7b27 ebba
00000040: 7890 f4ba 27f9 99bb 0124 a7bc 7309 80bc
00000050: 4496 9a3c 3321 ac3c aedf 0f3c 1312 813b
00000060: 5588 7a3c 53e1 fa3b 23a4 bcbb f623 c7bb
00000070: e774 063c aaed a43c 4a22 9fbb b770 723c
00000080: f31d 243d d2a8 7fbb 759d 74bc dde6 823c
00000090: 0365 c63b 021e 2cbc 0fbc 7fbc 1a3b c13b
000000a0: 9dc7 12bc 7c8a 2dbd 735a 743b c755 a3bc
000000b0: 0b7a 6dbc 90ba b33c a049 58bc 3746 983c
000000c0: ce7b a1bb c6c1 ab3b 5086 6f3b 1eb5 c43c
000000d0: 14e1 1c3c 7f0f 7f3c d71d 933c b098 adbb
000000e0: a625 06bd c496 93bb 3deb 3f3c 476f a53c
000000f0: a90a 0ebc 900e 85bc 3bf8 9a3b 2f1c 1c3a
00000100: d304 58bb 11b8 b3ba 63f6 46bc 5431 85bc
00000110: 125e 98bb 0421 483c 394d 33bc 3609 03bd
00000120: c09e 663c 230e aa3b 7fb1 0d3c dfd7 4b3b
00000130: ff4f 893c c3ab bd39 108e e43c d262 a53b
00000140: 3bf7 8ebb 537c 03bd b5d2 6b3c 1c01 80bc
00000150: 0e50 34bd 9796 60bc 87db 463b 6b1f 1c3c
00000160: d9cf 123c e89f 0abb 576a 9bbc d540 83bc
00000170: 3810 17bb 8266 e43c 6d0a 533c 3aa5 86bc
00000180: 8766 09bc 499c 383c c63a 003c 28eb db3c
00000190: aa7f fe3c 42c4 3b3c 6f1a 69bc f835 803c
000001a0: bef7 af3c 66ed 023b 50b3 bcb9 0677 26bc
000001b0: 3fe0 e13b bb0b 0a3c 38df 64bb e2a3 663c
000001c0: 5a64 01bd f74a 90bc 4dab 3f3c 3a76 fb3b
000001d0: 3787 553b 42dd 903c 73ae 2bb9 62eb 09bd
000001e0: 8523 d93c eb40 503c c22c a4bc c6d6 313c
000001f0: 637f 16bd 528d 21bd bcba b83b 30f7 efbc
00000200: 67f9 33ba c026 283c 8360 3b3b f96e 393a
00000210: ff16 95bc 49f8 bcbc f07c f53c 3039 b53c
00000220: 226d 7abc ae24 823b 04cd bc3c 8750 eb3b
00000230: 37c4 e23c 1725 ef3b cd99 abbb e7a9 623c
00000240: b337 263c 32df fb3c ab59 273c 0b4b f9bc
00000250: 000c be3c 4776 2e3c bdfd 8d3c a03b 3c3d
00000260: b414 b73c 82d5 cd3c 0800 73bc c18a 833a
00000270: f08f a83b 9904 2ebc 37fc 9cbb 530f 2b3a
00000280: 7448 22bc 7fc7 1c3c 01c1 16bd ff55 1f3c
00000290: 67f3 883b 059c 2e3c c8d0 fd3c eb5c e53c
000002a0: 17c7 1fbc 52cb bf3a efa7 8f3c f255 8cba
000002b0: ad4b 3c3a a747 7b3c 2613 943c f0c8 7b3b
000002c0: afee 853c 8a26 333c b312 1dbc 53e1 bcbc
000002d0: 17dd 7dbc 6065 4cbc 02ce 9eba d765 cd3c
000002e0: 15c9 debc d70b 963c 63dc 4cbc f19b 04bd
000002f0: 4c34 b73c 6061 e43b db08 ddbc 10b3 6c3c
00000300: edf6 6ebc 7f6a d1bb 80f3 db3a f74b 503c
00000310: da93 ef3c 7205 e3bb 5694 193c fe14 ad3c
00000320: 904a 38bc b96c 053d 1905 0cbc 8ffa 423c
00000330: b03d 393c f050 5b3c 92e9 2cbc c2e4 01bd
00000340: 6952 a33c 93df a5bb 37a0 c5bb 175d f8bc
00000350: daf7 b4bc f3d4 51bc cf08 853b a5d5 ec3c
00000360: 3aad 6abc 828e 37bb f2f6 03bd c26d 2fbb
00000370: edff 1e3d c348 26bc be95 b7bb e778 663b
00000380: b4f3 b639 8f23 933a f502 ba3c c011 52bc
00000390: a343 b3bc 0338 4239 03cd ed3b 6d5d 513c
000003a0: 931a 27bb f5a9 6fbc ce86 833c 1b84 763c
000003b0: 3ea5 8abb f74e 7abc df54 ef3c f852 883b
000003c0: a232 b53c 53b4 d3bc c6a1 163c fd24 b43c
000003d0: 504b 4cbb fff1 2d3b 8bcf 173b a3ac 26bc
000003e0: 3d78 bcbb e764 ae3b 22b9 643c 15dc ff3a
000003f0: a577 9f3c 1ece 98bc b1a7 0cbd 4392 07bc

action_model._continuous_distribution.mu.bias f4 [48]
0.0 0.0 0.0 0.0 0.0 0.0 0.0 0.0
0.0 0.0 0.0 0.0 0.0 0.0 0.0 0.0
0.0 0.0 0.0 0.0 0.0 0.0 0.0 0.0
0.0 0.0 0.0 0.0 0.0 0.0 0.0 0.0
0.0 0.0 0.0 0.0 0.0 0.0 0.0 0.0
0.0 0.0 0.0 0.0 0.0 0.0 0.0 0.0
00000000: 0000 0000 0000 0000 0000 0000 0000 0000
00000010: 0000 0000 0000 0000 0000 0000 0000 0000
00000020: 0000 0000 0000 0000 0000 0000 0000 0000
00000030: 0000 0000 0000 0000 0000 0000 0000 0000
00000040: 0000 0000 0000 0000 0000 0000 0000 0000
00000050: 0000 0000 0000 0000 0000 0000 0000 0000
00000060: 0000 0000 0000 0000 0000 0000 0000 0000
00000070: 0000 0000 0000 0000 0000 0000 0000 0000
00000080: 0000 0000 0000 0000 0000 0000 0000 0000
00000090: 0000 0000 0000 0000 0000 0000 0000 0000
000000a0: 0000 0000 0000 0000 0000 0000 0000 0000
000000b0: 0000 0000 0000 0000 0000 0000 0000 0000

action_model._discrete_distribution.branches.0.weight f4 [1, 128]
-0.007946173 0.008536583 0.00011952194 0.0054002344 -0.0024561945 -0.012155321 -0.013830154 0.01147358
0.0068168375 0.0007385936 0.00075973064 0.0016123813 -0.00090903434 -0.008040729 0.018737456 -0.0012414956
0.0050171665 0.0060725054 -0.011009566 -0.008518137 0.020375397 0.0003406581 0.0017979828 -0.0057320744
-0.0009349659 0.0024692276 -0.0021110463 -0.00163982 0.013253096 0.003735026 -0.01001352 0.0029872388
0.014777529 -0.0011980555 0.020861832 0.00016397124 -0.0057791225 0.009153667 0.0007619539 -0.0038511553
0.0023159047 0.0069950484 0.004782703 0.0015743527 -0.0146055715 -0.003466228 0.011969062 0.009451821
0.012361426 0.013863643 -0.011903579 -0.0009656385 0.026310576 -0.004691427 -0.0034690786 0.0068090777
-0.0018314299 0.0043804008 0.0006698611 0.00895286 -0.010765564 0.004551823 0.0049684574 0.011936661
-0.01066774 -0.007995133 0.0050567095 -0.022596223 0.0019214189 0.0041098353 -0.014740183 0.020943804
0.0013929369 -0.0021937198 0.008133883 -0.0032026563 0.011963001 0.0045444383 0.004925216 -0.009923379
-0.0040841284 -0.0014920725 0.018082198 0.010726005 0.012087078 -0.00417648 -0.0062054475 -0.010707147
-0.0031104581 0.010915036 -0.0020264513 -0.0074132304 -0.004235029 0.0044462834 0.012166244 -0.0056688017
0.011725048 -0.0068100146 0.0008836991 -0.01037839 0.012454136 -0.007570443 -0.0015229069 -0.0023842042
0.0024776387 -0.00834575 0.0046571307 -0.015700351 -0.0034875781 -0.0017112413 0.0012972077 0.015649846
-0.0067744153 -0.010519306 0.0072396123 -0.0014373916 -0.003699274 0.0014621372 0.0020817693 0.0072491616
-0.020872897 0.005015878 0.007789667 -0.001204925 -0.025619676 -0.0036417653 0.011942408 0.00800742
00000000: aa30 02bc 06dd 0b3c daa7 fa38 73f4 b03b
00000010: 1bf8 20bb 1d27 47bc df97 62bc affb 3b3c
00000020: c75f df3b 2d9e 413a a928 473a 8a56 d33a
00000030: 434c 6eba 43bd 03bc 4b7f 993c aeb9 a2ba
00000040: 0b67 a43b defb c63b 7761 34bc a88f 0bbc
00000050: 4eea a63c 5b9a b239 4baa eb3a 20d4 bbbb
00000060: 8018 75ba c4d2 213b 7b59 0abb 3bef d6ba
00000070: 8323 593c 57c7 743b bf0f 24bc 8dc5 433b
00000080: 731d 723c 1208 9dba 6fe6 aa3c b2ef 2b39
00000090: cb5e bdbb 43f9 153c dcbd 473a aa63 7cbb
000000a0: 6fc6 173b b836 e53b 38b8 9c3b 835a ce3a
000000b0: 354c 6fbc a829 63bb e219 443c d0db 1a3c
000000c0: 9487 4a3c 5524 633c 3b07 43bc e722 7dba
000000d0: 4789 d73c 8bba 99bb 7b59 63bb af1e df3b
000000e0: 970c f0ba 7789 8f3b 9e99 2f3a 04af 123c
000000f0: 0c62 30bc 7527 953b 71ce a23b fc91 433c
00000100: bfc7 2ebc 05fe 02bc c1b2 a53b b71b b9bc
00000110: 1fd8 fb3a ccab 863b cf80 71bc 5792 ab3c
00000120: 3593 b63a 83c4 0fbb fa43 053c a8e3 51bb
00000130: 7700 443c 83e9 943b b563 a13b ab95 22bc
00000140: 27d4 85bb a591 c3ba 1e21 943c 20bc 2f3c
00000150: e108 463c dbda 88bb 1157 cbbb 086d 2fbc
00000160: d4d8 4bbb fbd4 323c 36ce 04bb afea f2bb
00000170: 00c6 8abb 21b2 913b ed54 473c 5bc1 b9bb
00000180: 6a1a 403c 8b26 dfbb 0ba8 673a 1f0a 2abc
00000190: 6f0c 4c3c 7b11 f8bb 479c c7ba 4f40 1cbb
000001a0: e15f 223b 9dbc 08bc d89a 983b 069e 80bc
000001b0: da8f 64bb bb4b e0ba 1107 aa3a 1b34 803c
000001c0: eafb ddbb 2b59 2cbc 453a ed3b dc66 bcba
000001d0: 856f 72bb 2fa5 bf3a 4b6e 083b 608a ed3b
000001e0: a3fd aabc 3c5c a43b 7740 ff3b 93ee 9dba
000001f0: 5be0 d1bc afaa 6ebb 17aa 433c 8e31 033c

network_body._body_endoder.seq_layers.0.weight f4 [128, 805]
0.00979441 0.038716108 0.026040861 0.050902456 -0.0007210798 -0.0103144385 0.0029860307 0.039263885
0.06866456 0.024717268 -0.015552871 -0.007589928 -0.04604108 -0.056942143 -0.000835517 0.07334156
-0.05639693 -0.013501558 0.051331274 -0.036933694 0.030724773 -0.0058133686 0.02770382 0.015385846
-0.03419543 0.05604035 -0.0006791679 -0.028581606 0.021660898 0.037939664 -0.03053437 -0.051897388
0.0009944702 -0.04768862 -0.002071069 -0.015862685 -0.020409357 -0.036192268 -0.029017555 -0.019937364
-0.046848126 -0.0048260475 0.038579375 0.068533994 0.0006274012 0.03500577 -0.019353963 0.01744699
-0.035582367 0.00486076 0.048050184 0.01700996 0.0124756675 -0.05992192 -0.011058445 0.001768945
0.0055385097 -0.04080402 0.09379557 0.0152138155 -0.035742816 -0.02716975 -0.005508513 0.024050808
0.03068238 0.026247494 -0.023134183 -0.05199507 0.046300095 0.07162439 0.035660364 0.021250831
-0.0023377745 0.023613535 -0.042753056 0.035707 -0.022152826 0.00921552 -0.03818526 0.06464722
0.05795416 -0.006613449 -0.016778154 -0.001003855 -0.015010813 -0.038757764 -0.00045172303 0.011450801
0.046206713 -0.00058720005 -0.00578531 0.0017752775 -0.019825008 -0.020721436 -0.035475403 0.021080721
0.0013215119 0.025606176 -0.028262055 0.061875284 0.050798524 -0.033877462 -0.01804472 0.017018417
0.021511612 -0.041207224 -0.019456474 0.0106322775 -0.016833259 0.030224994 -0.032630328 -0.0062910155
-0.0052640685 -0.006857696 -0.018284118 0.05966251 -0.009922278 0.049949344 0.028248321 -0.05721172
-0.042285476 0.031064639 0.0021493523 0.041560933 0.018078148 -0.01868958 0.0012183869 -0.010450873
0.044087086 0.007200941 -0.0035938784 0.031708654 -0.027460966 0.005970028 -0.035779763 -0.052268527
-0.043716494 0.040647402 0.009539295 0.037240893 0.0012287993 0.020203024 -0.018861933 -0.01745266
0.045614023 0.01853701 0.015358688 -0.0055546886 -0.099470645 -0.0146098165 -0.014958754 -0.037825577
-0.039867245 0.008350283 -0.010100385 -0.027852153 -0.016733425 0.049260937 0.025472524 0.0033577126
-0.030604139 0.06799864 0.046145197 -0.009317138 0.0044328393 0.01788531 0.021555347 0.033264864
0.02889376 0.0146417655 -0.046444166 0.047667384 -0.053296622 0.03749874 -0.06709296 -0.026245737
-0.0070397053 -0.017213471 0.020504706 0.023486448 -0.016204527 -0.039038956 0.023905138 -0.015027845
-0.046608724 -0.0763542 0.10539707 0.07202745 0.013367047 -0.03068449 0.0016336199 0.005005784
0.027999546 0.00043603082 0.025413316 -0.03467462 0.026177283 0.0016842525 -0.027336353 -0.030834466
0.027982838 -0.06909767 -0.008347133 0.109563895 -0.01842171 0.028473547 -0.015849473 0.008643079
0.01614027 -0.024195567 -0.09738603 0.0037863033 0.007305832 0.00664628 0.040698078 -0.05883106
-0.030682726 0.042071383 -0.019685881 -0.015338534 0.0056949826 0.025168039 0.061595827 0.0004502223
-0.03717203 -0.031252425 0.046383537 -0.04628226 0.038606793 0.006593237 0.0077175596 0.018530956
0.00016088458 -0.009116242 0.038665567 0.012379042 -0.04340024 -0.00916954 -0.07120206 -0.0220337
-0.016907776 0.023507494 -0.036388103 -0.033945434 0.02726855 0.02189381 0.026485365 0.07636301
-0.04662045 -0.027634172 -0.043089844 -0.0019545304 -0.013562985 0.024909146 -0.027893309 0.043192454
00000000: bc78 203c c894 1e3d a553 d53c 187f 503d
00000010: d906 3dba e4fd 28bc 48b1 433b 2bd3 203d
00000020: 01a0 8c3d de7b ca3c 78d1 7ebc eeb4 f8bb
00000030: 9295 3cbd 2a3c 69bd 9906 5bba 1a34 963d
00000040: 7800 67bd a435 5dbc be40 523d c947 17bd
00000050: 85b2 fb3c 127e bebb 1ff3 e23c ea14 7c3c
00000060: 8210 0cbd 918a 653d 300a 32ba f923 eabc
00000070: 3272 b13c 9f66 1b3d 3723 fabc 5b92 54bd
00000080: e258 823a 2455 43bd c6ba 07bb 76f2 81bc
00000090: 8631 a7bc 583e 14bd 39b6 edbc af53 a3bc
000000a0: d2e3 3fbd d223 9ebb 6805 1e3d 8d5b 8c3d
000000b0: 2f78 243a 3662 0f3d 348c 9ebc fdec 8e3c
000000c0: d1be 11bd 0347 9f3b 45d0 443d 7958 8b3c
000000d0: be66 4c3c b070 75bd 7b2e 35bc f2db e73a
000000e0: 637c b53b 1e22 27bd e417 c03d 5e43 793c
000000f0: 0f67 12bd 1893 debc c280 b4bb 3306 c53c
00000100: 9d59 fb3c fc04 d73c e683 bdbc c8f8 54bd
00000110: 2ba5 3d3d cfaf 923d 9a10 123d 3916 ae3c
00000120: 5935 19bb 2c71 c13c d41d 2fbd 8141 123d
00000130: d879 b5bc b1fc 163c 2668 1cbd c365 843d
00000140: 5761 6d3d a2b5 d8bb 5772 89bc c993 83ba
00000150: eaef 75bc 76c0 1ebd 3dd5 ecb9 249c 3b3c
00000160: 4043 3d3d 54ee 19ba b392 bdbb 6eb0 e83a
00000170: 0e68 a2bc 00c0 a9bc a84e 11bd 7ab1 ac3c
00000180: 9536 ad3a 0bc4 d13c d385 e7bc f070 7d3d
00000190: 1d12 503d 18c3 0abd 85d2 93bc 356a 8b3c
000001a0: 1f39 b03c e8c8 28bd 2f63 9fbc 0133 2e3c
000001b0: e7e5 89bc 689a f73c 61a7 05bd dd24 cebb
000001c0: 357e acbb 86b6 e0bb 93c8 95bc ad60 743d
000001d0: 0d91 22bc af97 4c3d 0669 e73c d656 6abd
000001e0: 8933 2dbd 457b fe3c 26dc 0c3b cc3b 2a3d
000001f0: a018 943c e41a 99bc 48b2 9f3a 233a 2bbc
00000200: a994 343d dff5 eb3b 4687 6bbb efe0 013d
00000210: d2f5 e0bc 3aa0 c33b cd8d 12bd 8617 56bd
00000220: 1110 33bd e47d 263d b44a 1c3c e889 183d
00000230: aa0f a13a d080 a53c 5784 9abc e1f8 8ebc
00000240: c5d5 3a3d edda 973c 02a3 7b3c 1b04 b6bb
00000250: 44b7 cbbd 035e 6fbc 9015 75bc feee 1abd
00000260: d64b 23bd a0cf 083c 167c 25bc 332a e4bc
00000270: 8914 89bc d6c5 493d c1ab d03c 120d 5c3b
00000280: 88b5 fabc df42 8b3d bf02 3d3d e9a6 18bc
00000290: 5a41 913b 3784 923c d794 b03c bd40 083d
000002a0: 9bb2 ec3c 04e4 6f3c 3d3c 3ebd e03e 433d
000002b0: 8f4d 5abd 4798 193d 0968 89bd 4d01 d7bc
000002c0: 54ad e6bb 4403 8dbc 7cf9 a73c a766 c03c
000002d0: 5bbf 84bc 50e7 1fbd b5d4 c33c 5a37 76bc
000002e0: cae8 3ebd 975f 9cbd 6bda d73d 2183 933d
000002f0: 7501 5b3c 0a5e fbbc 301f d63a 8f07 a43b
00000300: 4e5f e53c 119b e439 962f d03c f906 0ebd
00000310: be71 d63c 23c2 dc3a 7df0 dfbc 9098 fcbc
00000320: 443c e53c 1483 8dbd 6ac2 08bc 0963 e03d
00000330: 20e9 96bc 5b41 e93c c1d6 81bc b39b 0d3c
00000340: 9938 843c c835 c6bc 5472 c7bd a123 783b
00000350: c365 ef3b 0ac9 d93b 07b3 263d d6f8 70bd
00000360: 575a fbbc 0b53 2c3d 4944 a1bc 794e 7bbc
00000370: fa9c ba3b 342d ce3c e84b 7c3d d00b ec39
00000380: b341 18bd 8b02 00bd aafc 3d3d 7892 3dbd
00000390: 2822 1e3d 150c d83b 95e3 fc3b 3bce 973c
000003a0: 20b3 2839 4a5c 15bc c95f 1e3d 77d1 4a3c
000003b0: 73c4 31bd d73b 16bc 63d2 91bd 0580 b4bc
000003c0: 2d82 8abc ca92 c03c b10b 15bd 5e0a 0bbd
000003d0: 4b62 df3c a65a b33c d6f7 d83c 3664 9c3d
000003e0: 16f5 3ebd 0f61 e2bc fa7e 30bd 9417 00bb
000003f0: 4837 5ebc 440e cc3c 8280 e4bc 92ea 303d

network_body._body_endoder.seq_layers.0.bias f4 [128]
0.0 0.0 0.0 0.0 0.0 0.0 0.0 0.0
0.0 0.0 0.0 0.0 0.0 0.0 0.0 0.0
0.0 0.0 0.0 0.0 0.0 0.0 0.0 0.0
0.0 0.0 0.0 0.0 0.0 0.0 0.0 0.0
0.0 0.0 0.0 0.0 0.0 0.0 0.0 0.0
0.0 0.0 0.0 0.0 0.0 0.0 0.0 0.0
0.0 0.0 0.0 0.0 0.0 0.0 0.0 0.0
0.0 0.0 0.0 0.0 0.0 0.0 0.0 0.0
0.0 0.0 0.0 0.0 0.0 0.0 0.0 0.0
0.0 0.0 0.0 0.0 0.0 0.0 0.0 0.0
0.0 0.0 0.0 0.0 0.0 0.0 0.0 0.0
0.0 0.0 0.0 0.0 0.0 0.0 0.0 0.0
0.0 0.0 0.0 0.0 0.0 0.0 0.0 0.0
0.0 0.0 0.0 0.0 0.0 0.0 0.0 0.0
0.0 0.0 0.0 0.0 0.0 0.0 0.0 0.0
0.0 0.0 0.0 0.0 0.0 0.0 0.0 0.0
00000000: 0000 0000 0000 0000 0000 0000 0000 0000
00000010: 0000 0000 0000 0000 0000 0000 0000 0000
00000020: 0000 0000 0000 0000 0000 0000 0000 0000
00000030: 0000 0000 0000 0000 0000 0000 0000 0000
00000040: 0000 0000 0000 0000 0000 0000 0000 0000
00000050: 0000 0000 0000 0000 0000 0000 0000 0000
00000060: 0000 0000 0000 0000 0000 0000 0000 0000
00000070: 0000 0000 0000 0000 0000 0000 0000 0000
00000080: 0000 0000 0000 0000 0000 0000 0000 0000
00000090: 0000 0000 0000 0000 0000 0000 0000 0000
000000a0: 0000 0000 0000 0000 0000 0000 0000 0000
000000b0: 0000 0000 0000 0000 0000 0000 0000 0000
000000c0: 0000 0000 0000 0000 0000 0000 0000 0000
000000d0: 0000 0000 0000 0000 0000 0000 0000 0000
000000e0: 0000 0000 0000 0000 0000 0000 0000 0000
000000f0: 0000 0000 0000 0000 0000 0000 0000 0000
00000100: 0000 0000 0000 0000 0000 0000 0000 0000
00000110: 0000 0000 0000 0000 0000 0000 0000 0000
00000120: 0000 0000 0000 0000 0000 0000 0000 0000
00000130: 0000 0000 0000 0000 0000 0000 0000 0000
00000140: 0000 0000 0000 0000 0000 0000 0000 0000
00000150: 0000 0000 0000 0000 0000 0000 0000 0000
00000160: 0000 0000 0000 0000 0000 0000 0000 0000
00000170: 0000 0000 0000 0000 0000 0000 0000 0000
00000180: 0000 0000 0000 0000 0000 0000 0000 0000
00000190: 0000 0000 0000 0000 0000 0000 0000 0000
000001a0: 0000 0000 0000 0000 0000 0000 0000 0000
000001b0: 0000 0000 0000 0000 0000 0000 0000 0000
000001c0: 0000 0000 0000 0000 0000 0000 0000 0000
000001d0: 0000 0000 0000 0000 0000 0000 0000 0000
000001e0: 0000 0000 0000 0000 0000 0000 0000 0000
000001f0: 0000 0000 0000 0000 0000 0000 0000 0000

network_body._body_endoder.seq_layers.2.weight f4 [128, 128]
0.19866045 0.09726031 0.052482624 -0.11181765 0.021714846 -0.12704821 0.052173346 0.025167514
0.120069794 0.05499911 0.008727923 -0.09519875 -0.11271725 -0.120393135 -0.0004595801 0.20303306
-0.041354887 0.11753232 0.055351064 -0.15899779 0.10039077 -0.07895105 0.0675391 0.118975475
0.07280043 0.115443476 -0.03750011 0.065785594 0.07785618 0.037714038 -0.0852284 -0.04385305
0.11673575 0.08441529 -0.083937205 0.0039174235 0.015123466 -0.017607365 0.017283313 -0.044327147
0.09453582 -0.07960191 0.12526321 0.036523774 0.09606245 0.0896824 -0.11091708 0.108144395
0.0331412 0.02826612 0.047628414 0.016759068 -0.019784098 -0.16836104 -0.16906853 -0.00032899168
0.045867022 -0.017180536 -0.047502268 -0.108729824 0.052656807 0.049453635 -0.08343613 0.179063
0.03065056 0.13990796 0.15716971 -0.04550992 0.0719342 0.09770626 0.003907478 -0.023718167
-0.028924538 -0.087396786 0.009818348 -0.087928794 -0.095907375 0.07241136 0.103722245 -0.055829957
-0.06821884 -0.114709735 0.011000026 0.19295742 -0.05941948 0.0581068 0.11594674 0.13164984
-0.17746605 0.039789878 0.1613691 0.12917644 -0.013811979 0.19707023 -0.18174785 -0.15560354
-0.010028985 -0.09473213 0.06199854 -0.067661725 -0.114387915 -0.03926522 0.14534688 -0.1111379
-0.01358708 -0.0002260325 0.05808667 -0.035899814 -0.18435732 0.047283184 -0.043175496 -0.090123266
0.045649245 0.107470624 0.07948065 -0.09999363 -0.11467231 -0.07870328 0.18445116 0.03387214
-0.06790971 0.010714197 -0.012669566 0.061504584 -0.057628453 0.15008642 -0.16128969 -0.116604745
-0.02378473 0.09061959 0.0121146245 -0.026753172 0.04696854 -0.0051575857 0.014823083 -0.08973701
0.03337501 0.07018342 0.19706874 0.040005982 0.012550294 0.04662942 0.06090082 0.10289233
0.052757755 0.17794636 -0.102668986 0.07910212 0.018561449 -0.010666969 0.08982633 -0.081944555
-0.12082364 -0.0044044578 -0.009573683 -0.08084621 0.03779395 -0.16242526 0.023308637 0.02935528
0.19321974 -0.00765236 0.065279864 -0.07252884 0.09528814 0.0907082 0.08112251 -0.06547311
0.024055695 0.008799905 0.055456437 -0.07574377 0.019738741 -0.023802532 -0.00048260833 0.026886264
0.029323809 -0.0869393 0.039307173 -0.121259645 0.13949157 0.009736678 -0.017453646 0.033126492
-0.094006 -0.0026534079 0.07506628 -0.13146217 0.063149124 0.0151119735 -0.13792261 0.118201226
-0.024689075 0.0463618 0.13237399 -0.026101587 -0.00014642972 0.12596126 -0.031081488 -0.034235217
0.15922345 0.02720498 -0.101482205 0.089516826 0.022260489 0.07229071 0.055326324 -0.13625872
-0.006766079 0.04079187 -0.060251817 0.11544432 -0.04162486 -0.0004753023 -0.013113125 -0.09062415
0.094926804 0.07475171 -0.008467391 0.021805929 -0.031396337 -0.022995075 0.17320032 0.013986822
0.014109439 -0.09437599 0.034401853 0.0089506395 0.043830946 0.07587581 -0.16345794 -0.021860316
-0.09633447 -0.011580547 -0.23212703 0.0004936021 -0.021306366 0.05444651 0.04473527 0.14823924
-0.12928545 -0.0018998352 -0.13146634 -0.04380771 -0.08887523 0.13834254 0.0402357 -0.014535689
-0.027855024 0.117147915 -0.08582754 0.0027118912 0.014791914 0.012775555 -0.02113431 0.06612883
00000000: a56d 4b3e 6a30 c73d 05f8 563d a700 e5bd
00000010: 55e3 b13c ed18 02be b8b3 553d 1a2c ce3c
00000020: 27e7 f53d bf46 613d 90ff 0e3c 90f7 c2bd
00000030: 4dd8 e6bd ad90 f6bd ccf3 f0b9 e6e7 4f3e
00000040: be63 29bd c9b4 f03d ccb7 623d 51d0 22be
00000050: ad99 cd3d 17b1 a1bd f151 8a3d 6aa9 f33d
00000060: 6418 953d a16d ec3d b799 19bd 99ba 863d
00000070: 1073 9f3d 097a 1a3d 3a8c aebd 419f 33bd
00000080: 2713 ef3d ece1 ac3d 45e7 abbd bb5d 803b
00000090: 6ac8 773c 523d 90bc bc95 8d3c 6290 35bd
000000a0: ff9b c13d 5406 a3bd 0045 003e f499 153d
000000b0: 64bc c43d 68ab b73d 7e28 e3bd cf7a dd3d
000000c0: 11bf 073d 5a8e e73c 0316 433d 504a 893c
000000d0: 4312 a2bc d666 2cbe 4d20 2dbe 847c acb9
000000e0: 0fdf 3b3d 32be 8cbc bd91 42bd bead debd
000000f0: aaae 573d e58f 4a3d 90e0 aabd 4b5c 373e
00000100: e216 fb3c 0844 0f3e 19f1 203e 9c68 3abd
00000110: 3d52 933d 381a c83d 4d0a 803b 9a4c c2bc
00000120: 27f3 ecbc 16fd b2bd 23dd 203c 0314 b4bd
00000130: 166b c4bd 684c 943d 546c d43d f4ad 64bd
00000140: 52b6 8bbd f0ec eabd 7439 343c a196 453e
00000150: d761 73bd 6501 6e3d 7c75 ed3d 37cf 063e
00000160: a9b9 35be b6fa 223d f13d 253e d446 043e
00000170: a44b 62bc c7cc 493e 1c1c 3abe 8956 1fbe
00000180: 9d50 24bc eb02 c2bd 2ef2 7d3d 3b92 8abd
00000190: 3644 eabd 91d4 20bd d0d5 143e 449c e3bd
000001a0: 589c 5ebc 2303 6db9 4aec 6d3d af0b 13bd
000001b0: 2ac8 3cbe 03ac 413d cad8 30bd 8c92 b8bd
000001c0: b4fa 3a3d 8f19 dc3d c0c6 a23d 76c9 ccbd
000001d0: 51d9 eabd 2f2f a1bd c4e0 3c3e 83bd 0a3d
000001e0: 3f14 8bbd 998a 2f3c 0394 4fbc 3bec 7b3d
000001f0: d00b 6cbd 41b0 193e 2029 25be 78ce eebd
00000200: 32d8 c2bc c396 b93d 6b7c 463c 7829 dbbc
00000210: 1562 403d f700 a9bb 84dc 723c 0ac8 b7bd
00000220: 3cb4 083d 53bc 8f3d 63cc 493e 50dd 233d
00000230: c09f 4d3c 7efe 3e3d 2373 793d 37b9 d23d
00000240: 8418 583d 9237 363e 1e44 d2bd 4b00 a23d
00000250: 2e0e 983c 83c4 2ebc def6 b73d 8cd2 a7bd
00000260: 6272 f7bd 4553 90bb f0da 1cbc b392 a5bd
00000270: d4cd 1a3d cf52 26be c1f1 be3c 7c7a f03c
00000280: 65db 453e a6c0 fabb 73b1 853d 008a 94bd
00000290: 6e26 c33d 39c5 b93d 8f23 a63d c416 86bd
000002a0: 7310 c53c 7a2d 103c 4a26 633d 8d1f 9bbd
000002b0: 24b3 a13c 87fd c2bc 9806 fdb9 9540 dc3c
000002c0: 7c38 f03c 3b0d b2bd 8f00 213d fa56 f8bd
000002d0: e1d6 0e3e 9686 1f3c f3fa 8ebc a5af 073d
000002e0: 3886 c0bd cce4 2dbb 5abc 993d 059e 06be
000002f0: 5454 813d 3698 773c 963b 0dbe 7c13 f23d
00000300: be40 cabc dfe5 3d3d 0c8d 073e ffd2 d5bc
00000310: ee8a 19b9 fdfb 003e 9b9e febc 3a3a 0cbd
00000320: 790b 233e fadc de3c e7d5 cfbd 9954 b73d
00000330: a15b b63c 270d 943d db9d 623d 6887 0bbe
00000340: fcb5 ddbb 6015 273d 9cca 76bd 126e ec3d
00000350: d47e 2abd ff31 f9b9 6fd8 56bc 2899 b9bd
00000360: fc68 c23d 6d17 993d d0ba 0abc 59a2 b23c
00000370: 7299 00bd 2b60 bcbc 6d5b 313e fc28 653c
00000380: 472b 673c 3348 c1bd f5e8 0c3d b4a5 123c
00000390: 1488 333d c764 9b3d 8561 27be 6814 b3bc
000003a0: 024b c5bd 56bc 3dbc b5b2 6dbe 1465 013a
000003b0: b08a aebc 4e03 5f3d 553c 373d 07cc 173e
000003c0: 6863 04be e403 f9ba 1d9f 06be b76f 33bd
000003d0: 3704 b6bd aba9 0d3e 30ce 243d 1927 6ebc
000003e0: 3830 e4bc 3feb ef3d 59c6 afbd fcb9 313b
000003f0: c959 723c 9050 513c dc21 adbc 8d6e 873d

network_body._body_endoder.seq_layers.2.bias f4 [128]
0.0 0.0 0.0 0.0 0.0 0.0 0.0 0.0
0.0 0.0 0.0 0.0 0.0 0.0 0.0 0.0
0.0 0.0 0.0 0.0 0.0 0.0 0.0 0.0
0.0 0.0 0.0 0.0 0.0 0.0 0.0 0.0
0.0 0.0 0.0 0.0 0.0 0.0 0.0 0.0
0.0 0.0 0.0 0.0 0.0 0.0 0.0 0.0
0.0 0.0 0.0 0.0 0.0 0.0 0.0 0.0
0.0 0.0 0.0 0.0 0.0 0.0 0.0 0.0
0.0 0.0 0.0 0.0 0.0 0.0 0.0 0.0
0.0 0.0 0.0 0.0 0.0 0.0 0.0 0.0
0.0 0.0 0.0 0.0 0.0 0.0 0.0 0.0
0.0 0.0 0.0 0.0 0.0 0.0 0.0 0.0
0.0 0.0 0.0 0.0 0.0 0.0 0.0 0.0
0.0 0.0 0.0 0.0 0.0 0.0 0.0 0.0
0.0 0.0 0.0 0.0 0.0 0.0 0.0 0.0
0.0 0.0 0.0 0.0 0.0 0.0 0.0 0.0
00000000: 0000 0000 0000 0000 0000 0000 0000 0000
00000010: 0000 0000 0000 0000 0000 0000 0000 0000
00000020: 0000 0000 0000 0000 0000 0000 0000 0000
00000030: 0000 0000 0000 0000 0000 0000 0000 0000
00000040: 0000 0000 0000 0000 0000 0000 0000 0000
00000050: 0000 0000 0000 0000 0000 0000 0000 0000
00000060: 0000 0000 0000 0000 0000 0000 0000 0000
00000070: 0000 0000 0000 0000 0000 0000 0000 0000
00000080: 0000 0000 0000 0000 0000 0000 0000 0000
00000090: 0000 0000 0000 0000 0000 0000 0000 0000
000000a0: 0000 0000 0000 0000 0000 0000 0000 0000
000000b0: 0000 0000 0000 0000 0000 0000 0000 0000
000000c0: 0000 0000 0000 0000 0000 0000 0000 0000
000000d0: 0000 0000 0000 0000 0000 0000 0000 0000
000000e0: 0000 0000 0000 0000 0000 0000 0000 0000
000000f0: 0000 0000 0000 0000 0000 0000 0000 0000
00000100: 0000 0000 0000 0000 0000 0000 0000 0000
00000110: 0000 0000 0000 0000 0000 0000 0000 0000
00000120: 0000 0000 0000 0000 0000 0000 0000 0000
00000130: 0000 0000 0000 0000 0000 0000 0000 0000
00000140: 0000 0000 0000 0000 0000 0000 0000 0000
00000150: 0000 0000 0000 0000 0000 0000 0000 0000
00000160: 0000 0000 0000 0000 0000 0000 0000 0000
00000170: 0000 0000 0000 0000 0000 0000 0000 0000
00000180: 0000 0000 0000 0000 0000 0000 0000 0000
00000190: 0000 0000 0000 0000 0000 0000 0000 0000
000001a0: 0000 0000 0000 0000 0000 0000 0000 0000
000001b0: 0000 0000 0000 0000 0000 0000 0000 0000
000001c0: 0000 0000 0000 0000 0000 0000 0000 0000
000001d0: 0000 0000 0000 0000 0000 0000 0000 0000
000001e0: 0000 0000 0000 0000 0000 0000 0000 0000
000001f0: 0000 0000 0000 0000 0000 0000 0000 0000

value_heads.value_heads.extrinsic.weight f4 [1, 128]
-0.15839618 -0.069953166 0.13369107 -0.105489984 0.14361575 0.02947141 -0.13502048 0.19689195
-0.07695893 -0.195702 0.16509323 -0.20962726 -0.04963518 0.10803292 0.18534483 -0.13209255
0.14012077 -0.1934778 0.16506016 0.20231093 0.18829472 -0.080449976 -0.21194091 0.17175357
-0.20028152 -0.11241019 0.124290116 0.09720397 0.21439844 0.113942266 -0.14483559 0.10218528
0.014087329 -0.11589747 -0.1030702 0.20191576 0.017314442 0.1068677 0.086306654 -0.052148987
0.18387732 0.13584076 0.16967294 0.19780818 0.024272544 0.1512959 -0.057626773 -0.14060844
0.19535582 0.18481776 -0.1386101 0.2117106 0.043137234 0.05541473 -0.05790051 0.06041296
0.06986489 -0.16863036 0.1039311 -0.009450958 -0.1812849 -0.14190854 -0.025607888 -0.056512285
0.04426636 0.011898718 0.1255943 0.119750336 0.097821124 0.10715623 -0.082117215 0.15787266
-0.16665204 -0.06698425 0.018715292 -0.047762178 0.17605068 0.06304585 -0.12078417 -0.21064697
0.15917245 0.08936457 0.05836153 -0.14322317 0.19234383 -0.034948796 0.18925714 -0.10264409
0.027990963 0.17126355 0.09112952 -0.09746705 -0.15332432 0.15911464 -0.11500994 0.16683568
-0.19935502 0.17448981 0.17067063 -0.21354893 0.11162925 0.10647964 -0.16804865 0.14697784
0.19862995 0.09200955 -0.13689448 0.017704349 0.00040898414 -0.0786427 0.18860991 0.16381028
-0.032079816 -0.008880725 0.13076839 -0.12846914 -0.07121686 0.08388288 0.030387511 -0.19154754
-0.20473891 -0.07761794 0.056022186 -0.07903954 0.029942483 0.06846404 -0.17031737 -0.20507571
00000000: 9c32 22be 9b43 8fbd 50e6 083e 220b d8bd
00000010: 0210 133e 076e f13c cf42 0abe 0b9e 493e
00000020: a59c 9dbd 1b66 48be 330e 293e 87a8 56be
00000030: 424e 4bbd 5d40 dd3d 09cb 3d3e 4543 07be
00000040: d27b 0f3e 0b1f 46be 8805 293e 992a 4f3e
00000050: 55d0 403e f5c2 a4bd 0a07 59be 2be0 2f3e
00000060: 9916 4dbe 5037 e6bd d18b fe3d e012 c73d
00000070: 448b 5b3e 905a e93d c84f 14be 8446 d13d
00000080: 8ace 663c a75b edbd 7816 d3bd 01c3 4e3e
00000090: 04d7 8d3c 74dd da3d 8bc1 b03d 2d9a 55bd
000000a0: 564a 3c3e d719 0b3e bebe 2d3e 3a8e 4a3e
000000b0: 37d7 c63c 50ed 1a3e 0d0a 6cbd a9fb 0fbe
000000c0: 5b0b 483e de40 3d3e ceef 0dbe aaca 583e
000000d0: abb0 303d 8efa 623d 1629 6dbd 9473 773d
000000e0: 5315 8f3d 70ad 2cbe d4d9 d43d 31d8 1abc
000000f0: c0a2 39be 7950 11be a2c7 d1bc 6d79 67bd
00000100: a550 353d d7f2 423c cb9b 003e aa3f f53d
00000110: 7156 c83d ba74 db3d 122d a8bd 5fa9 213e
00000120: d5a6 2abe 0a2f 89bd d050 993c 46a2 43bd
00000130: a146 343e 2f1e 813d b15d f7bd d7b3 57be
00000140: 1afe 223e c604 b73d 800c 6f3d 18a9 12be
00000150: c8f5 443e 7826 0fbd a0cc 413e 1137 d2bd
00000160: 4e4d e53c b65f 2f3e 1da2 ba3d ce9c c7bd
00000170: 0d01 1dbe f3ee 223e 558a ebbd f9d6 2a3e
00000180: b923 4cbe 75ad 323e 48c4 2e3e 92ac 5abe
00000190: e09d e43d ff11 da3d f214 2cbe 5c81 163e
000001a0: a665 4b3e 816f bc3d 112e 0cbe b608 913c
000001b0: ec6c d639 6d0f a1bd f522 413e e2bd 273e
000001c0: 2066 03bd 7680 11bc 26e8 053e 6a8d 03be
000001d0: 25da 91bd caca ab3d 3bef f83c 0a25 44be
000001e0: 14a7 51be 28f6 9ebd 8577 653d 7bdf a1bd
000001f0: f049 f53c e036 8c3d ad67 2ebe 5eff 51be
