results/baseball1/Baseball/Baseball-877.pt (torch, 993302 bytes, 13 tensors)

network_body._body_endoder.seq_layers.0.weight f4 [128, 805]
000000 aa c9 6e 3c 4e 72 fa bc 68 44 e4 bc 28 20 08 bc
       0.014574448 -0.030572083 -0.02786465 -0.008308448
000010 97 98 d2 bc d4 64 5a bb 7f 40 f1 bc 0f 9d 38 3c
       -0.025707526 -0.0033324258 -0.0294497 0.011267914
000020 64 ba 1a bb d8 f7 a0 3d 24 ee 92 3c 95 21 8f bd
       -0.0023609633 0.078597724 0.01793582 -0.06988827
000030 82 6a 77 3d 39 b4 39 bd 50 d6 24 3d 0e 7f 0b bd
       0.06040431 -0.04533789 0.040243447 -0.034056716
000040 42 7a 01 bd 94 0d 90 3b 61 e0 c1 bd ee b3 d9 3c
       -0.031610735 0.00439615 -0.09466625 0.026575055
000050 da 58 40 3d ad 9b 25 bd 52 7a 5c 3c 26 eb 98 bc
       0.046959735 -0.040431667 0.013456898 -0.018666815
000060 cb eb 90 bd ed cd e6 ba 00 84 37 3c ed 67 4e bc
       -0.07076224 -0.0017608978 0.011200905 -0.01259802
000070 d4 c7 23 3d da c4 29 bc fd 6a a9 3b c6 a6 0c 3c
       0.039985493 -0.0103618745 0.0051702247 0.008584684
000080 81 12 ab bb 6d 8b 19 3d e0 6d 00 3c 32 87 b2 bb
       -0.0052207117 0.037486482 0.007838696 -0.0054482454
000090 0f ca c9 ba 8a e9 37 3c 5f 24 05 bd ab 53 aa bd
       -0.0015395301 0.011225114 -0.03250539 -0.0831674
0000a0 f7 d2 31 3c 67 bf 51 bc 28 fe 92 bc 97 b3 8b 3d
       0.010853521 -0.0128019815 -0.017943457 0.068213634
0000b0 4d 8c a4 bb 18 d8 06 bd 04 98 44 3b 50 28 63 3b
       -0.005021608 -0.032920927 0.0029997835 0.003466148
0000c0 39 f6 62 bd f6 10 3c b9 39 bd 44 3b a8 4c 16 3c
       -0.055410597 -0.00017935396 0.0030020012 0.00917355
0000d0 24 cf 8d 3c 4a 8b b6 bc 87 ef ab 3c 6c 7f 37 3c
       0.017310686 -0.022283215 0.020988239 0.011199813
0000e0 41 75 5c bb 44 2d 0c bc 3b e9 ef bc f1 ff 79 3d
       -0.0033639225 -0.008555714 -0.029286018 0.0610351
0000f0 da 38 98 bc 25 0a 32 3b 08 e4 ac 3b 92 b7 71 bd
       -0.018581796 0.002716669 0.005276207 -0.059012957
000100 94 25 be bc fd 9d 3a bd 23 cf 1e bb 9f 35 2f bc
       -0.023211278 -0.045560826 -0.002423235 -0.010693937
000110 dc 8e 08 3c 89 2d e3 bb cd f6 f1 bc 4a 64 b8 3c
       0.008334842 -0.0069329184 -0.02953663 0.022508759
000120 fc 11 94 bb 35 72 21 bd d9 7c 1c 3c 29 e6 43 bd
       -0.0045187455 -0.039415557 0.00955125 -0.04782692
000130 c5 ad ab 3a d6 bb 1b bd 36 6c 44 bc 78 f2 92 ba
       0.0013098052 -0.03802093 -0.01198869 -0.0011211177
000140 65 a7 6e 3a 9f ab 20 3d 10 24 55 3c de b3 20 3d
       0.0009103923 0.03922617 0.013009086 0.039234035
000150 a5 93 94 3d 7c 27 8f bb e4 61 c9 bb 40 a8 10 bc
       0.072547235 -0.0043687206 -0.0061457027 -0.008829176
000160 32 43 2c bd 27 23 11 3d 09 15 5a 3d 5e 6c 6b bd
       -0.04205627 0.035433915 0.053242717 -0.057476394
000170 3b e7 09 bd 0e 19 93 3d 80 e7 33 bb 0d 94 31 bc
       -0.033667784 0.07182513 -0.0027451217 -0.010838521
000180 da ae 1d 3c b4 ef ac 3a 9c be 89 3d 12 bc fc 3c
       0.009624207 0.0013193996 0.06725809 0.030851398
000190 c7 e0 b7 bb ba db c7 bb 85 70 0d 3d f5 e0 1a bd
       -0.0056115123 -0.0060991915 0.034531135 -0.037812192
0001a0 a9 98 f4 bc 03 fd fc 3c 5e 8e 30 3d f3 38 e9 bc
       -0.02985795 0.030882364 0.043104522 -0.028469538
0001b0 f0 70 69 bb 9c 0c 09 bd ca c8 90 bd 87 27 52 3c
       -0.0035620295 -0.03345929 -0.070695475 0.012826807
0001c0 6a 9b c9 3c 1b bd 6e 3d ab 57 fa bc 33 a8 98 bd
       0.02461024 0.058285814 -0.030559381 -0.074539565
0001d0 b0 8d 8a 3c d6 93 86 bd 7b c1 0c 3c 28 e7 d7 bc
       0.016913265 -0.06571166 0.008591051 -0.026355341
0001e0 81 74 bb 3c cb ad 4e bd 46 9e f2 bb ef 31 69 3a
       0.022882702 -0.05045871 -0.0074041216 0.00088956853
0001f0 d3 0f db 3d 9d 63 30 bd 23 01 45 bc d0 93 a7 3c
       0.106963776 -0.04306375 -0.012024197 0.020456225
000200 14 45 d6 bb b6 d6 af 3c 57 f1 b7 bc 14 6e 66 3c
       -0.0065389965 0.021464687 -0.022453947 0.014064331
000210 85 4d de bc 15 cb 2d 3c 2c 57 dc 3c f9 ac 4c bd
       -0.027136574 0.010607501 0.026897036 -0.049969647
000220 87 1c bf bc a8 0d db bc c7 d4 43 bc fa ec 60 3c
       -0.023329033 -0.02673991 -0.011952586 0.013728375
000230 d1 c1 89 bc 60 6c b7 3b 32 2b 47 ba 13 3c a6 3c
       -0.016816052 0.005597636 -0.0007597684 0.020292317
000240 0d 51 a2 bc 6e 8a e7 bb 28 09 14 bd 8e 68 ae 3c
       -0.019814039 -0.0070660627 -0.036141545 0.02129009
000250 6e 81 60 3b f3 56 5b 3d 65 62 b1 3c 63 31 eb 3c
       0.0034256834 0.053549718 0.021653363 0.028710073
000260 6a 03 86 3c 02 e6 81 3c 27 85 9e 3c fe ec 70 bd
       0.01635905 0.015856747 0.019350601 -0.058819763
000270 18 31 9b bb ca be 46 bd a1 ed 11 3d bc d5 0f 3d
       -0.004736077 -0.048521794 0.03562701 0.035115942
000280 ac 71 70 bc a2 e9 d9 bb 07 de 57 3d f6 71 9e 3c
       -0.014675539 -0.0066501657 0.052701976 0.01934145
000290 2f 6d ad 3c 55 f0 2e bd e1 b7 2f bc 8e ba fc bc
       0.021170227 -0.042709667 -0.0107249925 -0.030850675
0002a0 89 9c d1 bc 36 47 48 bc df f7 01 bd 8f 5d eb bc
       -0.025587337 -0.012224009 -0.03173053 -0.028731136
0002b0 2d dc ac bc 9a fa 27 bc 97 93 81 bc 3f b6 ec bb
       -0.021101082 -0.010252619 -0.015817447 -0.007223874
0002c0 cd 32 af bc 21 50 c7 3c 99 f2 14 bc ae 9e a6 3c
       -0.021386528 0.0243302 -0.009091043 0.020339336
0002d0 6a d4 c0 bc a6 9c e5 3c 20 47 66 3c f7 8f dd 3c
       -0.023538787 0.028028797 0.014055043 0.027046187
0002e0 2e bd 78 3d d3 a6 34 bc 00 c8 84 bd 9a 28 2f bd
       0.06072729 -0.011026102 -0.064834595 -0.04276333
0002f0 c0 cf e1 bc 7d 27 f3 3c d6 51 73 3c a4 76 43 bc
       -0.027564883 0.029681915 0.014851054 -0.011930142
000300 77 45 f8 3b 74 b7 37 3c 8c dc 22 bc 8d f8 1c 3c
       0.00757664 0.011213172 -0.009940278 0.0095807435
000310 8d 19 96 3a 57 11 cb 3a 32 8d 46 3c 11 d1 03 3d
       0.0011451707 0.0015492839 0.0121186245 0.032181803
000320 53 53 2f 3b 4b ed da 3c 4a 24 d3 3b 3a 31 46 3d
       0.0026752546 0.026724478 0.006443535 0.04838679
000330 ad 4a 1d 3d bb c7 a5 3b 75 bf ba 3c 63 bc ae bb
       0.038401294 0.00505921 0.022796372 -0.005332516
000340 f6 56 5e bc 0b 7d 4f 3b 8a ad af bc e2 1f 4d 3d
       -0.013570538 0.0031660225 -0.021445055 0.050079234
000350 87 d6 19 39 2c 13 8f bc 3b 63 5c 3d 9d d4 e8 3c
       0.00014671135 -0.017465197 0.05380557 0.028421694
000360 6d 09 a0 3c 98 03 48 3c e0 ca 8f 3c ce 32 0c bd
       0.019535745 0.012207888 0.017552793 -0.03422814
000370 b3 65 8f 3a 44 fc c6 bc 07 3f 0e 3d 67 e9 a7 3c
       0.0010940343 -0.024290211 0.034728076 0.020497037
000380 78 50 43 3d 55 a6 9d 3d d0 0d 87 3c 4b d2 6b bd
       0.047684163 0.07697741 0.016486079 -0.057573598
000390 37 a6 02 bd 64 28 80 bc 66 29 c0 bc 0a 21 20 3d
       -0.031896796 -0.01564426 -0.02345724 0.03909401
0003a0 5b aa 4c bd de 38 f0 bc 56 df 30 bd 6d 49 c5 3c
       -0.04996715 -0.029323991 -0.04318174 0.024082864
0003b0 4a f1 84 3d 9d ac 36 3c 4f c8 ba bc 8b c2 e0 bc
       0.06491335 0.011149553 -0.022800593 -0.027436515
0003c0 2d 1b e5 bc cb c3 1f bc 8e 42 47 bc 62 38 3c 3c
       -0.02796706 -0.0097512705 -0.012161864 0.011488052
0003d0 6c 2d 21 3c 67 50 4f bd 39 33 9d bc 95 10 29 3c
       0.00983749 -0.050613787 -0.019189464 0.010318895
0003e0 c6 5e cc bc 0d a3 ad bc 2a 1d 9a 3c 54 70 36 3d
       -0.024947535 -0.021195913 0.018812735 0.04454072
0003f0 98 16 62 bc fe c7 2b bd c3 6d 03 3d 6f c3 22 3d
       -0.013799332 -0.041938774 0.0320871 0.03973716

network_body._body_endoder.seq_layers.0.bias f4 [128]
000000 00 00 00 00 00 00 00 00 00 00 00 00 00 00 00 00
       0.0 0.0 0.0 0.0
000010 00 00 00 00 00 00 00 00 00 00 00 00 00 00 00 00
       0.0 0.0 0.0 0.0
000020 00 00 00 00 00 00 00 00 00 00 00 00 00 00 00 00
       0.0 0.0 0.0 0.0
000030 00 00 00 00 00 00 00 00 00 00 00 00 00 00 00 00
       0.0 0.0 0.0 0.0
000040 00 00 00 00 00 00 00 00 00 00 00 00 00 00 00 00
       0.0 0.0 0.0 0.0
000050 00 00 00 00 00 00 00 00 00 00 00 00 00 00 00 00
       0.0 0.0 0.0 0.0
000060 00 00 00 00 00 00 00 00 00 00 00 00 00 00 00 00
       0.0 0.0 0.0 0.0
000070 00 00 00 00 00 00 00 00 00 00 00 00 00 00 00 00
       0.0 0.0 0.0 0.0
000080 00 00 00 00 00 00 00 00 00 00 00 00 00 00 00 00
       0.0 0.0 0.0 0.0
000090 00 00 00 00 00 00 00 00 00 00 00 00 00 00 00 00
       0.0 0.0 0.0 0.0
0000a0 00 00 00 00 00 00 00 00 00 00 00 00 00 00 00 00
       0.0 0.0 0.0 0.0
0000b0 00 00 00 00 00 00 00 00 00 00 00 00 00 00 00 00
       0.0 0.0 0.0 0.0
0000c0 00 00 00 00 00 00 00 00 00 00 00 00 00 00 00 00
       0.0 0.0 0.0 0.0
0000d0 00 00 00 00 00 00 00 00 00 00 00 00 00 00 00 00
       0.0 0.0 0.0 0.0
0000e0 00 00 00 00 00 00 00 00 00 00 00 00 00 00 00 00
       0.0 0.0 0.0 0.0
0000f0 00 00 00 00 00 00 00 00 00 00 00 00 00 00 00 00
       0.0 0.0 0.0 0.0
000100 00 00 00 00 00 00 00 00 00 00 00 00 00 00 00 00
       0.0 0.0 0.0 0.0
000110 00 00 00 00 00 00 00 00 00 00 00 00 00 00 00 00
       0.0 0.0 0.0 0.0
000120 00 00 00 00 00 00 00 00 00 00 00 00 00 00 00 00
       0.0 0.0 0.0 0.0
000130 00 00 00 00 00 00 00 00 00 00 00 00 00 00 00 00
       0.0 0.0 0.0 0.0
000140 00 00 00 00 00 00 00 00 00 00 00 00 00 00 00 00
       0.0 0.0 0.0 0.0
000150 00 00 00 00 00 00 00 00 00 00 00 00 00 00 00 00
       0.0 0.0 0.0 0.0
000160 00 00 00 00 00 00 00 00 00 00 00 00 00 00 00 00
       0.0 0.0 0.0 0.0
000170 00 00 00 00 00 00 00 00 00 00 00 00 00 00 00 00
       0.0 0.0 0.0 0.0
000180 00 00 00 00 00 00 00 00 00 00 00 00 00 00 00 00
       0.0 0.0 0.0 0.0
000190 00 00 00 00 00 00 00 00 00 00 00 00 00 00 00 00
       0.0 0.0 0.0 0.0
0001a0 00 00 00 00 00 00 00 00 00 00 00 00 00 00 00 00
       0.0 0.0 0.0 0.0
0001b0 00 00 00 00 00 00 00 00 00 00 00 00 00 00 00 00
       0.0 0.0 0.0 0.0
0001c0 00 00 00 00 00 00 00 00 00 00 00 00 00 00 00 00
       0.0 0.0 0.0 0.0
0001d0 00 00 00 00 00 00 00 00 00 00 00 00 00 00 00 00
       0.0 0.0 0.0 0.0
0001e0 00 00 00 00 00 00 00 00 00 00 00 00 00 00 00 00
       0.0 0.0 0.0 0.0
0001f0 00 00 00 00 00 00 00 00 00 00 00 00 00 00 00 00
       0.0 0.0 0.0 0.0

network_body._body_endoder.seq_layers.2.weight f4 [128, 128]
000000 70 4b 0f bb f8 d9 82 3d e3 72 32 be ef ce 32 bd
       -0.0021865033 0.063892305 -0.17426638 -0.04365438
000010 f1 db d3 bd 8b cb fb bd 0a 58 ef 3d c7 37 10 3e
       -0.10344685 -0.12294682 0.11686714 0.14083777
000020 56 53 58 3e 69 39 69 be 41 b8 89 3c 7e ea 1d bd
       0.2112554 -0.22775806 0.016811492 -0.038553707
000030 99 40 45 be 2f 09 e1 bb d0 c3 1c 3e 6a 04 80 3e
       -0.19262923 -0.00686755 0.15309072 0.25003368
000040 fa 9b 92 bd 52 1c 45 be e9 50 51 3d 3b c0 66 bd
       -0.071586564 -0.19249085 0.051102553 -0.05633567
000050 97 15 fa 3b 56 98 56 3c a9 4a af bd 9a 40 0a 3e
       0.0076319682 0.013097843 -0.08559162 0.13501206
000060 ad ca cd 3b 8e 92 b8 3d 9c c3 11 3d f9 6e 1f 3b
       0.0062802644 0.09012328 0.03558694 0.002432762
000070 41 b0 87 bc fb bb aa 3d 86 f5 88 bd 64 4c e0 3c
       -0.016563537 0.08336636 -0.06687455 0.027380176
000080 2c 58 35 bd 2e 39 0e 3d c7 d4 c7 3d 46 6e 1f 3e
       -0.04427354 0.0347225 0.09757381 0.1556941
000090 07 5d 24 3d 86 4d fb 3d 51 03 2f 3e b6 60 19 be
       0.04012778 0.12270646 0.17091109 -0.14978299
0000a0 d3 06 bb bd 07 13 fd 3d 60 80 86 bd 2e 4d f2 3c
       -0.09132161 0.12357145 -0.06567454 0.029577818
0000b0 56 f0 ea 3d 0c 12 7f bd 6a ee 71 bc 82 4e 9a 3d
       0.11471622 -0.06227307 -0.014766315 0.075345054
0000c0 61 2c ad ba 5e fa 5f 3c 50 20 bf bd 84 30 a3 3d
       -0.0013212078 0.013670532 -0.09332335 0.07968238
0000d0 fc 80 ac 3d b2 b9 93 3d 97 fc bd bc 22 3e 8c bc
       0.08423039 0.07213153 -0.023191733 -0.017119471
0000e0 05 e6 4f 3a df 94 06 bd 26 72 21 bc c5 52 1a be
       0.0007930699 -0.03285682 -0.009853875 -0.15070637
0000f0 8b 45 43 3d 0e 43 ea bd 4c f0 b1 bc f3 93 6b bd
       0.047673743 -0.11438571 -0.021721028 -0.057514142
000100 01 d3 1a bd 39 30 4b bd 0f 87 d4 3d e0 c6 26 be
       -0.037798885 -0.049606536 0.10377323 -0.16286802
000110 54 84 d0 bc 9a 7a 11 3e 25 99 df 3d 29 7c 2d bd
       -0.025453724 0.14206925 0.10917882 -0.042354736
000120 3e cf da bc 34 e7 e0 3d 5a f4 e3 3c 24 ca a4 3d
       -0.026710149 0.109815985 0.027826477 0.08046368
000130 00 3f a2 bd 68 a7 15 be af d7 1a be e0 c0 17 be
       -0.079221725 -0.14614642 -0.1512134 -0.1481967
000140 df a4 97 3c 08 0d 6e 3d 15 00 04 bd 5e 05 f0 bc
       0.018511234 0.058117896 -0.03222664 -0.029299434
000150 b7 58 92 bd 21 a9 c2 bd 2c 38 cc bd 65 7a 85 3d
       -0.07145827 -0.09504915 -0.099716514 0.065174855
000160 36 5d 1e bd 6a 36 73 bc 96 e5 bb 3c 8e 6a aa bd
       -0.03866311 -0.014844516 0.022936624 -0.08321105
000170 fd a0 47 3d cd b2 9b bb 04 7d 76 3d eb 08 30 bd
       0.048737515 -0.0047515393 0.060177818 -0.042977255
000180 65 b4 86 bd 14 07 0f 3e 4c 75 83 bc 36 ec a8 bb
       -0.06577376 0.13967544 -0.016047142 -0.0051551117
000190 31 90 14 bd 05 5b 7d bd 98 fb 44 3e 7a 80 8a be
       -0.036270324 -0.06185438 0.192366 -0.27051145
0001a0 7e e9 16 3e 3d 45 a5 bd 8e 15 05 be 60 d1 65 3d
       0.14737508 -0.08069847 -0.12996504 0.05610788
0001b0 a3 a7 6d 3d 2a a6 d0 bd d7 36 10 be 03 21 db bc
       0.0580212 -0.10187943 -0.1408342 -0.02674914
0001c0 6b ba 2f 3d 3a ed 83 bd db ca ab bd 84 f2 b5 bd
       0.04290239 -0.06441732 -0.08388301 -0.08884147
0001d0 7e b8 17 bd e1 83 c9 3d 8b 24 32 3e 2e 21 c0 bc
       -0.03704118 0.09839607 0.17396753 -0.023453321
0001e0 aa bb f7 3d 46 d3 8c be 02 ca 17 3e 36 8c 74 b6
       0.12096341 -0.2750494 0.14823154 -3.6440447e-06
0001f0 a2 a8 18 be 06 ab 48 3e de 2c 02 3e 9f 4b 1d bc
       -0.14908078 0.1959649 0.12712428 -0.009600549
000200 59 ea 59 3d 69 04 06 3e e1 5c 07 3d bc 54 2b bd
       0.053202007 0.1308762 0.03304756 -0.041828856
000210 09 19 d8 3d 45 55 26 3d e5 0b 8d 3d 98 f5 3a 3d
       0.1055165 0.040608663 0.06887034 0.045644373
000220 db 2b fd bc ad c8 20 bd a7 67 e5 3d 55 45 3e 3d
       -0.030904701 -0.03925388 0.11201411 0.04645284
000230 02 5a 36 3c 04 ed 8f 3b c2 d0 72 3d db ab fb bd
       0.011129858 0.004392268 0.05928112 -0.12288638
000240 fe 66 ae 3b de 55 7c bd a5 aa 4c 3d 58 5e 34 3e
       0.005322336 -0.061605327 0.049967427 0.17614114
000250 90 9d e0 3c 96 fc 08 3e 0c b7 e3 bd 7d cf 06 be
       0.027418882 0.13377604 -0.11118898 -0.13165088
000260 05 f7 13 3d 39 36 56 3d cb 6d 6e bd 63 d5 8e 3d
       0.036124248 0.052297805 -0.058210175 0.06974294
000270 3f 4b 10 3c b6 16 fb 3d 15 3c 10 3b d5 b1 8c 3d
       0.008807003 0.12260191 0.0022008468 0.06869856
000280 f4 75 a5 bd 6f 5f ea 3c 4f ec 63 bd ff 53 dc 3c
       -0.080791384 0.02860996 -0.055645283 0.026895521
000290 22 50 35 bc ec d5 83 bc cf 9f bd bc c8 4c eb 3c
       -0.011066468 -0.016093217 -0.023147492 0.028723136
0002a0 11 14 59 bd 4b 47 d9 bc 0a c2 e1 bc 02 0a 45 3e
       -0.052997652 -0.026523253 -0.027558345 0.19242099
0002b0 a6 a1 91 3c bc 85 9f bd a2 bc 4e 3d 1f 99 c7 bd
       0.017777275 -0.0778918 0.050472863 -0.097460024
0002c0 5e 5c 78 bd a7 c4 02 3e a7 94 9b 3c e4 0e c7 bc
       -0.060634963 0.1277033 0.018991781 -0.024299093
0002d0 a4 32 35 3e 96 17 af bc 1f a8 4d bd f6 c9 04 bd
       0.17695099 -0.021373551 -0.05020916 -0.032419167
0002e0 46 1d b9 bd f3 89 91 3d 0b 4f bc 3c b1 aa 26 3d
       -0.090387866 0.0710639 0.02298691 0.040690128
0002f0 31 ca 82 3b 93 12 34 3e 95 a4 13 bc 9a f0 5c bd
       0.0039913883 0.1758521 -0.009011407 -0.053940393
000300 e1 ed a0 bd 63 63 d9 bd b6 d8 73 3d 3f d4 68 bd
       -0.07857872 -0.1061466 0.059532844 -0.05684304
000310 0e c6 53 3d a0 f2 25 bd a7 00 37 3d df 06 5f be
       0.05170255 -0.04051459 0.044678356 -0.21779965
000320 d7 b3 01 3d e5 b6 17 bd a5 65 0d 3d bd 69 fd 3c
       0.03166565 -0.037039656 0.034520764 0.030934209
000330 5d d9 74 3d a8 97 b2 3d 99 25 62 bd 5a 10 ca 3d
       0.059777606 0.087203324 -0.055211637 0.098664
000340 41 c1 d8 3d f3 e2 84 3d 18 bd 72 bb fa 53 39 3d
       0.10583735 0.064886 -0.0037038978 0.045246102
000350 fe 18 39 bd c9 31 93 3d a3 2d cb 3d 39 9a f5 bd
       -0.04518985 0.0718723 0.09920814 -0.11992306
000360 06 52 ad bd 0b 2b 0a 3e 0f 67 d7 3d 65 f4 20 be
       -0.0846291 0.13492982 0.10517704 -0.15718229
000370 f3 de 95 bd a1 88 33 3c 1f bf 93 3d bb 54 29 3d
       -0.07317915 0.010957868 0.07214188 0.04134057
000380 46 ff b9 bb 3a 50 26 3c f3 72 e2 bd 27 54 84 bd
       -0.005676183 0.010150963 -0.11057081 -0.06461363
000390 fd dc 8d 3c 48 f7 02 be 63 08 f3 bb e9 73 2d bd
       0.01731729 -0.12789643 -0.0074167713 -0.04234687
0003a0 a1 2c 54 3d f7 63 33 3e a6 e9 c9 3c 08 20 00 3e
       0.051800374 0.17518602 0.024647545 0.12512219
0003b0 45 3f 2a bd ad d8 04 be ee 57 15 3d 7e 25 2a bd
       -0.041564245 -0.1297328 0.03646081 -0.04153966
0003c0 da da 78 3c e6 52 d3 3c cc bc 90 3b 59 2c b6 bd
       0.015188897 0.025796365 0.0044170376 -0.088951774
0003d0 ac be 18 3d ce fc 7f 3d 1f 1a fb 3c ce b3 77 3c
       0.037291214 0.062496953 0.030652104 0.015118552
0003e0 a0 64 93 3d dc a8 72 3d 5e 00 09 3e ac 34 00 3d
       0.07196927 0.059243068 0.13379046 0.03130023
0003f0 8c 72 09 be 9d 1f 7c bd bb a7 d7 3d 2a 91 aa 3d
       -0.13422602 -0.061553586 0.10530039 0.08328469

network_body._body_endoder.seq_layers.2.bias f4 [128]
000000 00 00 00 00 00 00 00 00 00 00 00 00 00 00 00 00
       0.0 0.0 0.0 0.0
000010 00 00 00 00 00 00 00 00 00 00 00 00 00 00 00 00
       0.0 0.0 0.0 0.0
000020 00 00 00 00 00 00 00 00 00 00 00 00 00 00 00 00
       0.0 0.0 0.0 0.0
000030 00 00 00 00 00 00 00 00 00 00 00 00 00 00 00 00
       0.0 0.0 0.0 0.0
000040 00 00 00 00 00 00 00 00 00 00 00 00 00 00 00 00
       0.0 0.0 0.0 0.0
000050 00 00 00 00 00 00 00 00 00 00 00 00 00 00 00 00
       0.0 0.0 0.0 0.0
000060 00 00 00 00 00 00 00 00 00 00 00 00 00 00 00 00
       0.0 0.0 0.0 0.0
000070 00 00 00 00 00 00 00 00 00 00 00 00 00 00 00 00
       0.0 0.0 0.0 0.0
000080 00 00 00 00 00 00 00 00 00 00 00 00 00 00 00 00
       0.0 0.0 0.0 0.0
000090 00 00 00 00 00 00 00 00 00 00 00 00 00 00 00 00
       0.0 0.0 0.0 0.0
0000a0 00 00 00 00 00 00 00 00 00 00 00 00 00 00 00 00
       0.0 0.0 0.0 0.0
0000b0 00 00 00 00 00 00 00 00 00 00 00 00 00 00 00 00
       0.0 0.0 0.0 0.0
0000c0 00 00 00 00 00 00 00 00 00 00 00 00 00 00 00 00
       0.0 0.0 0.0 0.0
0000d0 00 00 00 00 00 00 00 00 00 00 00 00 00 00 00 00
       0.0 0.0 0.0 0.0
0000e0 00 00 00 00 00 00 00 00 00 00 00 00 00 00 00 00
       0.0 0.0 0.0 0.0
0000f0 00 00 00 00 00 00 00 00 00 00 00 00 00 00 00 00
       0.0 0.0 0.0 0.0
000100 00 00 00 00 00 00 00 00 00 00 00 00 00 00 00 00
       0.0 0.0 0.0 0.0
000110 00 00 00 00 00 00 00 00 00 00 00 00 00 00 00 00
       0.0 0.0 0.0 0.0
000120 00 00 00 00 00 00 00 00 00 00 00 00 00 00 00 00
       0.0 0.0 0.0 0.0
000130 00 00 00 00 00 00 00 00 00 00 00 00 00 00 00 00
       0.0 0.0 0.0 0.0
000140 00 00 00 00 00 00 00 00 00 00 00 00 00 00 00 00
       0.0 0.0 0.0 0.0
000150 00 00 00 00 00 00 00 00 00 00 00 00 00 00 00 00
       0.0 0.0 0.0 0.0
000160 00 00 00 00 00 00 00 00 00 00 00 00 00 00 00 00
       0.0 0.0 0.0 0.0
000170 00 00 00 00 00 00 00 00 00 00 00 00 00 00 00 00
       0.0 0.0 0.0 0.0
000180 00 00 00 00 00 00 00 00 00 00 00 00 00 00 00 00
       0.0 0.0 0.0 0.0
000190 00 00 00 00 00 00 00 00 00 00 00 00 00 00 00 00
       0.0 0.0 0.0 0.0
0001a0 00 00 00 00 00 00 00 00 00 00 00 00 00 00 00 00
       0.0 0.0 0.0 0.0
0001b0 00 00 00 00 00 00 00 00 00 00 00 00 00 00 00 00
       0.0 0.0 0.0 0.0
0001c0 00 00 00 00 00 00 00 00 00 00 00 00 00 00 00 00
       0.0 0.0 0.0 0.0
0001d0 00 00 00 00 00 00 00 00 00 00 00 00 00 00 00 00
       0.0 0.0 0.0 0.0
0001e0 00 00 00 00 00 00 00 00 00 00 00 00 00 00 00 00
       0.0 0.0 0.0 0.0
0001f0 00 00 00 00 00 00 00 00 00 00 00 00 00 00 00 00
       0.0 0.0 0.0 0.0

action_model._continuous_distribution.log_sigma f4 [1, 48]
000000 00 00 00 00 00 00 00 00 00 00 00 00 00 00 00 00
       0.0 0.0 0.0 0.0
000010 00 00 00 00 00 00 00 00 00 00 00 00 00 00 00 00
       0.0 0.0 0.0 0.0
000020 00 00 00 00 00 00 00 00 00 00 00 00 00 00 00 00
       0.0 0.0 0.0 0.0
000030 00 00 00 00 00 00 00 00 00 00 00 00 00 00 00 00
       0.0 0.0 0.0 0.0
000040 00 00 00 00 00 00 00 00 00 00 00 00 00 00 00 00
       0.0 0.0 0.0 0.0
000050 00 00 00 00 00 00 00 00 00 00 00 00 00 00 00 00
       0.0 0.0 0.0 0.0
000060 00 00 00 00 00 00 00 00 00 00 00 00 00 00 00 00
       0.0 0.0 0.0 0.0
000070 00 00 00 00 00 00 00 00 00 00 00 00 00 00 00 00
       0.0 0.0 0.0 0.0
000080 00 00 00 00 00 00 00 00 00 00 00 00 00 00 00 00
       0.0 0.0 0.0 0.0
000090 00 00 00 00 00 00 00 00 00 00 00 00 00 00 00 00
       0.0 0.0 0.0 0.0
0000a0 00 00 00 00 00 00 00 00 00 00 00 00 00 00 00 00
       0.0 0.0 0.0 0.0
0000b0 00 00 00 00 00 00 00 00 00 00 00 00 00 00 00 00
       0.0 0.0 0.0 0.0

action_model._continuous_distribution.mu.weight f4 [48, 128]
000000 2f 06 03 3c 44 5b 01 3c 95 43 b0 b9 85 34 e2 ba
       0.00799708 0.007895295 -0.00033619688 -0.0017258084
000010 fa 50 db 3b 73 51 be 3c 32 5d 48 bc 9b 8b 07 3d
       0.006693003 0.023232197 -0.012229251 0.033092123
000020 f2 32 10 bc 98 2c 70 3b f7 3c 9d bc 32 7a 86 3c
       -0.008801209 0.0036647674 -0.01919411 0.01641569
000030 b1 33 be 3b c8 81 7b 39 27 97 b3 bc 9f e3 b0 3a
       0.005804502 0.00023985573 -0.021922661 0.0013495571
000040 84 56 93 3c fc d0 01 bd 7a c7 5f ba d1 28 93 bc
       0.01798559 -0.031693444 -0.0008536499 -0.017963799
000050 6f 5e 8b ba 33 99 28 3c 3f 20 85 3c 73 5d b2 bc
       -0.0010633002 0.010290432 0.016250728 -0.021773076
000060 b6 1e 91 ba d2 c3 50 3b 18 76 66 3d e8 70 59 bc
       -0.0011071775 0.0031855 0.056264967 -0.013271548
000070 3a 17 6a bb 4b ed 1e bd cd 04 c8 bc 0f 0e cc 3c
       -0.003571941 -0.03880052 -0.024416352 0.024909047
000080 44 da 9b 3c ff 2b 21 bd 75 8a e0 bc 92 f1 bb 3b
       0.019024976 -0.0393486 -0.027409771 0.0057355845
000090 a8 82 62 3c 02 c3 96 bc f6 92 99 bc 64 72 96 bc
       0.013825096 -0.018403534 -0.018746834 -0.018365093
0000a0 6e 3b a3 3b 12 50 69 3c 9e 81 4a bb f5 ce 21 3c
       0.00498145 0.014240282 -0.0030900012 0.009876003
0000b0 0d 77 16 3c 3b 4c 98 bb 43 3c 1a bc fe 7a ac bc
       0.009183657 -0.0046477593 -0.009413782 -0.021054741
0000c0 0f fc 5a 3d 7b 19 cd 3b 03 03 12 3d c5 b8 27 3c
       0.053463038 0.006259141 0.035647403 0.010236924
0000d0 94 13 b3 3c 52 65 94 3c 4c 03 0a 3c 23 7a e3 3c
       0.021859922 0.01811472 0.008423638 0.0277682
0000e0 f3 5a a2 bc 0c 52 be 3c fb f0 9b 3c 17 31 66 3c
       -0.019818759 0.023232482 0.019035807 0.01404979
0000f0 85 f0 fb ba e3 e2 48 3b bd 47 5a bc fb 78 bd 3c
       -0.0019221461 0.0030652813 -0.013322768 0.023128977
000100 e2 4f 3a 3c b9 c2 21 3c da 32 03 bd 12 b9 ce 3c
       0.011371585 0.009873086 -0.032030918 0.025234733
000110 3d bf e1 bc a6 1a 03 3d f4 a2 35 bd 25 bf 87 bc
       -0.02755701 0.032007836 -0.044344857 -0.016570637
000120 0c 19 8d bc cb 21 9d bb 52 91 d8 3c 3d 04 91 bc
       -0.017223857 -0.004795288 0.026436482 -0.017702216
000130 d3 9a 25 3d a9 0b 4c bc 39 2f a5 3c ab 51 39 bc
       0.040430855 -0.012453952 0.02016412 -0.011310975
000140 a6 9d 27 3a 12 9b e8 bb ea 99 bd 3a 2d 02 ad bc
       0.0006394036 -0.007098564 0.0014465426 -0.021119202
000150 60 3d 89 3c 7e 6f 2e bd 53 43 71 3c 10 09 64 ba
       0.016752899 -0.042586796 0.014725524 -0.000869886
000160 a7 7d 89 b9 ef fa 07 3c 6a 15 d7 bb 34 46 2f 3c
       -0.00026224295 0.008299573 -0.006563832 0.01069789
000170 e7 98 02 bc 3f 9b 5f 3b 24 84 14 bd 4b c7 af bb
       -0.007971025 0.0034119633 -0.03625883 -0.0053643337
000180 70 37 5f 3c 85 ce 4c bb 25 ad 71 bc 50 a6 d8 3b
       0.013624057 -0.0031251025 -0.0147507535 0.006611623
000190 b3 96 23 bc c0 7e 7f ba f3 ce fc bc 6f 8c b6 3b
       -0.00998466 -0.0009746365 -0.0308604 0.00557094
0001a0 48 b2 2b bc 3a 6f 8a 3c 4f 19 74 3b fa 68 d5 3a
       -0.010479517 0.01689874 0.003724653 0.0016281896
0001b0 27 48 4d bb ee 59 11 3a a8 bd 67 bb af 5e dd b8
       -0.0031323524 0.00055447116 -0.0035360847 -0.000105557374
0001c0 c3 71 b7 3a 7d 3b cf bc c2 c7 74 3c 7c 7f 86 bb
       0.0013995696 -0.02529692 0.014940204 -0.004104553
0001d0 73 c7 f8 bc 82 10 b9 3b db d0 03 3b 9c 49 2a 3c
       -0.030368542 0.00564772 0.0020113501 0.010393526
0001e0 00 0e c7 bc 1d 18 85 bb 5d 8c 11 3c fa da 16 bd
       -0.024298668 -0.0040617124 0.008883563 -0.036829926
0001f0 35 7b 6f 3c bf ae 4a 3c f4 3c c2 bb fa 04 fc bb
       0.014616777 0.012370764 -0.0059276763 -0.007691023
000200 aa f4 ac bc 40 11 b8 3c f6 bf 9b bc 6f d1 31 3c
       -0.021112759 0.022469163 -0.019012433 0.0108531555
000210 75 32 b0 3c 95 8d 51 3c f0 12 2a 3c 95 2b f6 bc
       0.021508435 0.012790103 0.010380492 -0.030050078
000220 56 b1 a5 ba 43 f5 04 3d 9d 3a c7 bb b3 b2 29 bd
       -0.0012641351 0.032460462 -0.0060799853 -0.041430186
000230 1a c9 0d bc 44 79 43 3c 97 af 0c 3d 73 6f fb 3c
       -0.008653903 0.011930767 0.034347143 0.030692792
000240 4e ff 8b 3c 9f b0 fa 3b fa 9f 9a bc ff 19 76 3b
       0.017089512 0.0076504494 -0.01887511 0.0037552116
000250 af c1 08 bd f3 26 1c 3c af 58 02 bd 1b 13 29 3c
       -0.033387836 0.009530771 -0.031822857 0.0103194965
000260 f3 f1 8c bc ec 59 ae bc 53 a2 04 bc 88 05 e1 3a
       -0.017205214 -0.021283112 -0.008095342 0.0017167786
000270 3f d6 94 3c f7 dc ec bb 88 dd 7c 3c 61 93 34 3b
       0.018168567 -0.0072284895 0.015433677 0.0027553665
000280 4f 40 f8 3c 7b 08 9e bc ff 1d a7 3c 12 5c 00 3d
       0.030304102 -0.019291153 0.020400045 0.031337805
000290 b7 2d c7 3c 93 63 de 3b ba b9 2c ba 4b d2 9b 3c
       0.02431379 0.0067867725 -0.0006588955 0.019021174
0002a0 7b b5 a7 3c 27 22 ad bc 33 b5 ef bb 40 0f 01 bd
       0.020472279 -0.02113445 -0.007315302 -0.031508684
0002b0 5b 35 ae 3c 67 29 0a 3d 77 95 4a bc 5a a5 74 3c
       0.021265676 0.03373089 -0.012364737 0.014932001
0002c0 17 64 af 3c d3 54 0d 3c 97 a2 99 bb d0 fd 43 3c
       0.021410031 0.008626181 -0.0046885717 0.011962369
0002d0 97 e2 73 bc 0c e9 01 bd 66 60 9f bb 8d 28 2d bc
       -0.014885566 -0.03171639 -0.0048637865 -0.01056875
0002e0 9c f7 3d 3c ed dd ab 3b d6 ff 9a bc 95 5d 15 bd
       0.011594679 0.0052449615 -0.01892082 -0.0364662
0002f0 e7 38 a7 bc 7c 4c 86 3c f5 56 bb 3a bf dd 0e 3c
       -0.020412875 0.016393892 0.0014292883 0.008719861
000300 8d d4 27 3c 43 1f 25 bc 8b e5 6c b9 03 b0 c4 3c
       0.010243547 -0.010078254 -0.00022592225 0.02400971
000310 0f b8 26 3d f7 05 9c 3a b5 c2 f2 bc 07 d6 4f bc
       0.040702876 0.0011903633 -0.02963386 -0.012685305
000320 cc 1a 33 3c 80 ab c0 bc 84 2f b5 3c 23 98 d3 bb
       0.010931682 -0.023519278 0.022117384 -0.006457345
000330 a3 cb 1f 3c 63 a4 a5 3c 6f 0a 43 3b ab 18 b9 bb
       0.009753141 0.020219987 0.0029760858 -0.0056486926
000340 8d 57 18 bd 31 2e 3a 3d 74 b9 98 3c 6f 5b 21 bc
       -0.03719287 0.045454208 0.018643118 -0.00984846
000350 03 cf d0 3b 1a dd cf ba a6 f3 b5 bb 2d 31 3a bc
       0.006372334 -0.001585874 -0.005552727 -0.0113642635
000360 e1 b4 06 bc 8b 5c 13 3c 66 13 94 3c 4d ea 9a 3c
       -0.008221836 0.008994232 0.018075656 0.018910551
000370 1f e4 5a 3b 6f 2b eb 3a 40 bc 00 bd af e3 28 3d
       0.003340013 0.0017942021 -0.03142953 0.04123276
000380 4f 0a 3f 3c bb f8 da 3c 5b 72 9f 3c 5a 07 83 bc
       0.011660173 0.026729932 0.019463709 -0.015994716
000390 02 5e 43 bc 31 77 0a bd 78 8c 0e 3d 58 7d d0 3c
       -0.011924269 -0.033805076 0.03480193 0.025450394
0003a0 d3 9f 25 3c cd d5 14 bc ca 02 6e 3c e0 cb 3b 3b
       0.010108906 -0.009084177 0.014527032 0.0028655455
0003b0 8f 68 d3 bb cd 62 2c bc 75 78 f8 ba fa 47 a9 bb
       -0.0064516733 -0.010521603 -0.0018956797 -0.005166051
0003c0 77 2c 78 bc a6 70 23 3a 27 8b 25 bc b2 06 11 3c
       -0.01514732 0.00062347425 -0.010103977 0.008851694
0003d0 ab 1a e5 3c bf d2 59 3c 5d 3b eb 3b af 3a 9f bc
       0.027966818 0.013294875 0.0071787075 -0.019437162
0003e0 3a 29 65 3c e7 c1 0a 3d 15 3c 35 3c eb 53 0a bd
       0.01398688 0.033876326 0.011061688 -0.033771437
0003f0 f6 48 25 3d 40 4c e7 bc f3 be d7 3b 50 61 a9 3a
       0.040352784 -0.028234601 0.006584042 0.0012922678

action_model._continuous_distribution.mu.bias f4 [48]
000000 00 00 00 00 00 00 00 00 00 00 00 00 00 00 00 00
       0.0 0.0 0.0 0.0
000010 00 00 00 00 00 00 00 00 00 00 00 00 00 00 00 00
       0.0 0.0 0.0 0.0
000020 00 00 00 00 00 00 00 00 00 00 00 00 00 00 00 00
       0.0 0.0 0.0 0.0
000030 00 00 00 00 00 00 00 00 00 00 00 00 00 00 00 00
       0.0 0.0 0.0 0.0
000040 00 00 00 00 00 00 00 00 00 00 00 00 00 00 00 00
       0.0 0.0 0.0 0.0
000050 00 00 00 00 00 00 00 00 00 00 00 00 00 00 00 00
       0.0 0.0 0.0 0.0
000060 00 00 00 00 00 00 00 00 00 00 00 00 00 00 00 00
       0.0 0.0 0.0 0.0
000070 00 00 00 00 00 00 00 00 00 00 00 00 00 00 00 00
       0.0 0.0 0.0 0.0
000080 00 00 00 00 00 00 00 00 00 00 00 00 00 00 00 00
       0.0 0.0 0.0 0.0
000090 00 00 00 00 00 00 00 00 00 00 00 00 00 00 00 00
       0.0 0.0 0.0 0.0
0000a0 00 00 00 00 00 00 00 00 00 00 00 00 00 00 00 00
       0.0 0.0 0.0 0.0
0000b0 00 00 00 00 00 00 00 00 00 00 00 00 00 00 00 00
       0.0 0.0 0.0 0.0

action_model._discrete_distribution.branches.0.weight f4 [1, 128]
000000 58 1a dc 3b c2 21 ff bb bb 37 61 3b f3 2b cb 3c
       0.0067170076 -0.0077860067 0.0034365493 0.02480123
000010 68 ba 49 3c 0f 34 27 bc 47 3d e6 3a 7b 61 32 3c
       0.012312509 -0.010205283 0.001756587 0.010887499
000020 ef 7d 0d bb 9f 1c 17 3b c3 46 c6 3b fd c8 e0 3a
       -0.0021589955 0.002305783 0.006050916 0.0017149743
000030 de 21 0e bc 8b 3a 5a 3a dc a3 06 3c 72 98 d2 3b
       -0.008675067 0.00083247636 0.008217778 0.0064268643
000040 c8 8f 4b 3b ab 53 70 bb 07 2d 11 bb 25 85 a0 3a
       0.0031061042 -0.0036670964 -0.0022152083 0.0012246711
000050 6e cb 3c 3c c6 ba 41 bc f3 91 d3 b8 0f 73 97 bc
       0.011523111 -0.011824315 -0.00010088449 -0.018487481
000060 02 18 06 bc f8 e6 60 bc 02 e9 48 bb eb e3 7e bc
       -0.008184435 -0.013726942 -0.0030656462 -0.01555727
000070 30 e7 92 bb 4e de a6 38 81 3b 98 3b ab 7b 48 bc
       -0.004483126 7.956904e-05 0.0046457653 -0.012236516
000080 ff a2 48 3c 37 e1 03 3c 19 b9 83 3b 75 84 12 bc
       0.012245893 0.008049301 0.004019868 -0.008942713
000090 f4 f4 97 bb 73 ea 92 bc 73 5f f2 3b c7 11 3b 3c
       -0.004637355 -0.01793406 0.0073966323 0.011417813
0000a0 1a 01 51 3c 23 eb 3c 3c 77 2b b2 bb 0c 1b b0 bb
       0.01275661 0.01153067 -0.0054373103 -0.005374318
0000b0 17 40 c3 bb 3a 85 0d 3b 20 77 2f 3b f3 8c 12 3c
       -0.005958568 0.0021594302 0.0026773885 0.008944738
0000c0 27 85 cc bb 6c 42 a7 3b b2 77 d4 b9 d3 43 16 bb
       -0.006241459 0.0051043537 -0.0004052497 -0.002292861
0000d0 3f 5e 2e ba fb 93 c6 bb 3f 44 99 b8 87 4e c0 3b
       -0.0006651617 -0.006060121 -7.30832e-05 0.005868736
0000e0 95 32 f0 3a b9 37 8c 3c bf 0d 0d 3c 58 8c e7 3b
       0.0018325621 0.017116414 0.008609234 0.007066291
0000f0 5f bc 76 bb 17 2e 0f 3c 02 a5 85 3a a3 57 31 bb
       -0.00376489 0.008739016 0.0010196271 -0.0027060292
000100 a0 cd d2 3a bf 54 f6 3a aa 78 16 3b 57 90 1a b9
       0.001608301 0.0018793567 0.0022960105 -0.00014740355
000110 52 f0 94 3b 13 2f 80 bb c4 76 3b bb ca c8 4a bc
       0.00454525 -0.0039118617 -0.0028604725 -0.012376973
000120 4c 2c 3a 3b 0b 6f 1b bc 68 0d 65 bc af 1e a2 3b
       0.002840775 -0.009486924 -0.013980247 0.0049475054
000130 33 0c 17 3b 4b ed 41 3a 90 b2 0e 3c 2b e2 1d 3b
       0.0023048043 0.0007397725 0.008709565 0.0024091105
000140 c2 89 41 3b a0 81 b9 bb ba 66 25 bc 3f 18 35 bb
       0.0029531573 -0.0056612045 -0.010095293 -0.002763286
000150 92 fe f0 3b f6 27 2a bc 7e b0 cc 37 7a 5a e5 3b
       0.007354566 -0.010385504 2.440088e-05 0.006999311
000160 9b 51 89 bc 0b 7c 1e 3c 1a 4a 3a 3b 38 a9 dd 3b
       -0.016762545 0.009673129 0.0028425516 0.006764557
000170 69 36 a3 3b 32 32 d9 bb 79 fc 2c 3c fd f4 fd 3b
       0.0049808514 -0.006628298 0.010558241 0.007750152
000180 9a b6 52 3c b6 eb 24 3c f4 3c 83 bc 2f 33 8d 3a
       0.012860918 0.0100659635 -0.016020276 0.00107727
000190 cd 7b 73 3b 51 11 44 3b be d3 a8 bb 12 e6 7c 3b
       0.0037152648 0.0029917548 -0.0051521948 0.003858928
0001a0 47 be 59 bc 5f a5 96 bb e7 6a a7 bb 7c b6 01 3c
       -0.013289995 -0.0045973505 -0.0051091793 0.007917043
0001b0 4f c6 25 bc 03 68 a6 3b 6f 98 49 3c ad 1f e3 bb
       -0.010118081 0.005078317 0.012304409 -0.0069312663
0001c0 af 06 63 bb cf 1d 48 bb a9 cc a2 bb 39 60 23 bc
       -0.0034641435 -0.0030535345 -0.004968245 -0.009971672
0001d0 c8 64 74 bb 5b 52 89 3c 3b 03 b8 ba 8b c0 51 3c
       -0.0037291516 0.016762903 -0.0014039049 0.0128022535
0001e0 f9 14 96 3c 23 31 8f bb 02 11 e5 bb 52 57 5f ba
       0.018320547 -0.004369871 -0.006990553 -0.00085197866
0001f0 ef 58 f6 bb 87 26 46 3c 04 c1 88 bb ab 18 8c 3c
       -0.007517926 0.012094147 -0.0041734 0.017101606

network_body._body_endoder.seq_layers.0.weight f4 [128, 805]
000000 c1 64 52 bc 36 37 c8 3c 6d ce 68 bd 80 27 cf 3b
       -0.012841404 0.02444039 -0.056837488 0.0063218474
000010 09 7d a0 bc 0b 03 8d bc ec 7e 15 3d 4c 6f 4f 3b
       -0.019590871 -0.017213365 0.036497995 0.0031652031
000020 be 63 10 bd eb 85 d5 3c c6 8c 4f 3c 0a 31 b3 3b
       -0.03525137 0.026064834 0.01266784 0.0054684924
000030 2d 5b 66 3c 43 e2 19 bc a8 b5 7c bd 6f 4a d6 bc
       0.014059824 -0.009392324 -0.06169668 -0.02615854
000040 f1 55 a8 bb 33 99 ed 3c 41 64 15 bd e4 aa 94 bb
       -0.005137198 0.029003715 -0.036472563 -0.0045369733
000050 12 5e 25 3c 75 70 33 3c e0 64 4e 3c 89 5b 0a 3c
       0.010093229 0.010952105 0.012597293 0.008444675
000060 9a ee 59 3d 8e e8 14 bd 17 08 95 3c df a1 2e 3c
       0.053206064 -0.036354594 0.018192334 0.01065871
000070 8a d4 48 3c 43 09 2b bd b7 c8 85 bc d5 13 1e 3c
       0.0122577045 -0.04175688 -0.01633106 0.009648283
000080 b3 20 cf 3c ba da 9f 3b 1e eb 0e bd 48 b3 fb 3c
       0.025284147 0.004878369 -0.034892194 0.030725136
000090 d2 5d 03 bd 40 5d 3e bd 6b dd 90 b8 97 b2 bf bc
       -0.032071896 -0.04647565 -6.9076974e-05 -0.023400588
0000a0 37 ed 0c 3d b1 c1 c6 3c da fa f0 3c ae 58 44 3c
       0.034405913 0.024262281 0.02941649 0.0119840335
0000b0 7e 0b f7 bb 96 20 02 3d f8 0e 12 3c 14 ad 52 3d
       -0.007539212 0.031769358 0.008914702 0.05143459
0000c0 46 42 c1 3b 95 54 50 3d 27 da 4e 3c 1c 76 74 3d
       0.005897793 0.050861914 0.012625254 0.05968295
0000d0 7f a7 55 3d 9b 22 f3 bc b2 fe 1c 3d b1 80 03 3d
       0.05216169 -0.029679587 0.038328834 0.03210515
0000e0 7e f3 90 3d 20 1a 27 bd 25 77 cc 3c 16 6b 18 bd
       0.070776924 -0.0407964 0.024959156 -0.0372115
0000f0 ac 16 ac bd 6c 09 c0 3b eb 4c 14 bd c0 9a 55 bc
       -0.08402762 0.005860498 -0.036206167 -0.013037384
000100 38 d3 23 bd 01 d4 d5 3b aa 1f 3a bd 86 d6 2e 39
       -0.039996356 0.006525517 -0.045440353 0.0001667385
000110 d8 46 cd bc fa 5e 33 3d f1 a9 1c 3d 39 e1 28 3d
       -0.025058195 0.04379175 0.038248006 0.041230414
000120 ed 40 f6 b9 0f 44 fb 3c 49 04 29 bb dd be 26 3d
       -0.0004696915 0.030672101 -0.0025789908 0.040709365
000130 7e 92 55 bc b3 d4 49 bd e9 bd f0 bc 51 85 06 3c
       -0.013035415 -0.04927511 -0.029387431 0.008210496
000140 f6 e7 41 3d ae 6a c8 3b a5 f6 92 bc 34 27 2b bc
       0.047340356 0.006116233 -0.017939875 -0.0104463585
000150 a8 3d 25 39 d3 2b 83 3c 1c 81 77 bc 97 2b 3a 3d
       0.00015758595 0.016012108 -0.015106466 0.045451727
000160 f0 4d d4 3c d4 ba 4a bc 94 61 bb bb 91 2f f1 bc
       0.02591607 -0.012373645 -0.0057184193 -0.029441627
000170 8c 12 e7 bc 28 2f b1 3b 77 14 c8 3c c2 de 6d 3d
       -0.028207086 0.005407233 0.02442382 0.058073767
000180 da c2 b0 3d d9 b0 9c 3c 90 a3 0f 3d 35 5a 90 3d
       0.08630915 0.019127296 0.035068095 0.070484556
000190 15 c6 d4 3a 7e 10 fb 3c 0a fe 5e bd 2e 8a f9 bb
       0.001623335 0.030647513 -0.05444149 -0.0076153493
0001a0 9b 2c 97 bd 24 66 66 3d 85 6b 51 bd 5b 31 ee bc
       -0.07381555 0.056249753 -0.05112793 -0.029076269
0001b0 67 af 9c bd 2b 0a bf 3b c5 26 b7 3c d1 9a 75 bc
       -0.07650643 0.0058300695 0.022357354 -0.014990524
0001c0 ae a8 3f 3d f8 46 07 3d 58 b7 2c 3c c7 08 ca b8
       0.046791725 0.033026665 0.010541759 -9.6337455e-05
0001d0 55 7d 5b bd 03 f0 71 3c ca 07 4c 3c 0b b2 44 3c
       -0.053586323 0.014766696 0.012453029 0.012005339
0001e0 68 1b 82 bd c7 53 7d 3c b2 2b 35 bd a6 44 ef 3c
       -0.063528836 0.015461869 -0.044231124 0.029207539
0001f0 4c cf 64 bc 88 9c d1 3c 9d 72 fb 3b 91 13 9b 3c
       -0.013965439 0.025587335 0.007673575 0.018930228
000200 84 42 2d bd c2 e6 9c 3c dd 65 17 3c ff 03 0a 3d
       -0.042299762 0.019153003 0.009240595 0.033695217
000210 4e 9a 01 bd a4 88 13 bd 71 9c 39 3d f7 e3 db ba
       -0.031641297 -0.036018983 0.04531521 -0.0016776313
000220 c3 b1 2a 3d d8 ad fc 3c 12 f3 8d 3c d3 12 50 bc
       0.041673433 0.030844614 0.017327819 -0.012699801
000230 f8 c1 b5 bb 95 96 aa bb 7c f1 5c 3b 01 95 a4 bc
       -0.0055468045 -0.005205939 0.0033713272 -0.020090582
000240 0f a7 fa bc 3e df 0a 3c 89 fb 13 bc 76 b3 46 3d
       -0.030597238 0.008476077 -0.009032139 0.04851099
000250 85 64 25 bd c4 32 45 bc 2a 1d c9 3c 61 c8 f9 bc
       -0.040379066 -0.012036029 0.02455004 -0.030491056
000260 b7 4a af bc 8d 5e c9 bc b2 e0 57 bc 88 65 40 bd
       -0.021397932 -0.024581218 -0.01317613 -0.046971828
000270 32 e4 dd 3b 61 b9 3e 3d a1 d9 80 bd bb 00 09 3d
       0.0067715878 0.04656351 -0.062915094 0.033447962
000280 b8 d5 83 bc e6 51 b0 3c 84 22 73 bd c5 ff 9b bb
       -0.01609312 0.021523427 -0.05935909 -0.0047607147
000290 1e 07 11 bd 98 cd de 3c 8a 6a 8f bb b8 7d 59 bd
       -0.035407178 0.027197644 -0.004376714 -0.05309841
0002a0 d3 43 15 3d ff bd 07 3b 50 7d 71 bc 05 06 e4 bb
       0.036441635 0.0020712612 -0.0147393495 -0.0069587254
0002b0 34 f4 d0 bd a9 8f 1d 3d e0 2c 77 bd c4 ec 7f 3d
       -0.10202828 0.038467083 -0.06034553 0.062481657
0002c0 99 d3 fa 3c 94 34 5c bd fa 6c 53 bc 83 a7 de bb
       0.030618476 -0.05376108 -0.0129044 -0.0067948713
0002d0 2d cf 27 3d e9 96 ba bc 17 a9 89 bc df cb cb 3c
       0.040969063 -0.022777038 -0.016804261 0.024877487
0002e0 24 48 08 ba 82 81 c4 3c 00 7c 19 3c 06 be 9a 3a
       -0.0005198738 0.023987535 0.009367943 0.0011805899
0002f0 06 6d 63 bc c7 c9 6a 3c 31 b3 9e bd cc 53 37 3a
       -0.013880974 0.014330334 -0.07749022 0.00069933827
000300 91 2b a5 bc 4c 4a d2 3b 86 01 29 bd 97 f3 ec bc
       -0.020162376 0.0064175483 -0.04126122 -0.028924746
000310 20 db 68 3c f7 68 5b bd 1e fe 7b bb 5d aa a5 39
       0.0142124 -0.0535669 -0.0038451026 0.00031598183
000320 dc 53 0a bd 92 43 5e 3d 32 89 e6 3c 2d ac 70 3d
       -0.03377138 0.05426366 0.028141592 0.05875795
000330 66 24 f5 bc d7 f9 13 3d e3 b1 ba bc b8 c7 00 bc
       -0.029924583 0.036126938 -0.022789901 -0.007860117
000340 6f 85 e9 bc 35 1b 29 3d 67 b4 09 bd 65 38 10 3d
       -0.028506009 0.041285712 -0.03361931 0.035210032
000350 eb 49 20 bd 74 5d 25 3c f0 bf 1b bd 85 fc bf bb
       -0.039132994 0.010093082 -0.038024843 -0.00585896
000360 ea f9 52 3d bf 55 2e bd 67 fa 92 3b 55 20 db bc
       0.051507868 -0.042562243 0.0044854167 -0.026748816
000370 93 f4 58 3d 4c 4a c2 3c 14 8d 65 bc 76 59 bc 3c
       0.05296762 0.023717068 -0.014010686 0.022991877
000380 9a 72 c4 3c 09 5f 93 3d 80 8f 85 3c 74 17 8e bc
       0.023980428 0.07195861 0.016303778 -0.017345168
000390 50 be 5f 3d 8e 9b ae bd 09 6b b5 3c 71 0b 96 3c
       0.054624856 -0.085257635 0.022145765 0.018316003
0003a0 8f 21 2f 3b a2 a6 8e bc 5f 37 48 bd b0 11 7a bd
       0.0026722883 -0.017413441 -0.04888093 -0.061052024
0003b0 59 66 1a 3c 2f 6f ec 3b 83 ae 97 bc 15 ad c7 3c
       0.009423816 0.0072154026 -0.01851583 0.024374524
0003c0 02 7d 6c bc 87 11 ab 3d 16 a5 46 3c b7 35 7d bd
       -0.014434101 0.083529525 0.0121243205 -0.061818805
0003d0 a7 f5 81 3d a8 11 18 3c 5d 7b bf bd 32 35 b4 3b
       0.063456826 0.009281553 -0.093497016 0.0054995054
0003e0 29 04 8a bd 83 d2 85 b9 86 37 37 bd 0f 47 45 3d
       -0.06739075 -0.0002552458 -0.044730686 0.04816347
0003f0 42 7b 8d 3c 92 b1 c4 37 bf f3 93 3c 18 84 ff bc
       0.017270688 2.3447708e-05 0.018060563 -0.031190917

network_body._body_endoder.seq_layers.0.bias f4 [128]
000000 00 00 00 00 00 00 00 00 00 00 00 00 00 00 00 00
       0.0 0.0 0.0 0.0
000010 00 00 00 00 00 00 00 00 00 00 00 00 00 00 00 00
       0.0 0.0 0.0 0.0
000020 00 00 00 00 00 00 00 00 00 00 00 00 00 00 00 00
       0.0 0.0 0.0 0.0
000030 00 00 00 00 00 00 00 00 00 00 00 00 00 00 00 00
       0.0 0.0 0.0 0.0
000040 00 00 00 00 00 00 00 00 00 00 00 00 00 00 00 00
       0.0 0.0 0.0 0.0
000050 00 00 00 00 00 00 00 00 00 00 00 00 00 00 00 00
       0.0 0.0 0.0 0.0
000060 00 00 00 00 00 00 00 00 00 00 00 00 00 00 00 00
       0.0 0.0 0.0 0.0
000070 00 00 00 00 00 00 00 00 00 00 00 00 00 00 00 00
       0.0 0.0 0.0 0.0
000080 00 00 00 00 00 00 00 00 00 00 00 00 00 00 00 00
       0.0 0.0 0.0 0.0
000090 00 00 00 00 00 00 00 00 00 00 00 00 00 00 00 00
       0.0 0.0 0.0 0.0
0000a0 00 00 00 00 00 00 00 00 00 00 00 00 00 00 00 00
       0.0 0.0 0.0 0.0
0000b0 00 00 00 00 00 00 00 00 00 00 00 00 00 00 00 00
       0.0 0.0 0.0 0.0
0000c0 00 00 00 00 00 00 00 00 00 00 00 00 00 00 00 00
       0.0 0.0 0.0 0.0
0000d0 00 00 00 00 00 00 00 00 00 00 00 00 00 00 00 00
       0.0 0.0 0.0 0.0
0000e0 00 00 00 00 00 00 00 00 00 00 00 00 00 00 00 00
       0.0 0.0 0.0 0.0
0000f0 00 00 00 00 00 00 00 00 00 00 00 00 00 00 00 00
       0.0 0.0 0.0 0.0
000100 00 00 00 00 00 00 00 00 00 00 00 00 00 00 00 00
       0.0 0.0 0.0 0.0
000110 00 00 00 00 00 00 00 00 00 00 00 00 00 00 00 00
       0.0 0.0 0.0 0.0
000120 00 00 00 00 00 00 00 00 00 00 00 00 00 00 00 00
       0.0 0.0 0.0 0.0
000130 00 00 00 00 00 00 00 00 00 00 00 00 00 00 00 00
       0.0 0.0 0.0 0.0
000140 00 00 00 00 00 00 00 00 00 00 00 00 00 00 00 00
       0.0 0.0 0.0 0.0
000150 00 00 00 00 00 00 00 00 00 00 00 00 00 00 00 00
       0.0 0.0 0.0 0.0
000160 00 00 00 00 00 00 00 00 00 00 00 00 00 00 00 00
       0.0 0.0 0.0 0.0
000170 00 00 00 00 00 00 00 00 00 00 00 00 00 00 00 00
       0.0 0.0 0.0 0.0
000180 00 00 00 00 00 00 00 00 00 00 00 00 00 00 00 00
       0.0 0.0 0.0 0.0
000190 00 00 00 00 00 00 00 00 00 00 00 00 00 00 00 00
       0.0 0.0 0.0 0.0
0001a0 00 00 00 00 00 00 00 00 00 00 00 00 00 00 00 00
       0.0 0.0 0.0 0.0
0001b0 00 00 00 00 00 00 00 00 00 00 00 00 00 00 00 00
       0.0 0.0 0.0 0.0
0001c0 00 00 00 00 00 00 00 00 00 00 00 00 00 00 00 00
       0.0 0.0 0.0 0.0
0001d0 00 00 00 00 00 00 00 00 00 00 00 00 00 00 00 00
       0.0 0.0 0.0 0.0
0001e0 00 00 00 00 00 00 00 00 00 00 00 00 00 00 00 00
       0.0 0.0 0.0 0.0
0001f0 00 00 00 00 00 00 00 00 00 00 00 00 00 00 00 00
       0.0 0.0 0.0 0.0

network_body._body_endoder.seq_layers.2.weight f4 [128, 128]
000000 44 31 3d bd ad 7e 4d 3d f4 b7 12 be 09 a2 4f be
       -0.04618956 0.050169636 -0.14327985 -0.20276655
000010 7d a2 44 bc fd 94 8d 3b 24 01 a7 bd cf 75 3e bd
       -0.012001631 0.0043207393 -0.081545144 -0.04649907
000020 47 58 c3 bc 6f fd d1 bd cc 0b 63 bd f1 5d 31 bd
       -0.023845805 -0.10253417 -0.055431172 -0.04330248
000030 12 c0 b0 bd 0a 5e de bd 73 43 29 3d 27 b3 cd bc
       -0.086303845 -0.1085778 0.04132409 -0.02510984
000040 b3 66 0e 3e b7 e9 96 3c 5b a5 7f bd bb f7 05 be
       0.13906364 0.01842199 -0.062413555 -0.13082783
000050 81 7c a0 3c 6f 84 36 be ce 90 47 bd 8e 79 d6 bc
       0.019590618 -0.17823957 -0.04872208 -0.026181009
000060 58 82 dc bd 70 4c 07 3e ad fd 27 ba b0 cc 27 be
       -0.107670486 0.13212752 -0.0006408345 -0.16386676
000070 99 72 76 3c df 86 0f bd f3 a3 9b bc 7d a9 9f 3d
       0.015041971 -0.035040732 -0.018999076 0.07795999
000080 30 e1 11 be 23 d3 1d be a4 cb 12 be 44 81 30 bd
       -0.14246058 -0.15412574 -0.14335495 -0.043092027
000090 60 ff 25 3d 77 93 bc 3d 2d 69 ef bc 6a ff 8f bd
       0.040526748 0.09207814 -0.029224956 -0.07031138
0000a0 a3 0d c7 bd 95 59 37 3c bc ac ff bc 8e 8c 1d be
       -0.09719398 0.011190792 -0.031210296 -0.15385649
0000b0 2c a4 42 bc 1c 49 0e 3d d1 d7 b1 bd a5 92 8d 3d
       -0.011879962 0.03473769 -0.08683742 0.06912736
0000c0 3a c2 84 bd 2f 29 3d 3e a3 4c 6b 3e a5 9c 19 3d
       -0.06482358 0.18472742 0.22978453 0.037502903
0000d0 22 82 81 bc e2 df 53 3d 77 a3 8f 3b 55 9e 2f 3e
       -0.015809122 0.051727183 0.0043835 0.17150243
0000e0 01 0a 77 be 14 ee 1e 3e 0d d7 87 3d 5f 48 20 3d
       -0.2412491 0.15520507 0.066328146 0.03913152
0000f0 2e 75 4c 3d 15 d3 14 be 60 fc 8b bd 51 24 5a bb
       0.04991644 -0.14533646 -0.06835246 -0.0033285806
000100 84 bc 6e bd dc b9 4a be 66 b7 56 3e 44 36 71 3d
       -0.05828525 -0.19797462 0.20968398 0.058889642
000110 52 42 17 3e aa ec 1a 3d b1 06 2e bd d9 65 0e 3e
       0.14771393 0.037823357 -0.04248685 0.1390604
000120 f1 b0 85 3d 9d 98 02 be 29 aa 2b bd f3 ef 08 bd
       0.065278895 -0.1275353 -0.041910324 -0.03343196
000130 da 66 b8 3c fb 5d eb 3d 39 2b 77 3e aa aa 9f bb
       0.022509981 0.11492535 0.24137582 -0.0048726397
000140 60 41 ab bc b9 70 9e 3d 93 2d ac 3c 4f 49 37 3e
       -0.020905197 0.07736344 0.021017825 0.17899059
000150 07 3a 34 bd 18 46 60 3d 83 dd 73 3d 97 a5 d0 bc
       -0.04400065 0.054754347 0.059537422 -0.025469584
000160 7f 3d e4 3d d3 64 e1 bc a7 9c fb bd 10 43 f0 ba
       0.11144542 -0.027513897 -0.122857384 -0.0018330533
000170 17 9c a3 3d 8f e8 c0 3d 72 cd 7a 3d 45 a0 02 bc
       0.07988756 0.09419357 0.061231084 -0.007972782
000180 16 ea b5 3b a4 ea 29 3d 50 04 b0 bd fe 0e f8 3d
       0.005551587 0.041483536 -0.085945725 0.121122345
000190 ae c8 77 3d 53 c2 03 3e 0e da 20 bd 21 ba a9 3d
       0.060494117 0.12867098 -0.039270453 0.082874544
0001a0 ad 8c 5c 3d 3c ed 1c 3e 8b 57 36 3e a9 7c b5 bc
       0.053845096 0.15324873 0.17806832 -0.02215417
0001b0 d5 91 d2 bc c9 89 5e 3d ad d3 ed 3d f3 d6 9e be
       -0.025704304 0.05433062 0.116126396 -0.31023368
0001c0 9c 6d e5 bd 31 32 5a be e9 31 c0 bc 2b 2a 16 bd
       -0.11202547 -0.21308209 -0.023461299 -0.03666131
0001d0 e9 94 c0 bc 76 de ad bd c0 a2 7f 3d 73 9a 91 3d
       -0.023508506 -0.08489697 0.06241107 0.07109537
0001e0 20 11 d9 3d ba 5a 24 be af 50 7f bc 8b 09 ba 3d
       0.105989695 -0.16050234 -0.015583201 0.090838514
0001f0 e4 7d c1 3d ca 98 2c 3d 8f 25 2b be ed 6c b6 3c
       0.0944784 0.0421379 -0.16713546 0.022268737
000200 6b 2c 90 bd 80 b8 9f 3d dc b5 0d bb 1e e4 fd bd
       -0.07039722 0.077988625 -0.002162329 -0.123970255
000210 4c 49 f2 bd 79 e6 fb 3d 93 12 98 3d e0 43 03 be
       -0.118303865 0.122998185 0.07425418 -0.12818861
000220 f3 f0 c7 bd 76 fb b9 3d d8 e9 0f 3c 12 b0 13 be
       -0.09762754 0.090811655 0.00878378 -0.14422634
000230 9a 49 68 3d bd 70 f6 3c cb dd 13 3e bb f8 4c 3d
       0.056710817 0.030083055 0.14440076 0.050041895
000240 f5 38 fc 3d 5c 07 15 be 73 05 41 3d 2c 08 a7 bd
       0.12315551 -0.14553589 0.047124337 -0.081558555
000250 13 e8 29 bd d6 00 18 be 7f fe e0 3c 17 3f b1 3d
       -0.04148109 -0.14844069 0.027465103 0.086546116
000260 71 f0 e9 bb c2 8f 49 3d 63 cc 93 3d 2c 22 0f 3d
       -0.0071392586 0.049209364 0.07216718 0.0349447
000270 d7 bb 20 be 0f b2 95 bd 3c 33 28 bb ea 7c b1 3d
       -0.15696655 -0.073093526 -0.0025665304 0.086664036
000280 92 9d 0f 3e 12 c8 48 3d 69 bf 48 3d 33 d3 f0 3c
       0.14024952 0.049018927 0.049010668 0.029397583
000290 ad bc 5f 3c 5c 49 93 bd c7 df cb bd 1a 2b 3f bc
       0.013655824 -0.071917266 -0.099547915 -0.011667991
0002a0 26 8c c3 3d 9d 0a f8 3d 68 f4 cf 3c 14 e9 89 3d
       0.095482156 0.12111399 0.025385097 0.06733909
0002b0 a4 44 be 3d 9f 69 8b bc fc ae 54 be dc 8e 97 bc
       0.09290436 -0.017018137 -0.20769876 -0.018500738
0002c0 03 f6 80 bc 13 25 3f 3b 9e 9b 17 3e 76 7e 83 bc
       -0.015742308 0.0029166385 0.14805457 -0.016051512
0002d0 f2 7d b1 3b 97 b6 ad 3d 4b 24 0e bd 2d 16 f3 bd
       0.005416625 0.08482092 -0.03470258 -0.11869464
0002e0 e2 42 16 bd db 0b 28 be 8e bd 0b 3e 6b 43 dc 3d
       -0.03668488 -0.16410773 0.13646528 0.107550465
0002f0 54 df 36 3e 70 9e f8 3c 53 b5 bc 3d 86 f3 9a 3c
       0.1785863 0.030348986 0.09214272 0.01891495
000300 49 b7 fd bd 9d b6 7d 3d 22 b4 ee bd ab 8c dd bd
       -0.123884745 0.06194173 -0.11655451 -0.10817846
000310 85 8f 1a 3e 47 a3 94 bd 05 9c 8d 3d 52 4c 8b bd
       0.15093811 -0.07257705 0.06914524 -0.06801666
000320 e8 48 9f 3d dc 96 18 bd 77 1c d4 3d 10 fb a1 3d
       0.07777578 -0.037253246 0.10356992 0.079092145
000330 df 4a 8a bd 9e a6 2d bd ae ba 9c 3a cc ca 4b be
       -0.06752562 -0.042395227 0.001195749 -0.1990158
000340 89 a5 2a ba 31 ad f1 3d 16 7a 1a 3e ed b3 01 be
       -0.0006509652 0.11800612 0.15085635 -0.12666292
000350 47 62 11 bb 59 b0 0f bd ab f0 b4 3d 2f 1b 74 3d
       -0.0022183822 -0.035080288 0.08834966 0.059596237
000360 0f c8 c6 bc 29 cc 08 3d 8a 49 da bd 2a 77 89 bc
       -0.024265317 0.033397827 -0.10658558 -0.016780455
000370 aa af 00 be 1d 66 26 3b 98 e8 d8 3d 4e a9 81 3d
       -0.1256701 0.0025390454 0.10591239 0.063311204
000380 d7 1b 06 be 7b 3b af 3c 40 0a 77 3c 53 74 9c 3d
       -0.13096558 0.021390667 0.015078127 0.076393746
000390 2b f1 0b 3e 0f 47 c6 3c 86 e8 c0 bc 94 91 1c be
       0.13666217 0.024203805 -0.023548376 -0.15289909
0003a0 08 4c 94 3d e7 63 e4 bc 41 5d 33 bd fc cd 23 3c
       0.07241064 -0.027879668 -0.043790106 0.009997841
0003b0 4c 86 19 bd 36 38 52 3e a0 25 06 3e 1f 97 58 3d
       -0.03748159 0.20529255 0.1310029 0.052878495
0003c0 be b0 97 3c a1 40 5d bd 00 d9 f7 bc c2 92 9c bd
       0.018516894 -0.054016713 -0.03025484 -0.07645179
0003d0 1d aa c6 bd 35 3f a0 bd fe f8 e5 bd e3 3d 58 3b
       -0.09700415 -0.07824556 -0.11229132 0.0032995872
0003e0 6a ce cc bb 9e 1c 65 bc 3d 5d 2c bd 3f 03 d5 bd
       -0.0062501924 -0.013983874 -0.042081106 -0.1040101
0003f0 37 ab 14 3b cf c2 2e bd f6 26 7e 3c f9 87 f2 bd
       0.002268506 -0.042666253 0.015512219 -0.11842341
