results/baseball1/Baseball/Baseball-307.onnx (onnx, 510855 bytes, 7 tensors)

network_body._body_endoder.seq_layers.0.weight f4 [128, 805]
00000000: c4aa 13bc 119c cfbb 9cf9 83bd 2265 d2bc
00000010: 0224 24bc 9434 013c 767b 593c bb1f 1b3b
00000020: 20ce c8bc 0dd5 803c 6959 2dbc 6c5e 9a3d
00000030: e4ab d1bb 30c0 16bd bf98 863c 25d0 4a3d
00000040: ec8e d63c 95ef 233d cba4 a43c ae83 c8bc
00000050: 22d4 283b b3c7 903c cad7 52bd e942 16bd
00000060: 27cb ae3b d294 793c 8249 7ebd 298a 3d3d
00000070: 0959 19bd 0324 74bc b46a 403c 3293 3f3c
00000080: 3289 47bd 67f6 f4bc 331e 623d 61ea 82bd
00000090: 41a9 b1bd 801f be3c a2b1 98bc 65b3 613c
000000a0: e5bf 513b 811b 4b3c 9e67 663c 520c af3d
000000b0: 531a 823b f5b2 02bd 68a7 d13b 62fb 00bc
000000c0: aa2d 283d 9532 4dbd 0a12 62bc 9440 893c
000000d0: fccc 35bd 59ec 62bd 5ac6 a53c 0b84 a1bc
000000e0: c496 24bc b3c1 06bd e460 9a3c dc3a 0a3d
000000f0: e608 2bbc 7c69 033d bc09 eb3c 82f3 8bbb
00000100: e557 3f3c b8a5 a83c 2616 423b 6b3e cb3c
00000110: f623 38bc 5c96 fb3c 609a 853d ec37 e0bb
00000120: d900 b8bc ff9c d4bc efba b43b 0864 653c
00000130: 3645 bc3d f9d2 ac3b 789b 82bb 5efa aabb
00000140: d3dc b4bc a840 6e3c 1d9b 9abc ef08 f83a
00000150: 3328 093c 8af4 9abc 3ebd 083d 9b2c b7bb
00000160: dfdd 093c 7199 223b 2233 73bd e410 85bc
00000170: b5b6 9e3c 7f65 0b3c 09f1 82bc 3ab0 42bd
00000180: 18e3 0ebd 8a94 793c fc52 41bd e6ec 34bd
00000190: 2deb 613c 22bf d2bc 2cbf a1bb 54bf 7bbb
000001a0: 8476 31bc 9f9d bcbc a635 553c 892b 663c
000001b0: 09e9 b9bc dd04 1a3d 58a3 deba 8ac3 a03c
000001c0: 9770 f2ba 8389 c7bb 7e2a d239 d187 e93c
000001d0: 4a89 0dbd f0d2 64bc aaf6 883d 9484 e1bb
000001e0: c068 d7bb 9e57 7d3d cf52 92bc a978 6f3b
000001f0: 9469 b93c 35f7 423d 0c63 2d3c cfb0 c03c
00000200: 5724 543d 31a7 153d 5549 f9bc c625 143d
00000210: fb2f c13b e9e7 bfbc 77ad 743d 10fc 123d
00000220: 0290 77bd 4f38 7f3b 7b13 73bc ff8b 0f3d
00000230: 82f3 f1bb 12ef b93c 2709 6dbd 690f b7bc
00000240: 8725 abbc bdfb 99bd f54a 2f3a 6660 aebc
00000250: be3a 803b e5e8 bcbc 0f56 1abd 48cb 0c3d
00000260: d35b 0ebc 2aee 473c 2d24 82bc 0967 8abc
00000270: 478e 063c 6c98 183d 23de 98bd 4de0 1dbd
00000280: 7635 513d 5785 39bb d912 0c3d d238 5b3d
00000290: 9d90 9c3b 0ad0 c4bc 1a41 893a cc28 d43b
000002a0: fa5f 42bd b3c8 cdbc c945 a43b 6841 31ba
000002b0: 4a99 cd3c dba4 723c 0e25 4b3d 6b4b 6b3b
000002c0: 1678 1cbd 4a86 0f3c bb49 0c3d df43 4cbc
000002d0: 8d44 82bd 3384 5b3c cb7c 453d 0d5f 3fbd
000002e0: b7c9 f93c b454 603d 99c1 c4bc 85d9 92bb
000002f0: c25d 1e3c 176b 5a3c 86ed 333c 25e5 b63c
00000300: 28ec 8d3c cbb8 e6bc 28a1 4dbb b09a b1bc
00000310: 7382 17bd 191c e53b 03f2 9dbc 673f 00bc
00000320: e063 233c 20d4 003d d0fb 6dbd 643b ae3b
00000330: ecd3 e7bc e698 de3c 399b 7c3d 2316 cdbc
00000340: 34d2 70bd 3d61 1ebc 7930 313d 3f04 0ebd
00000350: d386 52bd 0126 4cbc 804f 23bc 7b5b ea3c
00000360: 7dae 2abd 06fc 8c3d a0bc 563d fccf 12bd
00000370: 60e1 cebc 8b19 823d 2bac fbbc 27ea 473c
00000380: a052 a0bb 49ac f2bc 32d6 903b cc75 463c
00000390: 08ab 133d 9d56 123c 21b2 d9bc 61e5 52bc
000003a0: 9bd6 823c 6ce3 9cbd 1c2b 8d3d 373b 2f3c
000003b0: e87a eb3c d79b 443d 2ea3 103d b395 88bd
000003c0: be20 023c c24b a5bc 3820 2d3d b733 2dbd
000003d0: a236 fe3c 310c 71bd 4202 1fbd 4e95 12bd
000003e0: cdef 973c e3bf f8bc b368 3d3c f4b5 b13b
000003f0: ea3e 21bd cf9e 053c 03c6 e13b 3139 8ebc
-0.009012882 -0.0063357432 -0.064440936 -0.02568299 -0.010018351 0.007886071 0.013274064 0.0023670036
-0.02451235 0.01572659 -0.010580399 0.07537541 -0.006398665 -0.036804378 0.016430257 0.04951491
0.026191197 0.040023405 0.02009811 -0.024476852 0.0025761207 0.017673349 -0.051475324 -0.036684904
0.0053342762 0.015233235 -0.06208182 0.046274338 -0.037438426 -0.014901164 0.01174419 0.011692809
-0.048714824 -0.02990265 0.05520458 -0.063923605 -0.08674861 0.02320838 -0.01863939 0.013775681
0.0032005247 0.012396694 0.01406279 0.08547272 0.0039704232 -0.031908948 0.00639813 -0.007872434
0.041059174 -0.050097067 -0.013798246 0.016754426 -0.04438494 -0.05540118 0.020236183 -0.019716283
-0.010045711 -0.03289957 0.01884503 0.03374754 -0.010439133 0.03208302 0.028691165 -0.0042709718
0.0116786705 0.020586833 0.0029615252 0.024810037 -0.0112390425 0.030711345 0.06523585 -0.006842604
-0.022461342 -0.025953768 0.0055154483 0.0140009 0.091928884 0.0052741733 -0.0039858185 -0.0052178344
-0.022077953 0.014541782 -0.018872792 0.0018923561 0.008371401 -0.018915433 0.0333836 -0.005590034
0.008414715 0.0024810696 -0.059374936 -0.016243406 0.01937423 0.008508085 -0.015984075 -0.047531344
-0.034884542 0.015233168 -0.04719828 -0.044171236 0.01378898 -0.025725905 -0.0049361195 -0.00384136
-0.010831479 -0.023024378 0.013013279 0.0140484655 -0.022694128 0.037602294 -0.0016985936 0.01962449
-0.0018496689 -0.0060893907 0.0004008598 0.028507145 -0.034554757 -0.013966307 0.066876724 -0.0068822596
-0.0065737665 0.061851136 -0.017861752 0.0036540425 0.022633351 0.047599036 0.010582697 0.023521809
0.05179247 0.0365364 -0.030430475 0.036168836 0.0058956123 -0.023426013 0.05973574 0.035884917
-0.06044007 0.0038943475 -0.0148361875 0.03504562 -0.0073837647 0.022697005 -0.057870056 -0.022346215
-0.020891918 -0.075187184 0.00066868897 -0.0212862 0.0039132526 -0.023060272 -0.037679728 0.03437355
-0.008688885 0.012202779 -0.01588639 -0.016894834 0.0082126325 0.037254736 -0.07464244 -0.038543988
0.051076375 -0.0028308237 0.034197662 0.053520985 0.0047779814 -0.024024982 0.0010471672 0.00647459
-0.04745481 -0.025120115 0.005013202 -0.00067617605 0.025097508 0.014809812 0.049595885 0.0035903107
-0.03820046 0.008760044 0.034250002 -0.012467354 -0.06360731 0.013398218 0.048214715 -0.046721507
0.030491693 0.05476828 -0.024018096 -0.0044814968 0.009665908 0.013331196 0.010981923 0.022326062
0.017324522 -0.028164288 -0.0031376574 -0.021680206 -0.03698964 0.006991875 -0.01928044 -0.007827616
0.0099725425 0.0314523 -0.058101475 0.0053171385 -0.028299294 0.027172517 0.06167147 -0.02503497
-0.058794215 -0.009666738 0.043259118 -0.03467202 -0.05139811 -0.012460233 -0.009967685 0.028608074
-0.04167031 0.06884007 0.05242598 -0.03584288 -0.025253952 0.06352528 -0.030721745 0.012201822
-0.004892662 -0.029623168 0.0044200653 0.012113046 0.03605178 0.008931783 -0.026574196 -0.012872071
0.015971472 -0.07660565 0.06892988 0.01069527 0.02874513 0.048000183 0.03531187 -0.06669178
0.007942377 -0.020177726 0.042267054 -0.042285647 0.03103191 -0.058849517 -0.038820513 -0.03578692
0.018546963 -0.030364936 0.011560607 0.005423302 -0.03936664 0.008155539 0.00689006 -0.017361255

network_body._body_endoder.seq_layers.0.bias f4 [128]
00000000: 0000 0000 0000 0000 0000 0000 0000 0000
00000010: 0000 0000 0000 0000 0000 0000 0000 0000
00000020: 0000 0000 0000 0000 0000 0000 0000 0000
00000030: 0000 0000 0000 0000 0000 0000 0000 0000
00000040: 0000 0000 0000 0000 0000 0000 0000 0000
00000050: 0000 0000 0000 0000 0000 0000 0000 0000
00000060: 0000 0000 0000 0000 0000 0000 0000 0000
00000070: 0000 0000 0000 0000 0000 0000 0000 0000
00000080: 0000 0000 0000 0000 0000 0000 0000 0000
00000090: 0000 0000 0000 0000 0000 0000 0000 0000
000000a0: 0000 0000 0000 0000 0000 0000 0000 0000
000000b0: 0000 0000 0000 0000 0000 0000 0000 0000
000000c0: 0000 0000 0000 0000 0000 0000 0000 0000
000000d0: 0000 0000 0000 0000 0000 0000 0000 0000
000000e0: 0000 0000 0000 0000 0000 0000 0000 0000
000000f0: 0000 0000 0000 0000 0000 0000 0000 0000
00000100: 0000 0000 0000 0000 0000 0000 0000 0000
00000110: 0000 0000 0000 0000 0000 0000 0000 0000
00000120: 0000 0000 0000 0000 0000 0000 0000 0000
00000130: 0000 0000 0000 0000 0000 0000 0000 0000
00000140: 0000 0000 0000 0000 0000 0000 0000 0000
00000150: 0000 0000 0000 0000 0000 0000 0000 0000
00000160: 0000 0000 0000 0000 0000 0000 0000 0000
00000170: 0000 0000 0000 0000 0000 0000 0000 0000
00000180: 0000 0000 0000 0000 0000 0000 0000 0000
00000190: 0000 0000 0000 0000 0000 0000 0000 0000
000001a0: 0000 0000 0000 0000 0000 0000 0000 0000
000001b0: 0000 0000 0000 0000 0000 0000 0000 0000
000001c0: 0000 0000 0000 0000 0000 0000 0000 0000
000001d0: 0000 0000 0000 0000 0000 0000 0000 0000
000001e0: 0000 0000 0000 0000 0000 0000 0000 0000
000001f0: 0000 0000 0000 0000 0000 0000 0000 0000
0.0 0.0 0.0 0.0 0.0 0.0 0.0 0.0
0.0 0.0 0.0 0.0 0.0 0.0 0.0 0.0
0.0 0.0 0.0 0.0 0.0 0.0 0.0 0.0
0.0 0.0 0.0 0.0 0.0 0.0 0.0 0.0
0.0 0.0 0.0 0.0 0.0 0.0 0.0 0.0
0.0 0.0 0.0 0.0 0.0 0.0 0.0 0.0
0.0 0.0 0.0 0.0 0.0 0.0 0.0 0.0
0.0 0.0 0.0 0.0 0.0 0.0 0.0 0.0
0.0 0.0 0.0 0.0 0.0 0.0 0.0 0.0
0.0 0.0 0.0 0.0 0.0 0.0 0.0 0.0
0.0 0.0 0.0 0.0 0.0 0.0 0.0 0.0
0.0 0.0 0.0 0.0 0.0 0.0 0.0 0.0
0.0 0.0 0.0 0.0 0.0 0.0 0.0 0.0
0.0 0.0 0.0 0.0 0.0 0.0 0.0 0.0
0.0 0.0 0.0 0.0 0.0 0.0 0.0 0.0
0.0 0.0 0.0 0.0 0.0 0.0 0.0 0.0

network_body._body_endoder.seq_layers.2.weight f4 [128, 128]
00000000: 14d6 fa3a ec2c e03c 13a3 b2bd dbeb d43b
00000010: f2ab d13c 71dd 713c bbd8 89bc 8b33 e5bd
00000020: a0b5 543d 67ef 9dbd 5ec0 013d d21c d1bc
00000030: b601 c5ba b097 90bd e254 23bc f7e7 21bd
00000040: c121 14bc 48ac 7cbd 8173 1dbe a9e9 a0bd
00000050: b739 65bc 03ce d03c 500e b9bd 7395 f53b
00000060: 3506 8bbd 8de7 0bba 3d99 0cbe 6e65 b7bb
00000070: 94ad bb3d a421 c13d cb58 cd3b 41a0 5b3d
00000080: 46c6 ebbd dd4e 93bd e6f2 cdba ddea 733d
00000090: da13 683d a4d5 b9bc 0075 8fbd 509d 43bd
000000a0: 75c9 d13d ed64 583c 6eb0 06be ad6e 94bc
000000b0: 75e9 e73b 0469 c7bd a984 8b3d 8e6e 6e3d
000000c0: 6645 6a3d c9c6 e23d 8b18 c83c 662b 74bd
000000d0: 6833 45ba e6fa b33d 7a62 87bc d7cf 083e
000000e0: 07f8 1e3d a39c ab3c b910 17be 582e dc3d
000000f0: b7d7 09bc 971a 433d af1a 8ebc 7b0b 0bbd
00000100: 108f e7bc 6bb4 723d 1efe a9bb ce30 67bd
00000110: 7078 51bb b517 f73d d59d 31be d6bd edbd
00000120: 9f4c 823d baaa ea3c e760 ab3d 7e12 9ebb
00000130: 3b27 fcbc 336e 623e ab8c b53d 4ede 64bc
00000140: 298c b53c 4d02 893d e7fb 9abc 9d50 fa3c
00000150: 0a8c d93a 9305 cb3d 3187 61bd 00f1 173e
00000160: bac3 08bc f7de ef3b d2ac 703d 5ee6 90bd
00000170: 5d73 08be 5a26 ce3d 1a20 273d b755 85be
00000180: 08a8 eebc 28cf 183d 8594 20bd 4def 62bc
00000190: dc11 73bd e506 a83d de78 32bd 13d3 323e
000001a0: 1158 b8ba 051e b4bd 5931 c8bd 2e1f 3f3e
000001b0: 2750 b43b 0f58 413e 2144 da3c 2953 c43d
000001c0: 6a3e e4bc 541e 883d 57ea 8bbd 0370 a93d
000001d0: 33a1 debc d53f dbb9 8afd fa3d 9e53 f93d
000001e0: 081f fabd 87a7 a73d 35ba bd3d 03e9 203e
000001f0: a95d 9339 8f20 04be c316 853d cfa6 a13d
00000200: 5338 903d 1f1f 333c 479f d13b 6c63 0ebe
00000210: 98fc 06be 1770 18be 879b 9dbd 685c 613b
00000220: b6d2 09be dc2c 623c b083 b73d 8e72 1b3d
00000230: c303 ae3d 3a76 553d 4ecd 823c f301 7ebd
00000240: 0648 0dbd 3295 9abd 4d4e df3d bcaf 22be
00000250: c945 a0bd 7abe 183e f5a8 a83d 62f9 883d
00000260: 88d2 4b3c 3a1f 7e3d 1387 9b3d 31d6 c4bc
00000270: a640 683c 46e9 fbbd bf2b 0cbe 2a30 7dbe
00000280: c365 f6bd a436 923c 6735 213c 96e2 fcbd
00000290: aa01 fbbd c412 d1bd eaaa b7bc fc84 0bbd
000002a0: 78bc 7e3d 10a9 8d3d 701b c039 c3c8 e03b
000002b0: 6f12 6c3b 0498 6c3c ea8a 1fbe 2555 0fbe
000002c0: 9df5 93bb ce6f c63d e226 fcbd 5e29 2bbd
000002d0: 1d57 b43d 76f4 63bc f431 1abe e692 453d
000002e0: 01ba 543c 70db 30be b5e9 913c 134e 49bc
000002f0: 33bc f3bc 7492 00be ae8b b1bd a71c ea3d
00000300: 528f 303e eeb2 5c3c 848c f53d 92ab 0f3e
00000310: 91dd 96bd 3cbf 3d3d 53c0 573d b478 e63c
00000320: 8835 263d dee8 56bd ee28 b8bd fad6 243d
00000330: cfda 34be c216 903d 5e5d 883d 0636 65bd
00000340: 0f9e 813b 853c 36bd 29ce dcbd 73d0 183e
00000350: a175 28bd 8bcc 053e 342b dd3d df7a 0a3e
00000360: 7bd6 033e e528 b83c d9b9 613c 8e7f b63d
00000370: 8eeb 8c3c a855 c53c 46f8 69bc 4913 213e
00000380: 8d96 f1bb ba81 04bc 480c 5ebe fd9e a7bd
00000390: 7f61 d53d 11a4 793c 289c f33c b494 22bd
000003a0: e34d 65bd 668a b83d 3b39 383d 6342 ffbd
000003b0: e999 d73d 87c0 ab3c 2518 8a3d 23d3 d73d
000003c0: 725e 813d 3bce dbbd 50ae 91bc 338e 07bd
000003d0: 454b 263b 74ed 343e 07c0 343b c973 913d
000003e0: 7764 1d3e 5b3b 92bc 375e 16bd 7d38 97bd
000003f0: feae b2ba ac90 893d b61c d3bd 6f69 febb
0.0019137287 0.02736517 -0.0872251 0.0064978427 0.025594685 0.014762268 -0.016826978 -0.11191472
0.051931024 -0.07711678 0.031677596 -0.025526438 -0.0015030417 -0.07060182 -0.009968968 -0.03952786
-0.009041251 -0.061687738 -0.15376092 -0.07857067 -0.013990811 0.025488859 -0.09035933 0.0074946224
-0.06788293 -0.0005336933 -0.13730331 -0.005596808 0.09163967 0.094302446 0.0062666885 0.053619627
-0.11512427 -0.07192776 -0.0015712648 0.059550155 0.056659557 -0.02268488 -0.07004738 -0.047757447
0.10243503 0.013207656 -0.1315324 -0.01811918 0.007077391 -0.09736827 0.06812412 0.058210902
0.05719509 0.110730715 0.024425765 -0.0596117 -0.0007522614 0.087880895 -0.01652645 0.13360535
0.038810756 0.020948714 -0.14752473 0.10751027 -0.008413247 0.04763278 -0.017346708 -0.033946496
-0.02826646 0.05925409 -0.005187764 -0.05644303 -0.0031962655 0.12065069 -0.17345364 -0.11608474
0.063622706 0.028645862 0.08368092 -0.004823982 -0.030780425 0.2211235 0.08864721 -0.013969017
0.02216156 0.06689892 -0.018918945 0.030556018 0.0016597521 0.099131726 -0.05506057 0.14838028
-0.008347446 0.0073202807 0.058758564 -0.07075189 -0.13325258 0.10065909 0.0408021 -0.26041958
-0.029132858 0.037306935 -0.03920414 -0.013850999 -0.059343204 0.0820444 -0.0435723 0.17463331
-0.0014064332 -0.08794788 -0.09775037 0.18664238 0.005502719 0.18881248 0.026643815 0.09586174
-0.027861793 0.0664641 -0.06831806 0.08273318 -0.027176475 -0.00041818494 0.1225539 0.12174152
-0.1221295 0.0818625 0.09264032 0.15713887 0.00028107807 -0.12903045 0.06498482 0.07893144
0.07041993 0.010932713 0.006397161 -0.13905114 -0.13182294 -0.14886509 -0.0769568 0.0034387354
-0.13459286 0.013804641 0.08960664 0.037951045 0.08496811 0.052114703 0.015967038 -0.062013578
-0.034492515 -0.07547988 0.109036066 -0.1588735 -0.078258105 0.14916411 0.08235351 0.06688191
0.012440331 0.0620415 0.07594123 -0.024027916 0.01417557 -0.12300353 -0.13688563 -0.24725404
-0.12031128 0.01784832 0.009839392 -0.12347905 -0.12256177 -0.102086574 -0.022420365 -0.03406237
0.062191457 0.06917012 0.00036641536 0.00685987 0.003602173 0.01444054 -0.15580335 -0.13997324
-0.0045153634 0.09689294 -0.12312104 -0.041787498 0.08805678 -0.0139132645 -0.15058118 0.048235796
0.0129838 -0.17271209 0.017811636 -0.012286681 -0.029752826 -0.12555867 -0.0866922 0.11431246
0.17242172 0.013470395 0.11989692 0.14030293 -0.07366479 0.046324953 0.05267365 0.028133728
0.040578395 -0.052468173 -0.08992182 0.04024408 -0.17661594 0.07035591 0.066584334 -0.055959724
0.0039556096 -0.04449131 -0.107815094 0.14923267 -0.041127805 0.13066308 0.10799256 0.13523434
0.12874787 0.022480438 0.01377722 0.08911048 0.017202165 0.024088696 -0.014280384 0.15730013
-0.0073726834 -0.00808757 -0.21684372 -0.081846215 0.104189865 0.01523687 0.029737547 -0.039692596
-0.05598248 0.090107724 0.044976454 -0.12463834 0.10527403 0.020965828 0.067428865 0.10538318
0.06316842 -0.10732695 -0.017783314 -0.033094596 0.0025374454 0.17668706 0.0027580278 0.071021624
0.15370356 -0.017850569 -0.036710944 -0.07383821 -0.0013632474 0.06717047 -0.103082106 -0.0077640335

action_model._continuous_distribution.log_sigma f4 [1, 48]
00000000: 0000 0000 0000 0000 0000 0000 0000 0000
00000010: 0000 0000 0000 0000 0000 0000 0000 0000
00000020: 0000 0000 0000 0000 0000 0000 0000 0000
00000030: 0000 0000 0000 0000 0000 0000 0000 0000
00000040: 0000 0000 0000 0000 0000 0000 0000 0000
00000050: 0000 0000 0000 0000 0000 0000 0000 0000
00000060: 0000 0000 0000 0000 0000 0000 0000 0000
00000070: 0000 0000 0000 0000 0000 0000 0000 0000
00000080: 0000 0000 0000 0000 0000 0000 0000 0000
00000090: 0000 0000 0000 0000 0000 0000 0000 0000
000000a0: 0000 0000 0000 0000 0000 0000 0000 0000
000000b0: 0000 0000 0000 0000 0000 0000 0000 0000
0.0 0.0 0.0 0.0 0.0 0.0 0.0 0.0
0.0 0.0 0.0 0.0 0.0 0.0 0.0 0.0
0.0 0.0 0.0 0.0 0.0 0.0 0.0 0.0
0.0 0.0 0.0 0.0 0.0 0.0 0.0 0.0
0.0 0.0 0.0 0.0 0.0 0.0 0.0 0.0
0.0 0.0 0.0 0.0 0.0 0.0 0.0 0.0

action_model._continuous_distribution.mu.weight f4 [48, 128]
00000000: b0b3 05ba f981 c239 421c 0e3d 0027 9bbc
00000010: 2bd4 c93b 57b7 c2b8 1832 8b3b 931c 863b
00000020: 230f a8bb ff5a 433a 79f6 b4b9 9699 203d
00000030: 1c03 8cbb 7360 94bc 5d6f d53b 84be 0fba
00000040: 8f92 d7bc db51 2b3b 3b24 dfbb ca74 6ebc
00000050: d0bf a23b 9e19 9dbc 022f 6abc dac0 b13c
00000060: fa5d 6f3c 348c 1c3c cf36 c13b eb52 013c
00000070: e090 cb39 224a cebb 8b7c 993b 898a 243c
00000080: 414b 9b3c 97e9 993c 2203 b03c eee4 003d
00000090: 5e7a 993b 65d0 87bc 9e53 c5bc 8271 41bc
000000a0: dbfa 4f3c 9780 b03c 53e9 eabc 5168 09bc
000000b0: 3eec 8e3a b419 863b 2faf f7bc 9320 173c
000000c0: e2ae 56bc a3b9 133c 425c 22bc ca53 1e3c
000000d0: eebc 97bc 4830 95ba a753 abbb b5c5 f63b
000000e0: e34d d5b9 5578 cdbc 0f3f 3a3b bfca c1bc
000000f0: 3b69 01bd 4b4a 15b9 8987 013b 5f97 77bc
00000100: 6d6e 51bc 7627 013c 6ddc ef3b 2316 fa3c
00000110: 1958 a03c 87a7 9dbc 0d87 23bc 9b6a 81bc
00000120: d24f b33b c418 82bc ab5a 153c d7ec 14bc
00000130: 9ae2 ebbc f567 84bc 1b31 ef3c 596b 203d
00000140: 1c90 9d3b d7f5 b6bc c779 4bbc d331 a23a
00000150: 12b4 f5bc efb6 a33b f130 93b9 e754 c13a
00000160: 3c6e 1e3d baea 80bc 0681 c239 efeb d63a
00000170: 0e79 b4bc d839 ce37 c7cf 0c3c 589b a73c
00000180: f25c ea3b abdf 0ebc 5679 83bc 9c86 38bc
00000190: 8efb a4bc 6dfe c73b 3061 d4b9 1bfb 623c
000001a0: bbe1 79bc 77ad 95bb 63b7 113c a2c0 e3bc
000001b0: c7b2 b03c 6af8 66bc 09bc 99bc aad1 773c
000001c0: 2518 fd3c 8b89 b43b d8d2 84ba e8bb 123c
000001d0: e497 443c eb13 e1bc 6f90 9abc c30d 263c
000001e0: d119 bc39 f266 d3bb 997e b13c d84d 7dbc
000001f0: 8409 2a3c f83e 643c 8871 bd39 b568 5abc
00000200: afc0 773c a720 1f3d e2a5 533c 2f4f 82bc
00000210: 7242 36bc e8f0 ee3b 33d0 2bbb 95f3 033d
00000220: 275f c5ba 0d35 03bb b58a b5bc 1395 f1bc
00000230: 9db5 8fbc cb52 a3ba cc87 06bc 8c10 b2bc
00000240: 3095 56bb cd44 183d b885 08bc 3f6f e83b
00000250: c543 cf3c 85c3 d0bb cbd7 973c 1b1f de3a
00000260: 42f3 d93c f321 bebc 7beb 7bbb 633d 2b3d
00000270: e5c4 a03c 8dbf 16bc 4667 913b 5730 053c
00000280: 7a53 dabb 95d6 b7bc a789 fbbc 8da4 c83b
00000290: 14f3 a23a 2804 c6bb 00f3 3c3c 8fba 053c
000002a0: f0d6 303c d314 883c c289 89ba 6bb6 6dbb
000002b0: e430 a2bc 2f4d 963c 125f 283c cf31 9cbb
000002c0: cec1 9d3c fcf6 9d3b b8c2 19bb 4337 a1bc
000002d0: b23d 51bb 13f2 1cbc e881 75bc 2291 a13c
000002e0: b356 94bc 3fb8 043c c1d8 03ba ea53 703c
000002f0: efea 56bb 177d a33c 5f93 b43c caf9 70bc
00000300: aa45 3f3b d242 d23a a8fa ea3c e3bc 163d
00000310: c768 cb3c 5ca3 b83b 2b48 143c 4b86 edbc
00000320: 54d3 8639 1283 54bc 15b3 13bd 30ce 2bbc
00000330: fb0a 833c cf18 933c d4b6 a73a 8ac9 54bb
00000340: df69 88ba 3c85 03bc 2bc9 c83c 48a1 4abc
00000350: f402 94bc 486b 5f3c 8f28 63bc cea6 3ebc
00000360: 62b1 55bc 23a4 19bc dbfe b9bc 5551 e73c
00000370: 05a4 783c 556b 7abc 0e0c c23c 72a8 bbbc
00000380: e929 2e3c 5a03 563c f7c9 96bc 6f2e f1bc
00000390: 7793 a13c bfee a0bc 704b 50bc e30b c93b
000003a0: 7d4e 963b 4d41 5e3c d3ec fdba 901a 543c
000003b0: 500d 33bd 77bb a33b 1511 fa3b 2746 8abc
000003c0: 4f40 8bbc 18eb 06bc 68c5 9bbb fd12 c239
000003d0: 63e0 1d3d 688c 933a eb8d 893b 14f7 bd3a
000003e0: 418a a2ba ddb1 fcbc 6b8a 8bbc cb6a 743c
000003f0: 9e5b 8c3a 6e4e 97bb d415 c03a 9876 903c
-0.0005100323 0.000370994 0.034694918 -0.018939495 0.0061593256 -9.2847906e-05 0.004247915 0.004092762
-0.0051287576 0.0007452219 -0.00034515912 0.03920897 -0.0042728316 -0.018112397 0.0065135197 -0.0005483406
-0.026315002 0.002614132 -0.006809739 -0.014554212 0.0049667135 -0.019177254 -0.014293434 0.021698404
0.014609808 0.009554911 0.0058964263 0.007893304 0.00038827118 -0.0062954584 0.004684036 0.010042795
0.018956782 0.018788142 0.021485869 0.031468324 0.0046837768 -0.016578862 -0.024087723 -0.0118068475
0.012694086 0.021545691 -0.02867571 -0.008386687 0.0010904146 0.0040924195 -0.030234901 0.009224075
-0.013103219 0.009016427 -0.009909691 0.009663532 -0.018522706 -0.0011382187 -0.005228478 0.0075308927
-0.00040684556 -0.025081793 0.0028418934 -0.023656247 -0.031594496 -0.00014237424 0.0019764623 -0.015111773
-0.012782675 0.007882943 0.007319978 0.030528134 0.019573258 -0.019244922 -0.009980929 -0.015797904
0.005472162 -0.01588095 0.009115855 -0.00908967 -0.028794575 -0.016162852 0.02919822 0.039164875
0.004808439 -0.022334022 -0.012419171 0.0012374468 -0.02999309 0.0049961726 -0.0002807449 0.0014750034
0.038679346 -0.015736926 0.00037098693 0.0016397218 -0.02203038 2.458405e-05 0.00859446 0.020459816
0.007152193 -0.008720319 -0.016049068 -0.011262562 -0.020139482 0.006103328 -0.000405082 0.0138538135
-0.015251572 -0.0045677978 0.00889382 -0.027801815 0.021569623 -0.014097312 -0.01876642 0.015125671
0.030895302 0.0055095605 -0.0010133637 0.008955933 0.011999104 -0.027475318 -0.0188677 0.010135117
0.0003587739 -0.006451481 0.021666812 -0.015460454 0.010378245 0.013931029 0.00036133477 -0.013330628
0.015121623 0.0388495 0.0129179675 -0.015906898 -0.01112424 0.007291902 -0.0026216626 0.03221472
-0.0015058265 -0.0020020634 -0.022160867 -0.02949003 -0.017542655 -0.0012460587 -0.008211087 -0.021736406
-0.0032742731 0.03717499 -0.008332662 0.0070933397 0.02530087 -0.006370964 0.018535515 0.0016946526
0.026605252 -0.023209548 -0.0038439918 0.04180659 0.019625137 -0.009200943 0.00443736 0.008129201
-0.006662783 -0.022441188 -0.030705286 0.0061231316 0.0012432062 -0.006042976 0.011532545 0.008162155
0.010793433 0.016611492 -0.0010493326 -0.003627206 -0.019798703 0.01834735 0.010276573 -0.00476668
0.019257452 0.0048207026 -0.0023462009 -0.019679671 -0.0031927642 -0.009579199 -0.014984585 0.019722525
-0.018107748 0.008100568 -0.0005029552 0.014668444 -0.003279384 0.019957108 0.022042928 -0.014707992
0.002918581 0.0016041643 0.028683975 0.03680123 0.024830235 0.0056347083 0.009050409 -0.0289947
0.00025715923 -0.012970703 -0.036059458 -0.010486171 0.015996447 0.017956166 0.0012795576 -0.003246876
-0.0010407529 -0.008027371 0.024509987 -0.012367554 -0.018067814 0.013636418 -0.01386465 -0.011636449
-0.01304278 -0.009377512 -0.022704532 0.028237024 0.015175824 -0.015284379 0.023687389 -0.02290747
0.010630109 0.0130623225 -0.018406851 -0.029441087 0.019723637 -0.019645093 -0.012713298 0.00613545
0.0045869933 0.013565374 -0.0019372947 0.012945786 -0.043713868 0.004996713 0.007631431 -0.016879154
-0.016998438 -0.008234762 -0.0047537573 0.0003701671 0.03854407 0.0011257054 0.004197826 0.0014493191
-0.0012400822 -0.03084653 -0.017033776 0.01491804 0.0010708456 -0.004617504 0.0014654943 0.017634675

action_model._continuous_distribution.mu.bias f4 [48]
00000000: 0000 0000 0000 0000 0000 0000 0000 0000
00000010: 0000 0000 0000 0000 0000 0000 0000 0000
00000020: 0000 0000 0000 0000 0000 0000 0000 0000
00000030: 0000 0000 0000 0000 0000 0000 0000 0000
00000040: 0000 0000 0000 0000 0000 0000 0000 0000
00000050: 0000 0000 0000 0000 0000 0000 0000 0000
00000060: 0000 0000 0000 0000 0000 0000 0000 0000
00000070: 0000 0000 0000 0000 0000 0000 0000 0000
00000080: 0000 0000 0000 0000 0000 0000 0000 0000
00000090: 0000 0000 0000 0000 0000 0000 0000 0000
000000a0: 0000 0000 0000 0000 0000 0000 0000 0000
000000b0: 0000 0000 0000 0000 0000 0000 0000 0000
0.0 0.0 0.0 0.0 0.0 0.0 0.0 0.0
0.0 0.0 0.0 0.0 0.0 0.0 0.0 0.0
0.0 0.0 0.0 0.0 0.0 0.0 0.0 0.0
0.0 0.0 0.0 0.0 0.0 0.0 0.0 0.0
0.0 0.0 0.0 0.0 0.0 0.0 0.0 0.0
0.0 0.0 0.0 0.0 0.0 0.0 0.0 0.0

action_model._discrete_distribution.branches.0.weight f4 [1, 128]
00000000: 5359 433c 0a0d b43b cfc2 173c 77e0 073b
00000010: 3578 383a b313 863c d8b5 da3a 8d02 023b
00000020: fe5a 20bc c91c 393c e733 27bb 2dc3 c33b
00000030: a5b9 9e38 0050 0dbc 8a05 e73b 1fb8 23bb
00000040: 47f1 123c 6f12 0a3c d32d 913b 2d8a eb39
00000050: db6f f83b 10cd 3739 782f e8ba ceb9 3dbc
00000060: ebc8 9ebb 0044 643c 6bb9 323c e7d4 7c3c
00000070: 3f99 2bbc 9232 ec3a 4e4c 413c b6b7 0e3b
00000080: 872c c43b 2b46 cabb 5b38 713b 7b75 393c
00000090: 3ac3 4e3c 070a 9bbb 1277 973c f109 0e3c
000000a0: 9337 a73b f040 db3b 809b 64bc 7351 fb3a
000000b0: 0f91 c839 7296 75ba 37b0 b5bb e075 c83b
000000c0: 9281 f9bb 5f6d f83b 0351 bd3c e3f5 663b
000000d0: f3a6 17bc e229 9d39 33ed 073c 7cba a1b8
000000e0: 219a a93b 27bf b43a ce4f 9e3b 3767 ee3a
000000f0: a41b 10bb bd86 efbb abec 5bbc 643a c73b
00000100: 93e5 72bc 2b77 3138 1af7 d23a 730b f038
00000110: b000 f23b 24cf 85bb 9ded 8639 ab11 efba
00000120: 9461 473b 490f 393b b19b c63a 0737 8cbc
00000130: c83c 9e3a 560c 1bbb faa6 8ebc 83c2 b83b
00000140: dd88 fa3b d77b 9bbb fb64 82bc 82a1 723b
00000150: 173d 133c 7f19 053c 50fa b33c ea1f 863b
00000160: 7733 bdbb e1a9 86ba e2ac a1bb c8a1 4bbb
00000170: 6057 a53b e376 3ebb 0a0c 213c 877e 643c
00000180: eb69 74bb f3f8 07bc 9b1a ad3a d0d8 6b3c
00000190: 6bc7 d5ba 1fce 153b 29d2 833c 63b2 2cbb
000001a0: bb92 9a3b d45f b83b ae35 07bc 4f19 cf3b
000001b0: bd08 613c 9bb0 4fbc 9ba2 4abc b38c ffba
000001c0: 949f 8b3c 5fb4 0bbc 80f3 4ebc eb9f 923a
000001d0: 43c5 8a3c a299 febb 5024 a13b e4b1 af3b
000001e0: 771a d8bb 743b 8b3c 2c5d 8139 0bb5 083c
000001f0: 5589 73bc bb6c c0b9 cf98 2b3c 3771 98bb
0.011923152 0.0054947184 0.009262755 0.0020733157 0.0007036955 0.016366815 0.0016686274 0.0019837946
-0.009787319 0.011298367 -0.0025513114 0.0059741945 7.568606e-05 -0.0086250305 0.007050221 -0.002498157
0.008968658 0.0084272465 0.0044305115 0.00044925642 0.0075816936 0.00017528632 -0.0017714342 -0.011579944
-0.0048457286 0.013932228 0.010908465 0.015431619 -0.010473548 0.0018020442 0.011797978 0.002177698
0.0059867534 -0.0061729155 0.0036807272 0.011319513 0.012619788 -0.00473142 0.018489394 0.008669362
0.0051030605 0.0066910908 -0.01395309 0.0019174054 0.0003825505 -0.00093684264 -0.005544688 0.0061175674
-0.007614323 0.0075813974 0.023109918 0.0035241775 -0.009256112 0.0002997658 0.008296299 -7.711814e-05
0.0051758443 0.0013789878 0.004831291 0.0018188719 -0.0021989131 -0.007309763 -0.013423125 0.0060799588
-0.014825243 4.2311072e-05 0.001609537 0.000114462244 0.007385336 -0.004083531 0.00025735507 -0.0018239518
0.0030423151 0.002823787 0.0015152601 -0.017116083 0.0012072558 -0.0023658476 -0.017413605 0.005638422
0.00764571 -0.0047449875 -0.015917292 0.0037022536 0.008986733 0.0081237545 0.021969944 0.00409316
-0.0057739574 -0.0010274017 -0.0049339393 -0.003107177 0.0050458163 -0.0029062561 0.0098295305 0.013946182
-0.0037294577 -0.0082991 0.0013206782 0.014394954 -0.0016310042 0.0022858453 0.016091423 -0.0026351444
0.0047171987 0.005626658 -0.008252544 0.0063201557 0.0137349935 -0.012676383 -0.01236787 -0.0019496888
0.017043866 -0.008526891 -0.012631297 0.0011186575 0.016939765 -0.0077697793 0.004917659 0.0053617824
-0.0065949517 0.016996123 0.00024674216 0.008343945 -0.0148642855 -0.00036702104 0.010473444 -0.004652168
