results/baseball1/Baseball/Baseball-15539.onnx (onnx, 510855 bytes, 7 tensors)

network_body._body_endoder.seq_layers.0.weight f4 [128, 805]
00000000: ab75 91bc 0470 c43c 06b9 bf3c 00c6 d13c
00000010: 8df8 ffbc 908a 86bd 50b1 f2bc c0b0 d5bc
00000020: 128d 0dbd 74dd fdbb 47f0 6cbc 2f5e 1ebd
00000030: 46ea ddbc b393 253d 7093 083d 7e68 5fbc
00000040: 65d6 233d 466f 923d 9bbf 65bd c045 98bc
00000050: 5ad9 363d 384f 913c 267e 473d c450 c63c
00000060: d5d2 70bd 0581 423c b1f3 4dbc 728d 1e3a
00000070: aead 6a3b 1048 87bc 24bd 923c 5f5f babc
00000080: 57f5 bb3c 34c2 063d 4365 ae3b cd35 a1bd
00000090: 18c3 56bc a76d aabc 00e1 31bc 1918 073c
000000a0: 9f44 abbb 719a 493d a9df 983c 4b94 75bb
000000b0: 220c 343b a361 b23a 2128 00bd 9217 ba3c
000000c0: 3cd9 223d 8071 4a3c f00a 003d 580e 68bd
000000d0: b489 323c f63a b7bc ea07 8cbd d2d1 383d
000000e0: 62fd 46bd e28a 413c 9af0 5e3d 140b 3aba
000000f0: fe4e 32bd 4bec a43d a4e5 f4bc c1c6 c1bc
00000100: dacb 83bc 619c 90bd c5df 5a3c 14d3 ab3d
00000110: a6de 96bc c1f8 503c bae0 233d 703e 34bd
00000120: 5126 5ebd bde1 8c3d a2a5 85bc d33a 0c3c
00000130: a47a 873b 2bbd 093d 442b 363c 9a21 d13c
00000140: a271 023d b189 3d3b ffa5 50bb 1db1 70bc
00000150: cf10 0fbd 04f1 47bc 83da d23c c7ac 1e3d
00000160: be65 acbc 4313 1dbd 6ae8 a2bc 255f 97bc
00000170: ee70 47bc 6d56 993c 2ffb 22bc a034 003d
00000180: a7c2 9abd e9da bb3c cf33 d8bc 9ae9 97bb
00000190: 8ed8 053d 9df4 29bd 3f0d 043d 418c 96bc
000001a0: 3b7f 383d 6c6c 8ebd e27f a33a 2f49 b43b
000001b0: 36a7 913c cb0d 8f3d 770e 163d 45e1 d7bc
000001c0: dd71 6bbc 0c01 3c3b 6468 d33c 0baa 7abd
000001d0: 45fe a8bc 58cd 5bbb 3d76 2a3b cb67 ee3b
000001e0: 186e 99bb dd6d 15bd 044b 92bd 3942 10bd
000001f0: 1b6f 903b 17d4 8fbc 0884 36bc 565f 00bd
00000200: 28b8 8abb c3c3 25bd f49d febc 3280 47bd
00000210: 8960 863c e56d 19bc 0c0d 7d3c e46e 893c
00000220: 8967 8a3d a6ae 47bc 29f4 1f3c 7238 f2ba
00000230: fbb7 51bc ee7e 5abd 87fd 08bd e853 58bc
00000240: 774a 9ebc f127 193d 4205 c2ba 1d2d 563c
00000250: 5d4f b3bc e83d cb3b 0f9e f03b 206c 113c
00000260: 7dae 94bc ce2b 953c 2cd4 16bd cc80 fc3c
00000270: 5c02 4dbd b137 1d3c 783b ed3b 8759 d2bc
00000280: 5953 93bd d6fe 05bb 09c3 1cbc 63af 8cbd
00000290: b185 2dbd 618b b03c a054 b53c 1493 f5bc
000002a0: 61b9 01bc bfc7 98bb d426 463d 8f35 4e3c
000002b0: 87b2 80bc c956 f73c 73ca d73c baca 633d
000002c0: f71d a0bc eab3 67bb e91a efbc 226f 53bc
000002d0: cbdc 3d3d c2b6 3fbd f717 5abd fc26 82bc
000002e0: 218b dd3c 8a60 3b3c 1e5d 093d 6f2d e2bc
000002f0: c322 553d eefa 453d b952 a1bc b049 3bbd
00000300: 1bdd ccbb 2af8 d33c 7374 a13c b13d 5dbd
00000310: 3191 91bc da03 a4bc 8022 66bc 7cfa 7bbc
00000320: b9ea 253c 9c1f aebd 1de8 b2bc 33e3 2dbc
00000330: 6f9f ab3c 5a58 453d d48c 3d3c 4ecb 073c
00000340: 5d33 46bd f22d 193d 4c1a d53b 7017 14bd
00000350: 6737 79bc bf67 a83b 89d1 dfbb 2ad4 343d
00000360: e651 afbc 4264 373d aa4c 3d3d 6592 cc3c
00000370: 5559 68bd a922 50bc 94ef 013d e426 223c
00000380: 84b0 2a3c 85de 44bc 707a 493d 7e30 9a3c
00000390: 6d15 1e3d 9137 91bc c050 a8bd 6588 d7b9
000003a0: 17bd d53b 8453 23bc 41c6 dcbc e84b 923d
000003b0: 1a36 513d f319 be3c 6b45 e4bb 12ef dcbc
000003c0: 0def aabb d37b 39bd a740 9b3d 0e5f 403d
000003d0: cbeb f8bb 5310 53bd 002b 3cbc b63b f8bb
000003e0: 94f9 773d c79c 9b3c ddaa 41bc dc8e bd3b
000003f0: b39a 3dbc a6ed fbbc 07ba 343b 054b b83d
-0.017756304 0.023979194 0.023403656 0.02560711 -0.031246448 -0.065693974 -0.029625565 -0.026085258
-0.034558363 -0.0077473465 -0.014461583 -0.03866404 -0.02708925 0.04042406 0.033343732 -0.013635753
0.039999384 0.0715013 -0.056090932 -0.018587947 0.044640876 0.01773797 0.04870429 0.024208434
-0.058794815 0.011871581 -0.012570308 0.00060482987 0.0035809088 -0.016513854 0.017912455 -0.022750555
0.022944136 0.03290005 0.00532213 -0.0787159 -0.013108037 -0.02080424 -0.010856867 0.008245491
-0.005226686 0.049219552 0.018661337 -0.0037472423 0.0027473052 0.001360942 -0.03128827 0.022716317
0.039757952 0.012356162 0.03126043 -0.056654304 0.010897089 -0.022366982 -0.06837447 0.045121975
-0.04858149 0.011812897 0.054428674 -0.00070969877 -0.043532364 0.08052882 -0.029894657 -0.023654344
-0.016088415 -0.07061077 0.013359015 0.08389869 -0.018416714 0.01275462 0.040009238 -0.044004858
-0.05423576 0.06878994 -0.016314331 0.008558947 0.004134493 0.03362767 0.011118714 0.025528718
0.03184665 0.0028921182 -0.0031837223 -0.014690665 -0.03492814 -0.012203459 0.02573896 0.038738992
-0.021044608 -0.038348448 -0.019886214 -0.018477986 -0.012172921 0.018717969 -0.009947582 0.031300187
-0.07556658 0.022931533 -0.026391892 -0.004636002 0.032677226 -0.041493047 0.032239195 -0.018377425
0.04504321 -0.069542736 0.0012474025 0.005501888 0.017779928 0.06985053 0.03663489 -0.026352534
-0.014370409 0.0028687147 0.025806613 -0.06119732 -0.020629058 -0.0033539142 0.0026010417 0.0072755567
-0.0046823137 -0.036481727 -0.07143214 -0.035219405 0.004407776 -0.017557187 -0.011139877 -0.03134092
-0.004233379 -0.040469896 -0.031081177 -0.04870624 0.016403453 -0.00936458 0.015445005 0.01677651
0.06758029 -0.0121876355 0.009762802 -0.0018479957 -0.012800212 -0.053343706 -0.033444908 -0.013203599
-0.019322617 0.037391607 -0.0014802592 0.013072279 -0.02188843 0.006202448 0.007343061 0.008875877
-0.018149609 0.018209364 -0.036823437 0.030823134 -0.05005108 0.009595797 0.0072397552 -0.025677456
-0.07193632 -0.0020446084 -0.009567984 -0.0686939 -0.042363826 0.021550836 0.022135079 -0.029977359
-0.007917733 -0.0046624835 0.048376873 0.012586012 -0.015710128 0.03019275 0.026341652 0.055613257
-0.019545538 -0.003535504 -0.029187636 -0.012904914 0.046353143 -0.04680515 -0.05324551 -0.01588773
0.02704388 0.011436591 0.03353607 -0.027609555 0.052035104 0.04833501 -0.019692766 -0.04572457
-0.0062519438 0.02587517 0.019708848 -0.05401391 -0.017769428 -0.020021368 -0.014046311 -0.015379544
0.010126763 -0.08502123 -0.021839196 -0.010613251 0.020950047 0.04817996 0.011569221 0.008288218
-0.048388828 0.037397332 0.006503379 -0.036155164 -0.015210963 0.0051393206 -0.0068303985 0.044147648
-0.021401357 0.044773348 0.04621569 0.02497215 -0.05672582 -0.012703576 0.03172262 0.009896968
0.010418061 -0.012015943 0.04918903 0.018821951 0.038594652 -0.017726691 -0.08218527 -0.00041109617
0.0065227854 -0.009968642 -0.026950004 0.07143384 0.051076986 0.023205733 -0.006966283 -0.026969466
-0.0052164854 -0.045284104 0.07580691 0.04696565 -0.007596468 -0.05152924 -0.011484861 -0.0075754775
0.06054075 0.018995656 -0.011820522 0.0057848524 -0.011572528 -0.030752968 0.0027576701 0.08998684

network_body._body_endoder.seq_layers.0.bias f4 [128]
00000000: 0000 0000 0000 0000 0000 0000 0000 0000
00000010: 0000 0000 0000 0000 0000 0000 0000 0000
00000020: 0000 0000 0000 0000 0000 0000 0000 0000
00000030: 0000 0000 0000 0000 0000 0000 0000 0000
00000040: 0000 0000 0000 0000 0000 0000 0000 0000
00000050: 0000 0000 0000 0000 0000 0000 0000 0000
00000060: 0000 0000 0000 0000 0000 0000 0000 0000
00000070: 0000 0000 0000 0000 0000 0000 0000 0000
00000080: 0000 0000 0000 0000 0000 0000 0000 0000
00000090: 0000 0000 0000 0000 0000 0000 0000 0000
000000a0: 0000 0000 0000 0000 0000 0000 0000 0000
000000b0: 0000 0000 0000 0000 0000 0000 0000 0000
000000c0: 0000 0000 0000 0000 0000 0000 0000 0000
000000d0: 0000 0000 0000 0000 0000 0000 0000 0000
000000e0: 0000 0000 0000 0000 0000 0000 0000 0000
000000f0: 0000 0000 0000 0000 0000 0000 0000 0000
00000100: 0000 0000 0000 0000 0000 0000 0000 0000
00000110: 0000 0000 0000 0000 0000 0000 0000 0000
00000120: 0000 0000 0000 0000 0000 0000 0000 0000
00000130: 0000 0000 0000 0000 0000 0000 0000 0000
00000140: 0000 0000 0000 0000 0000 0000 0000 0000
00000150: 0000 0000 0000 0000 0000 0000 0000 0000
00000160: 0000 0000 0000 0000 0000 0000 0000 0000
00000170: 0000 0000 0000 0000 0000 0000 0000 0000
00000180: 0000 0000 0000 0000 0000 0000 0000 0000
00000190: 0000 0000 0000 0000 0000 0000 0000 0000
000001a0: 0000 0000 0000 0000 0000 0000 0000 0000
000001b0: 0000 0000 0000 0000 0000 0000 0000 0000
000001c0: 0000 0000 0000 0000 0000 0000 0000 0000
000001d0: 0000 0000 0000 0000 0000 0000 0000 0000
000001e0: 0000 0000 0000 0000 0000 0000 0000 0000
000001f0: 0000 0000 0000 0000 0000 0000 0000 0000
0.0 0.0 0.0 0.0 0.0 0.0 0.0 0.0
0.0 0.0 0.0 0.0 0.0 0.0 0.0 0.0
0.0 0.0 0.0 0.0 0.0 0.0 0.0 0.0
0.0 0.0 0.0 0.0 0.0 0.0 0.0 0.0
0.0 0.0 0.0 0.0 0.0 0.0 0.0 0.0
0.0 0.0 0.0 0.0 0.0 0.0 0.0 0.0
0.0 0.0 0.0 0.0 0.0 0.0 0.0 0.0
0.0 0.0 0.0 0.0 0.0 0.0 0.0 0.0
0.0 0.0 0.0 0.0 0.0 0.0 0.0 0.0
0.0 0.0 0.0 0.0 0.0 0.0 0.0 0.0
0.0 0.0 0.0 0.0 0.0 0.0 0.0 0.0
0.0 0.0 0.0 0.0 0.0 0.0 0.0 0.0
0.0 0.0 0.0 0.0 0.0 0.0 0.0 0.0
0.0 0.0 0.0 0.0 0.0 0.0 0.0 0.0
0.0 0.0 0.0 0.0 0.0 0.0 0.0 0.0
0.0 0.0 0.0 0.0 0.0 0.0 0.0 0.0

network_body._body_endoder.seq_layers.2.weight f4 [128, 128]
00000000: 2fab fbbc facd 383b 7800 2ebc 47a7 e6bd
00000010: 5189 32be da05 d3bd 1613 57bd 7405 71bd
00000020: a1a5 f63c 7ebc 25bd cf94 833d ee17 a4bd
00000030: 1cf6 9e3d f4b3 1dbd d424 073e ae03 17bd
00000040: 7ff9 fbbd 9518 1bbe 1f8f b63d e34e 873c
00000050: 02bb 8a3d 1cf0 e93d 5234 98bd 92d0 66bd
00000060: 678f c73c fef1 6c3c 56ac 213d 10c5 c03c
00000070: 7fc3 8fbd 97c1 a63d f2ec 6a3d 51ad eb3d
00000080: 0293 cdbc 3dd9 0dbd 6044 3bbe 2df9 6a3b
00000090: a384 e9bd b417 0e3e 5d77 d1bd 9b42 773d
000000a0: a040 433c e116 e8bd 9f2a 573d ddb2 d3bd
000000b0: 1fcd cc3b e3da b13d db48 243d 000f e8bc
000000c0: 9afb 17be 4aa1 a43d b1cb f83d 4261 bcbd
000000d0: f559 08bd 78d0 2ebd 3fa5 d73d b210 533e
000000e0: b22a b63d fcd6 6abd d9f0 2ebd b2e4 fbbd
000000f0: d6dc 40bc 6cf4 ddbc 857d 18bc eb37 2cbe
00000100: badb b13d 2362 02bc a98b 8fbd 9077 a93d
00000110: e5bf ae3c 02c4 373c 97df 1a3e e786 37bd
00000120: 2af4 523d 136e 643c 0b7b e13d f5bd c9bd
00000130: e60b 483c 8d5d e73c 5db4 81bd 1cf2 9f3c
00000140: 0c42 59bb 88b2 debd a50d 3c3b 946a b8bc
00000150: d481 063e 5f7e fcbc aa4e 6e3d f9fc 063d
00000160: 1760 1f3b 7a61 31bd 2687 c5bd d744 21bd
00000170: aab8 983d b94b f5bd eb75 85bc ee64 eabc
00000180: bf30 b53c 9477 b0bc a188 44bd 965f 58bc
00000190: e528 c1bd 63c1 463d d9da 53bd 0b21 7ebd
000001a0: d2b7 523e 63db 4e3d 5a03 96bd c918 a1bd
000001b0: 8c4c a9bd 89f1 4fbe 9a2a 133d 5593 e33d
000001c0: c978 f8bd 5a37 b4bd 4aeb 2b3d 653d c03d
000001d0: 60fc afbd 089a ac3d e794 63bd f5cf b53d
000001e0: 9201 2fbe e2b0 16bd 0eec 6ebd 937d 97bd
000001f0: f7a0 e9bd 9fc8 d1bc b3b7 1c3d b453 b2bd
00000200: 3d7b bf3d 4983 883d 1e19 043c b96c 2a3d
00000210: d026 81bc 5bda 5dba 74aa 503c 2fe5 1d3e
00000220: 067b 463d 2662 0a3b bb3c 11bd a3af 53bd
00000230: 939c 95bd f508 913d 46e2 8bbc e36d 16bd
00000240: e472 7dbd 20bc 9b3d b947 ccbd 93bc b3bd
00000250: 1343 a0bc 7f84 51bc 29c3 e93d f47f b9bd
00000260: a201 003d 9a8c 403d 46b4 08be d685 f13d
00000270: 9f00 ffbc 2879 063e cf97 413d e1bd 91bd
00000280: fe94 8cbd 175f bf3d 757f 81bd 9139 b53d
00000290: f459 523d e27c cf3d 6a34 f8bd 22b9 8dbd
000002a0: 2865 38bd 34b5 f9bd 65df b23d 692f e23d
000002b0: 36a7 2a3e 8997 da3d 8867 f63d 7d2c 053e
000002c0: 13d2 ba3d 8ebf cbbd 356b 273e 4f55 bf3c
000002d0: 353d 81bd 5584 b43d 2ac7 93bd f49d 453d
000002e0: bec9 973d c765 8b3d 34e2 3e3b df12 9b3c
000002f0: bdc6 873c 3b45 dabc 2d74 0a3e c4b9 2abd
00000300: 48c8 06be 0e2c 39bc 3fce 7cbd 1773 a5bd
00000310: 588e 16be 2f57 50be f097 0cbd ca22 f9bc
00000320: 2844 c8bd 884d 453c ea06 da3c 4531 823b
00000330: 1fc4 87bd 213a 923d d549 6e3d 90d5 e3bd
00000340: 88eb e0bd fcd8 913c 01dc 763d 394f c43d
00000350: f24e 9dbd 6b3d dc3d 58ff a4bd 5b75 41bc
00000360: 2930 04be 1f45 e9bc 4d6f ff3c 1a06 11bb
00000370: 4721 09be 859b 95bc 5859 a53d a207 5d3c
00000380: 1b80 ed3b 7838 873d cf28 093e e4e6 1fbd
00000390: a10c d13d fd7b 423d 2911 99bc 1681 aa3d
000003a0: 4bb1 54bd 0f3f 843d 8407 c63d bfdb 143d
000003b0: 79fc 4e3d 8c8e c0bc ff68 b43d 0b85 503d
000003c0: 2a46 d33c 480f f1bb 43b7 2a3b 5776 a63a
000003d0: 2aeb e6bc 5bfa 38be 5fc7 aabc 1880 a13d
000003e0: 2ac0 a3bd 5375 283c 373e 163b f8ae 42bd
000003f0: 2268 183d e3e0 4dbd a3c8 33be 5a7d 74be
-0.030721275 0.0028198943 -0.010620229 -0.11262374 -0.17435195 -0.103038505 -0.052508436 -0.05884309
0.030108275 -0.040462963 0.06424867 -0.08012377 0.077617854 -0.038501695 0.13197643 -0.036868744
-0.12303447 -0.15146096 0.08914017 0.016517108 0.0677395 0.1142275 -0.07431854 -0.056351252
0.024360372 0.014461992 0.039470993 0.023531467 -0.0701971 0.08142393 0.057354875 0.11507667
-0.025094513 -0.034631003 -0.18287802 0.0035854087 -0.114022516 0.1387623 -0.10227845 0.060366254
0.011917263 -0.11332489 0.05253088 -0.1033685 0.0062500383 0.086843275 0.040108543 -0.028327465
-0.14842072 0.08038576 0.12148226 -0.09198238 -0.033288915 -0.04267928 0.10529565 0.20611838
0.08894862 -0.05733393 -0.04271016 -0.122994795 -0.011771401 -0.027094088 -0.00930727 -0.16818206
0.08684488 -0.007957968 -0.0700906 0.08274758 0.021331737 0.0112161655 0.15124355 -0.044806387
0.051502384 0.013942259 0.11009797 -0.098506846 0.012209868 0.02824285 -0.0633323 0.019524626
-0.003315094 -0.10873896 0.0028694656 -0.022511758 0.13135463 -0.030821977 0.05818049 0.032956097
0.0024318749 -0.04330585 -0.09644918 -0.03937229 0.07457097 -0.119773336 -0.01629158 -0.02861258
0.02211797 -0.021541394 -0.047981862 -0.013206383 -0.09431628 0.04852427 -0.05172238 -0.06204323
0.20577934 0.050502192 -0.07324858 -0.078660555 -0.08266553 -0.20306982 0.0359293 0.11112086
-0.12132413 -0.0879962 0.041972436 0.0938671 -0.085930586 0.08427817 -0.055561926 0.08877555
-0.17090443 -0.036789782 -0.058330588 -0.07396998 -0.11407655 -0.025608359 0.038261127 -0.08707371
0.09349678 0.06665666 0.008062629 0.041607592 -0.015765578 -0.00084630185 0.012735952 0.15419458
0.048457168 0.002111563 -0.035458308 -0.051681172 -0.07305255 0.070817865 -0.017075669 -0.03672589
-0.061877146 0.07604241 -0.099746175 -0.08776202 -0.019563233 -0.012787937 0.11414177 -0.09057608
0.031251557 0.047009088 -0.13350019 0.11793105 -0.031128226 0.13132155 0.047263917 -0.07116295
-0.068643555 0.09344309 -0.063231386 0.088488705 0.051355317 0.101312414 -0.12119372 -0.06920077
-0.045018345 -0.12192765 0.087340154 0.11044199 0.16665348 0.10673434 0.12031466 0.13005252
0.091221 -0.099486455 0.1634949 0.023356108 -0.063105024 0.08814303 -0.07215722 0.04824634
0.07411526 0.06806522 0.0029126527 0.018929897 0.016574258 -0.02664434 0.1352088 -0.041681066
-0.13162339 -0.011302007 -0.06172013 -0.08078592 -0.14702737 -0.20345758 -0.034324586 -0.030412097
-0.09778625 0.012042411 0.026614625 0.0039731585 -0.06629204 0.071399935 0.05817588 -0.11124718
-0.10982424 0.017803662 0.060268406 0.09585423 -0.07681073 0.10753902 -0.080565155 -0.011807765
-0.12908997 -0.028475342 0.031181002 -0.002212888 -0.133916 -0.018262634 0.080736816 0.013490589
0.0072479374 0.066025674 0.13394473 -0.039038554 0.10207487 0.047481526 -0.01868494 0.083254024
-0.051926892 0.0645734 0.09669402 0.03634238 0.050533745 -0.023505472 0.08809089 0.05090813
0.025790293 -0.007356558 0.0026049174 0.0012700063 -0.028188307 -0.18064253 -0.02084702 0.0788576
-0.07995637 0.0102818785 0.0022925267 -0.047530144 0.037208684 -0.050263297 -0.17557006 -0.23875943

action_model._continuous_distribution.log_sigma f4 [1, 48]
00000000: 0000 0000 0000 0000 0000 0000 0000 0000
00000010: 0000 0000 0000 0000 0000 0000 0000 0000
00000020: 0000 0000 0000 0000 0000 0000 0000 0000
00000030: 0000 0000 0000 0000 0000 0000 0000 0000
00000040: 0000 0000 0000 0000 0000 0000 0000 0000
00000050: 0000 0000 0000 0000 0000 0000 0000 0000
00000060: 0000 0000 0000 0000 0000 0000 0000 0000
00000070: 0000 0000 0000 0000 0000 0000 0000 0000
00000080: 0000 0000 0000 0000 0000 0000 0000 0000
00000090: 0000 0000 0000 0000 0000 0000 0000 0000
000000a0: 0000 0000 0000 0000 0000 0000 0000 0000
000000b0: 0000 0000 0000 0000 0000 0000 0000 0000
0.0 0.0 0.0 0.0 0.0 0.0 0.0 0.0
0.0 0.0 0.0 0.0 0.0 0.0 0.0 0.0
0.0 0.0 0.0 0.0 0.0 0.0 0.0 0.0
0.0 0.0 0.0 0.0 0.0 0.0 0.0 0.0
0.0 0.0 0.0 0.0 0.0 0.0 0.0 0.0
0.0 0.0 0.0 0.0 0.0 0.0 0.0 0.0

action_model._continuous_distribution.mu.weight f4 [48, 128]
00000000: 454c 15bd cb23 f9bc 9446 06bd 8938 09ba
00000010: cccf 303c 7bf8 edbb 5600 4b3d 9a8c 93bc
00000020: 0bdd 123d 1331 cebc ab60 c53c 8799 123a
00000030: 7a9a c2bb b35d c5bc cc5e adbb aad1 e23b
00000040: c7bc c4bc abee 6f3c cfcc 03bd e579 6fbc
00000050: c831 3f3c 4168 313b 8f73 2e3a 23eb 883c
00000060: ea4a fd3c 7789 923c bfa4 22bc 3a35 81bb
00000070: b2d4 30bc 4dee 2d3c 9f32 bbbc 5f25 9dbc
00000080: 78d0 65ba 3730 5b3b 127b f0bc 5d92 0d3a
00000090: 002d 003d 5db9 683b 9074 fbbb 96cc 183c
000000a0: d3c8 31bc b013 7dbb 0bee c93c 7675 b3bc
000000b0: e36a 693c 765d ad3b c098 56ba 60ac db3b
000000c0: e290 80bc 0463 04bd 1752 07bd b784 fbbc
000000d0: e86e 943b cb6c 0b3d 5612 333b 35bd cfbb
000000e0: fa44 ae3c b2c4 bc3b 6b56 c8bc 6196 323b
000000f0: 4819 38bc b2b6 9c3c 88fb fe3a 753c d9ba
00000100: 909b 1bbc e8e2 0abc e720 d53b 5086 07bc
00000110: 9f4b 37bb ffd4 2abd a8a1 ff3b 9713 aebc
00000120: b024 60bb 7918 a43b 25f6 0e3c f3d7 cabc
00000130: b22f c4bb 2d25 aa3c 529e 0e3d 04ae 80bc
00000140: 0c64 2fbb b4a0 893c a729 46bb ef60 2c3b
00000150: 5a11 0ebc c3e9 e43b 4f8a 563c fb00 783c
00000160: 7a29 5cbc f851 f3bc ff38 793c 8bf2 88bc
00000170: bb67 203c 4c47 aa3b 6d78 283b 5a8b cd3c
00000180: 1dd3 853c 5831 adbc 05a7 7bbc a2ff 9dbc
00000190: 5040 bebc da38 eebc 32ec de3c 158e bebc
000001a0: f4bc a73a b75e aabb e4bc 1abc 72ea b1bc
000001b0: 2588 d8bb bac0 40bc 1326 1abc e5fa d5ba
000001c0: 5428 c5bb 40c5 bd3c 0f96 0ebb 80b9 cfbb
000001d0: e982 bd3a efb9 86bc 82cc 8c3c ba54 9e3b
000001e0: 43fd a13b 7738 61bb 83b0 a83b 03ff 2a3c
000001f0: 2f76 ce3b aa02 e1bc c557 703c 58d2 ef3b
00000200: a04b c33c 6a53 4abb 5e20 bc3b 45d6 83bb
00000210: f8c3 b03c 506f f3bc d5f7 a93c ce57 8e3c
00000220: 67ff 8cbc 834b 97bc c920 b7ba de71 c03c
00000230: d521 05bc da02 d0bc 8f23 a33c 8318 a63c
00000240: 9736 b1bc 7983 9fbc 65ff 64bc 72c5 5bb8
00000250: 9968 38bc 2230 cf3c d71e 243c 5b95 9e3c
00000260: c831 f3bc a56c 8fbc 3f1c b7ba b2f8 14bc
00000270: 8bb1 0ebd 59cb 303c 1719 443c 7e87 023c
00000280: ed5d 593c 969e ad3c 64c9 263b b0c1 e4bb
00000290: b2cc 81bc 8dfc f5bc 3d1f e1b9 7b40 5abc
000002a0: ba85 debc 7726 45bc 2275 4a3c 2312 843b
000002b0: 0821 8b3b eb2d 1abc 21e3 2e3c 6a23 6b3c
000002c0: cd06 0d3d 97b8 903c 5b05 0dbc 909a 903c
000002d0: de21 cbbc 0304 8cbc e1c5 46bc 1488 9b3c
000002e0: 33a6 58bc 2c7f bd3c e26a feba 4a83 593c
000002f0: 632d f53a 4fa9 18bc 3a0c b5bb 1171 17bd
00000300: be1f b53c 5fd1 b9ba 5855 40bc e2d5 f6bc
00000310: d79a 06bc 630b 143c 0c31 3f3c 265e 2f3c
00000320: 7ab5 f8bb 885d f4bc 9f4c 803d 036b 853b
00000330: b3fe 8fbc 7754 ab3c ddaa 9c3c 559e d03b
00000340: 4a0e 1a3c 8fc5 bdbc 0fd4 083d 3570 6c3c
00000350: 40f6 953b 3d53 1cbc 0d4c 83bb b337 17bd
00000360: 0d25 65b9 ab01 67bc 59d6 37bc b540 1dbc
00000370: aafd db3b 1735 1fbd 4066 6bbc 1c26 44bd
00000380: 8fb6 3b3a 2f2e cfbc 1624 903c edce 593c
00000390: eff9 26bc 3b55 5d3c 5f2f 103c 945d 383d
000003a0: 473b a53a 833a 5bbc 1657 353c a930 32bc
000003b0: 992c aa3b 3818 9d3c 53da 92bc 6c37 0ebc
000003c0: 92c2 1a3d fda0 993b 5ae7 e0bb d213 1cbd
000003d0: 49fe 2bbd bb04 09bc 8f6c 593c 837a dfbc
000003e0: 914f bc3c 07fe 953b fb06 25bc bbcc 59bc
000003f0: 2a04 463c 6b8b 393d 8f97 7fbc 77c6 d8bc
-0.03644969 -0.030412575 -0.032782152 -0.00052345596 0.01079173 -0.007262287 0.049560867 -0.01801138
0.035855334 -0.025169885 0.024093946 0.00055923354 -0.005938825 -0.02409253 -0.0052908417 0.0069219666
-0.024015797 0.014644305 -0.032177743 -0.014616464 0.011669584 0.0027070197 0.0006654793 0.016713684
0.03091951 0.017887814 -0.009926974 -0.0039431127 -0.010792898 0.010615897 -0.022851286 -0.019182859
-0.0008766721 0.0033445486 -0.02935556 0.0005400533 0.031292915 0.0035510876 -0.0076738074 0.009326121
-0.010851103 -0.003861647 0.02464964 -0.021906596 0.014246675 0.0052906824 -0.00081862137 0.0067038983
-0.015694086 -0.03232099 -0.03303727 -0.030702932 0.0045298226 0.0340393 0.0027324161 -0.006339694
0.021273125 0.0057607526 -0.02445527 0.0027250277 -0.011236496 0.019130085 0.0019453624 -0.0016573804
-0.009497538 -0.00847695 0.0065041664 -0.008271769 -0.0027968658 -0.041707035 0.0078012533 -0.021249576
-0.0034201555 0.0050078 0.008725678 -0.024761176 -0.005987131 0.02076968 0.034818955 -0.015707977
-0.0026762513 0.016800262 -0.003023723 0.0026302894 -0.008671129 0.0069858744 0.013094499 0.0151369525
-0.013437623 -0.029702172 0.015211343 -0.016717216 0.009790356 0.0051964875 0.0025706545 0.025090862
0.016336018 -0.021141693 -0.015359645 -0.019286934 -0.023224026 -0.029079843 0.027212236 -0.02326111
0.0012797401 -0.005199279 -0.009444449 -0.021718238 -0.0066080266 -0.0117647 -0.009408492 -0.0016325383
-0.0060167704 0.023165345 -0.0021756922 -0.006339252 0.001445857 -0.016446082 0.01718736 0.0048318775
0.004943521 -0.003436593 0.005147995 0.010436776 0.0063007097 -0.02746709 0.014669363 0.007318776
0.023839772 -0.0030872473 0.005741163 -0.0040233457 0.02157782 -0.029716164 0.020748058 0.017375853
-0.01721163 -0.018468624 -0.0013971563 0.023491796 -0.008125742 -0.025391985 0.019914417 0.02027536
-0.021632476 -0.01947187 -0.013976906 -5.2397554e-05 -0.011255407 0.025291506 0.010017118 0.019358328
-0.029686823 -0.01750786 -0.001397021 -0.009092497 -0.034837287 0.010790669 0.0119688725 0.007966874
0.013267023 0.021193784 0.0025449628 -0.006981097 -0.015844677 -0.030027652 -0.0004293862 -0.013321037
-0.027163375 -0.0120330965 0.012357028 0.0040304824 0.004245881 -0.009410362 0.010674269 0.014351705
0.034430314 0.017666144 -0.008607234 0.017651826 -0.024796423 -0.017091757 -0.012132139 0.018985786
-0.013223219 0.02313193 -0.0019410516 0.013275931 0.0018705543 -0.00931771 -0.005525139 -0.036973063
0.022109862 -0.0014176777 -0.011739098 -0.030131284 -0.008215628 0.009035918 0.0116694085 0.010703599
-0.007589993 -0.029829755 0.06264614 0.0040715947 -0.017577505 0.0209143 0.019124443 0.006366531
0.009402821 -0.023165492 0.03340536 0.014431049 0.0045764744 -0.00954133 -0.0040068687 -0.036918353
-0.00021852944 -0.014099519 -0.011220538 -0.009597947 0.0067135887 -0.03886899 -0.01436764 -0.047887906
0.0007160687 -0.025290577 0.017595332 0.013293964 -0.010191425 0.01350909 0.008800357 0.045011118
0.0012606167 -0.0133806495 0.011068126 -0.010875859 0.0051933047 0.019176587 -0.01792637 -0.008680206
0.037783213 0.0046883808 -0.0068635168 -0.03810484 -0.041990552 -0.008362944 0.013270511 -0.027280098
0.022987159 0.0045774016 -0.010072465 -0.01329344 0.012085954 0.045298975 -0.015600099 -0.026461823

action_model._continuous_distribution.mu.bias f4 [48]
00000000: 0000 0000 0000 0000 0000 0000 0000 0000
00000010: 0000 0000 0000 0000 0000 0000 0000 0000
00000020: 0000 0000 0000 0000 0000 0000 0000 0000
00000030: 0000 0000 0000 0000 0000 0000 0000 0000
00000040: 0000 0000 0000 0000 0000 0000 0000 0000
00000050: 0000 0000 0000 0000 0000 0000 0000 0000
00000060: 0000 0000 0000 0000 0000 0000 0000 0000
00000070: 0000 0000 0000 0000 0000 0000 0000 0000
00000080: 0000 0000 0000 0000 0000 0000 0000 0000
00000090: 0000 0000 0000 0000 0000 0000 0000 0000
000000a0: 0000 0000 0000 0000 0000 0000 0000 0000
000000b0: 0000 0000 0000 0000 0000 0000 0000 0000
0.0 0.0 0.0 0.0 0.0 0.0 0.0 0.0
0.0 0.0 0.0 0.0 0.0 0.0 0.0 0.0
0.0 0.0 0.0 0.0 0.0 0.0 0.0 0.0
0.0 0.0 0.0 0.0 0.0 0.0 0.0 0.0
0.0 0.0 0.0 0.0 0.0 0.0 0.0 0.0
0.0 0.0 0.0 0.0 0.0 0.0 0.0 0.0

action_model._discrete_distribution.branches.0.weight f4 [1, 128]
00000000: 3741 f83b cb2a 5f3c 1b2d 89bc 2d2e 123c
00000010: 9d7b 75bb 2d80 05bc 6aab cc3a ef93 433b
00000020: 3b48 fcbb 4ade c637 4be5 653b 6a3e af3b
00000030: 2e5f 41bc 371a bdbb 58f5 483c 460c 0c3b
00000040: efbb d839 0532 163c d050 393c 7909 24bc
00000050: 83ca b73a 3979 89ba cb3e 883b 1064 533c
00000060: 38b0 453b bdbe e93b a38b 4d3c 6f65 8bbb
00000070: 13d9 d6bb 4764 b23b b779 a33b eeb4 2e3c
00000080: d4d1 a73a 6f66 78bb ab1c 6d3b 9211 33bb
00000090: a28e d7bb 12c9 e23b 68c5 0d3a eaf3 933b
000000a0: c710 b23b 283c 683b 1df6 4d3b 9282 4fbc
000000b0: fe83 3438 deef 243b 8d23 ef3b f5e5 ceba
000000c0: a7cf e4bb c2d0 6a3c 6353 6e3a 33f4 8b3b
000000d0: 6fde 9fbb 3724 713b ce1a 843b b4ad aebb
000000e0: d7a7 bebb ebd9 28bc ff6a ffbb b5d6 fcbb
000000f0: b773 ccbb 8620 2a3c 93c8 d0bb 4ab8 17bc
00000100: 6248 6c3b 56ed 90bb 7838 4cbc dfa5 ed3b
00000110: 20d2 d73b b7e9 493c 23ed 193c dab3 4fba
00000120: 1083 203c a26d d43b 8b55 113c 85f3 50bc
00000130: 14ad 1f3b 5335 d9ba 07b9 e7b8 0182 44bb
00000140: 1c47 a7bb adc5 21bc 1930 053c 4ba6 163c
00000150: 421d 6f3c 2bad 35bc d626 ccba a31e 953b
00000160: 6693 08bc 4faf 863c 0508 5d3a 7786 c03b
00000170: adfc 523c a323 d5bb e3ad a3bc 337f de3b
00000180: 9f6e 2c3c 2fd3 133c e1f3 473b d786 14bc
00000190: b934 233b 58e6 29bb b703 14bc 9381 3a3a
000001a0: 5a2b a93c 354a 073c 2050 bebb 052a b2ba
000001b0: 55b3 06bc 975a 683c f37e 0a3c 4d56 a1ba
000001c0: 77e4 47ba 0806 ce3b 0fe2 413c abc9 43bc
000001d0: 7059 14bb 32e3 8bbb ea6c 38bc 4f89 70bb
000001e0: 960a 233c 0bcd 883b c3fc 89bb 7860 b9bb
000001f0: 5fe5 9fbb d02a 7b3b c5f3 203c df70 10bc
0.0075761336 0.0136210425 -0.01674514 0.008922142 -0.0037457712 -0.008148235 0.001561505 0.0029842814
-0.00769904 2.370695e-05 0.0035079296 0.0053480165 -0.011802478 -0.0057709473 0.012265526 0.002136962
0.00041338752 0.009167199 0.011310771 -0.010012024 0.0014022145 -0.0010488398 0.004157876 0.012902275
0.003016485 0.0071333335 0.012545499 -0.004254035 -0.006556639 0.005444083 0.004988875 0.010663254
0.0012803623 -0.0037902852 0.0036180418 -0.0027323705 -0.0065782825 0.006920942 0.0005408139 0.004515161
0.005434129 0.0035436247 0.0031427213 -0.012665408 4.303827e-05 0.0025167386 0.007297939 -0.0015785085
-0.006982762 0.014331998 0.0009091405 0.004271054 -0.004878811 0.0036795267 0.0040315157 -0.0053307656
-0.005818348 -0.010305862 -0.0077947374 -0.0077160248 -0.00623938 0.010383731 -0.0063715666 -0.0092602465
0.0036053886 -0.004422824 -0.012464635 0.0072524394 0.006586328 0.012323788 0.009394917 -0.00079232233
0.009796873 0.006482796 0.008870493 -0.012753372 0.0024364637 -0.0016571678 -0.000110494024 -0.0029984715
-0.0051049124 -0.00987379 0.008129143 0.009194921 0.014594378 -0.01108865 -0.0015575539 0.0045507713
-0.008335924 0.016441016 0.0008431676 0.0058754045 0.012877625 -0.0065044924 -0.019980377 0.0067900657
0.010524421 0.009022518 0.0030510353 -0.009065351 0.0024903251 -0.002592465 -0.009034089 0.0007114645
0.020650554 0.008257438 -0.0058078915 -0.0013592845 -0.008221467 0.014181755 0.008453119 -0.0012309045
-0.00076252915 0.00628734 0.011833682 -0.011949937 -0.0022636317 -0.004269027 -0.011256436 -0.0036702936
0.009951254 0.0041748337 -0.0042110397 -0.005657252 -0.004879638 0.0038325079 0.009823744 -0.008815973
