results/baseball1/Baseball/Baseball-1453.pt (torch, 993328 bytes, 13 tensors)

network_body._body_endoder.seq_layers.0.weight f4 [128, 805]
00000000: 53a4 f23c 205b adbd e02f d8bb 95ff b3bc
00000010: 1d62 2f3b 7217 d6bb 102f f13b 9386 75bb
00000020: 9edb a73c 8354 0e3c 9828 0c3d 25c1 bf3c
00000030: 94da 593c 199b b3bb c052 a0bc c4b0 313b
00000040: 8068 09bc 4862 37bd 4bf2 c8bc e92a 4ebc
00000050: d3f0 bd3d 66b9 a7bc d59a de3b 4566 9dbb
00000060: ff50 e83c 5026 e83b 6af0 c73c a407 9dbd
00000070: 29b4 27bc e60b 7f3c c63f 143d 72c0 c7bc
00000080: 0707 c8bb 8e8f 753d 8442 18bd e264 4fbd
00000090: e048 8a3c 8df2 c63c 1477 f23b c49c 5c3d
000000a0: 5cf4 a5bc 53b2 40bc 3ae9 893d 0fe2 a3bc
000000b0: 1d8f 09bc 968f d9bc f4de 31bb fbba dabd
000000c0: 26ae 953d 9cd3 7fbb 0a60 c23c 7a7f 24bd
000000d0: 92b5 df3b 6244 ebbb 03d9 8dbd 889b b93c
000000e0: e818 55bd 5244 163d 69a5 0e3d 8756 263d
000000f0: 3d2b 2b3c 98bf 0a3d a10e 14bd fb5b 67bd
00000100: 192a 27bd 08f3 533d b7e5 5d3d 6692 49bc
00000110: c2a2 1cbd 119c 4cbd c5b0 82bd 8270 d3bd
00000120: 6917 463c 017a ffbc 347b 683d 0646 313d
00000130: fe6f 483c ac1f 24bd 3a6e aa3b 1d9c 2e3d
00000140: ea0f 52bd 5f9d 8a3d 4f98 f5bc ff94 5e3d
00000150: 9526 20bb fa37 c73c bb1b 223d d288 093c
00000160: 8ba1 1d3b a7ee c83c 536a 803c da7b d53c
00000170: 213d d4bc 1c1f 82bc 596d eb3c fe92 243c
00000180: 2fdd 313c a687 453c 5f1d 823c 7fa6 013d
00000190: b111 16bd e2a5 1abc f33c aa3c 8f4d 933d
000001a0: c41f 5fbd cc7e 22bd 0c36 33bd b011 9f3c
000001b0: c8b9 86bb 5436 6abc fdf6 203d eb5c 4bbd
000001c0: e0b7 dcbc 60a4 9dbd fa06 ba3b d7b5 0bbc
000001d0: c01c 9cbc bfe0 38bc bbc9 873c 182f 853b
000001e0: caec 55bb 6498 413c 3785 0e3a fd05 153d
000001f0: 8b3d 343c 4a46 3b3d 3cfa d6bc 7cec 7dbc
00000200: f9d3 94bd 27a2 29bd b661 4cbd 5470 293c
00000210: 3d95 1d3d ecdd 50bb fdcf 90ba 34c3 2f3d
00000220: 5fa9 1a3c 5444 b73c 9087 51bd 5691 23bb
00000230: fdb9 b9bc d0ee ee3b 41b6 32bc 803b 11bc
00000240: 218e 5f3c 973d 65bc 04c6 06bd 61b9 e93d
00000250: 2b76 6ebd 1359 693c cb04 b5bc c069 703d
00000260: bfbf 663a 0517 6bbd 0972 513c 401b 153d
00000270: 88e4 b5bb 0f32 8dbc c0a1 35bd c8f7 cb3d
00000280: 561f 85bb b40a f9bb 53f0 803c 3ac9 99ba
00000290: 25f2 aebc 21cf d33b 878c 16bd 57b6 b33c
000002a0: e868 1a3d 0f27 063b 5b74 a23c 58f0 a23c
000002b0: cb52 14bd 2f82 31bc 8838 5abd aad4 55bb
000002c0: ee15 af3c eb5a a8bb ae76 db3b 2112 883c
000002d0: 8b02 92bc fab7 d9bb 50a8 3dbd 2fa1 95bc
000002e0: 27a6 4ebc e23f 8cbd ec0c 2c3d 3090 13bd
000002f0: 7a61 b53c 1782 fb3b 48a9 1f3c d8d1 bcbc
00000300: d726 dd3c f399 c3bc c8df 79bc acb9 a1bd
00000310: 0402 9e3c b25d 1dbd a95c 54bd 8340 e9bc
00000320: aca8 dbbc 80fd 11bd 3d7f 9d3d 23d1 833d
00000330: f720 133d 691a 653d b213 253d 6a6a 85bd
00000340: 7bd5 573d 651b 323c e048 113d 9ad6 7a3d
00000350: 21b9 e53c 53b8 173c 51cd bd3c 1a47 82bd
00000360: 693c 10bd 7278 2fbb 6910 30bb bd7f b8bb
00000370: 2318 16bc bd0a 1dbd 474d 063d b903 1c3d
00000380: 3325 0dbc a419 673c 4de1 29bd 8438 1abd
00000390: 0e72 6cba 6538 873c f0e7 ba3c 24a4 92bc
000003a0: 02b2 1a3d 41f7 04bb cae7 01bd faac a1bd
000003b0: 2bcd 88bc 7de7 a33c ac3a 883d 7ca2 263c
000003c0: d493 83bd 698c 273d 8c44 2fbd e4d7 c33c
000003d0: d2d9 c63c 7781 41bd ad4d 483d f4a7 e5bc
000003e0: a7ee f6bc 9bc5 163d 9f49 063d 2d7b 18bd
000003f0: a2d8 5dbd 4e4b 7c3c 1f0e f1ba aa0d 2c3c
0.029619372 -0.08464646 -0.006597504 -0.021972457 0.002676136 -0.0065335566 0.0073603466 -0.0037464246
0.020490464 0.008687141 0.0342184 0.023407528 0.013296742 -0.0054811356 -0.019570708 0.0027113417
-0.008386731 -0.044771463 -0.024529597 -0.012583473 0.09274449 -0.020474147 0.0067933598 -0.0048034512
0.028358934 0.0070846453 0.02440663 -0.07667473 -0.010235825 0.015566802 0.03619363 -0.024383757
-0.0061043533 0.059951358 -0.03717281 -0.05063332 0.016880453 0.02428558 0.007399449 0.05386044
-0.020258121 -0.011761266 0.067339376 -0.020005254 -0.008395937 -0.026557725 -0.0027140947 -0.10680195
0.07308607 -0.003903604 0.023727436 -0.040160634 0.006827065 -0.0071797827 -0.06926157 0.02265717
-0.052025706 0.03668625 0.034825716 0.040609863 0.0104473205 0.033874124 -0.036146764 -0.056484204
-0.04081163 0.051745445 0.05417415 -0.0123029705 -0.038241155 -0.049953524 -0.06381372 -0.103241935
0.012090542 -0.031186106 0.05675812 0.04327967 0.012233732 -0.040069267 0.0052011283 0.04262935
-0.051284708 0.067682974 -0.029979853 0.054341312 -0.002443706 0.024318684 0.039577227 0.008394437
0.0024052586 0.02452786 0.0156757 0.026060034 -0.025908055 -0.015883975 0.028738664 0.010044811
0.010855957 0.012056267 0.015883146 0.031652924 -0.036637966 -0.009438964 0.020781016 0.071925275
-0.054473653 -0.039671704 -0.043752715 0.019417614 -0.0041115023 -0.014295179 0.039298046 -0.04964916
-0.026943147 -0.07697368 0.005677101 -0.008527241 -0.019056678 -0.011284052 0.016575685 0.004064452
-0.0032642358 0.011816118 0.00054367207 0.036382664 0.011001001 0.04572133 -0.026242368 -0.015498277
-0.07266993 -0.041414406 -0.049897872 0.0103417225 0.038472403 -0.0031870557 -0.0011048313 0.04291077
0.009439795 0.022371449 -0.051154673 -0.0024958453 -0.022671694 0.0072916523 -0.0109077105 -0.008864284
0.013644726 -0.013991735 -0.032903686 0.11412311 -0.058218163 0.014242428 -0.022097012 0.0586946
0.0008802376 -0.057395 0.012783536 0.03640294 -0.0055509247 -0.017235784 -0.04434371 0.0995937
-0.0040625734 -0.007600153 0.015739596 -0.0011732944 -0.021355698 0.0064639007 -0.03675511 0.021937532
0.037697703 0.0020470058 0.019830873 0.019889995 -0.03621177 -0.010834261 -0.05327657 -0.0032627978
0.021372762 -0.0051377914 0.0066974973 0.016610207 -0.017823478 -0.006644246 -0.046303093 -0.018265335
-0.012612856 -0.06848122 0.04200451 -0.03602618 0.022141207 0.00767542 0.00974495 -0.02304928
0.02699606 -0.02387712 -0.0152511075 -0.07896742 0.01928807 -0.038419433 -0.05184618 -0.028473144
-0.026813827 -0.035642147 0.076902844 0.06436374 0.03592011 0.05593339 0.040301986 -0.065144375
0.052693825 0.010870789 0.03546989 0.061239816 0.028042378 0.009260255 0.023169192 -0.06361218
-0.03521386 -0.0026774672 -0.002686525 -0.005630462 -0.009161028 -0.03834032 0.03278854 0.038089488
-0.008614826 0.014105234 -0.04147463 -0.037651554 -0.0009019681 0.016506383 0.022815675 -0.017900534
0.037767418 -0.0020288976 -0.031715192 -0.07894321 -0.016699394 0.020007843 0.06651816 0.010170575
-0.0642468 0.04090539 -0.04278998 0.023906656 0.024273787 -0.047242608 0.048902202 -0.028034188
-0.030143095 0.036809545 0.032785054 -0.037226845 -0.054161675 0.015398813 -0.0018391049 0.010501305

network_body._body_endoder.seq_layers.0.bias f4 [128]
00000000: 0000 0000 0000 0000 0000 0000 0000 0000
00000010: 0000 0000 0000 0000 0000 0000 0000 0000
00000020: 0000 0000 0000 0000 0000 0000 0000 0000
00000030: 0000 0000 0000 0000 0000 0000 0000 0000
00000040: 0000 0000 0000 0000 0000 0000 0000 0000
00000050: 0000 0000 0000 0000 0000 0000 0000 0000
00000060: 0000 0000 0000 0000 0000 0000 0000 0000
00000070: 0000 0000 0000 0000 0000 0000 0000 0000
00000080: 0000 0000 0000 0000 0000 0000 0000 0000
00000090: 0000 0000 0000 0000 0000 0000 0000 0000
000000a0: 0000 0000 0000 0000 0000 0000 0000 0000
000000b0: 0000 0000 0000 0000 0000 0000 0000 0000
000000c0: 0000 0000 0000 0000 0000 0000 0000 0000
000000d0: 0000 0000 0000 0000 0000 0000 0000 0000
000000e0: 0000 0000 0000 0000 0000 0000 0000 0000
000000f0: 0000 0000 0000 0000 0000 0000 0000 0000
00000100: 0000 0000 0000 0000 0000 0000 0000 0000
00000110: 0000 0000 0000 0000 0000 0000 0000 0000
00000120: 0000 0000 0000 0000 0000 0000 0000 0000
00000130: 0000 0000 0000 0000 0000 0000 0000 0000
00000140: 0000 0000 0000 0000 0000 0000 0000 0000
00000150: 0000 0000 0000 0000 0000 0000 0000 0000
00000160: 0000 0000 0000 0000 0000 0000 0000 0000
00000170: 0000 0000 0000 0000 0000 0000 0000 0000
00000180: 0000 0000 0000 0000 0000 0000 0000 0000
00000190: 0000 0000 0000 0000 0000 0000 0000 0000
000001a0: 0000 0000 0000 0000 0000 0000 0000 0000
000001b0: 0000 0000 0000 0000 0000 0000 0000 0000
000001c0: 0000 0000 0000 0000 0000 0000 0000 0000
000001d0: 0000 0000 0000 0000 0000 0000 0000 0000
000001e0: 0000 0000 0000 0000 0000 0000 0000 0000
000001f0: 0000 0000 0000 0000 0000 0000 0000 0000
0.0 0.0 0.0 0.0 0.0 0.0 0.0 0.0
0.0 0.0 0.0 0.0 0.0 0.0 0.0 0.0
0.0 0.0 0.0 0.0 0.0 0.0 0.0 0.0
0.0 0.0 0.0 0.0 0.0 0.0 0.0 0.0
0.0 0.0 0.0 0.0 0.0 0.0 0.0 0.0
0.0 0.0 0.0 0.0 0.0 0.0 0.0 0.0
0.0 0.0 0.0 0.0 0.0 0.0 0.0 0.0
0.0 0.0 0.0 0.0 0.0 0.0 0.0 0.0
0.0 0.0 0.0 0.0 0.0 0.0 0.0 0.0
0.0 0.0 0.0 0.0 0.0 0.0 0.0 0.0
0.0 0.0 0.0 0.0 0.0 0.0 0.0 0.0
0.0 0.0 0.0 0.0 0.0 0.0 0.0 0.0
0.0 0.0 0.0 0.0 0.0 0.0 0.0 0.0
0.0 0.0 0.0 0.0 0.0 0.0 0.0 0.0
0.0 0.0 0.0 0.0 0.0 0.0 0.0 0.0
0.0 0.0 0.0 0.0 0.0 0.0 0.0 0.0

network_body._body_endoder.seq_layers.2.weight f4 [128, 128]
00000000: 912b 6bbc a8a6 dabd 28ea 803d 46a0 9abd
00000010: 98c8 f53d b3da 183d ea80 c5bd cc36 0a3e
00000020: fe3a 063d 3e82 58bd d583 743c 3a63 803d
00000030: 7bfe b53d 4358 60bd 5e5c a1bc d718 d8bd
00000040: 448a 4d3d 4cfa 01be 1aa0 05bd 4c37 6dbd
00000050: 91a8 043e 30e5 053e c8cc d13c 8b42 013e
00000060: 8e3e 6b3c 1d5a 14bd 12aa 91bc 437b 0f3d
00000070: 7894 05be c76f 5bbc afa7 0dbe 9d19 c3bd
00000080: f403 1f3c 8f60 a33d 0fb8 37bc 188a 0a3e
00000090: 3ad0 1ebe 5191 b53d af38 e13d 5692 bd3c
000000a0: ab6a 0ebe afb7 e63c 84f3 07be 239b 063b
000000b0: bbf8 a9bd 740e b93d 5a53 f7bc eb3f fe3d
000000c0: cfa4 d7bc cce7 013e 1d87 21be 930d 23bb
000000d0: e52a c1bc a87a 7e3e 7de2 a1bc c7a4 05be
000000e0: e1f6 6f3d b80e 3b3d 8fee 083e 8cf4 20be
000000f0: 63a4 8e3d 242a fe3c f91e ea3c 0caa de3b
00000100: 7aa5 bdbc 0670 0dbd a1e0 cc3d 7fc3 58bc
00000110: f79e 083e ed47 823d 70e5 353d a9b1 5a3d
00000120: 7c3f e2bd 0c84 1e3e a986 fbbd 9c20 cabd
00000130: 168a 08be aad4 c23d 7366 3ebd da2e 2a3d
00000140: 8c8a c03d bbf4 77bd c5f4 cfbd 3eb9 31be
00000150: 8c02 9bbd 1c3d b6bd 5029 b83d 1401 b93d
00000160: 873b 17bc 18f7 c7bc b0f7 52bd cf7b 9bbd
00000170: ee24 64bd abb7 eabc 351d be3d f046 3c3d
00000180: 2569 0f3a 9265 05be 734e 90bd 8e03 433d
00000190: 0055 6ebd 6145 ed3d ccec d93d ad78 6dbd
000001a0: a87f 4e3e f3ce 77bc 2aa0 ca3d 3e40 9e3d
000001b0: 3141 f23d 683d d43c 0f16 8abd fc92 f5bc
000001c0: 5916 22be cc67 7f3d d420 153e 052f 3f3c
000001d0: 9677 1b3e 427b f0bd fe78 0b3d 2c7c 63bd
000001e0: 9e10 a13d 007c 58bc 0ec2 233e b087 753d
000001f0: 7c0c 16bc 6323 91bd b5f7 7e3d e626 c2bd
00000200: bafd 13bd 3b63 973d b4e5 8d3c e8fc 13be
00000210: 3455 1a3d 18e2 9b3d 93b4 02bb 9b51 2dbb
00000220: cf91 3f3d 1886 5b3e 47a8 ee3d 5597 313d
00000230: 725c 1b3e 44b3 b1bd efea 33bd 9cbf f3bd
00000240: 793e 0e3d e7b4 09bd 7281 b7bd fbf1 1f3d
00000250: 3e0e f63b ae57 fd3d bdd2 5fbd 8b93 8c3d
00000260: 523a cfbd 4e43 c7bd 312f fa3c 0072 19be
00000270: b478 cabc 02d5 273c b97c cd3d fd32 013e
00000280: a7a8 8a3b 232b 943c ebf6 5a3c fff7 f4bc
00000290: cf4b ec3c c155 7abd c6af 9339 1221 06bd
000002a0: 08ef e23c 5124 f2bd d5eb 05bc 4183 ba3d
000002b0: 20b4 9e3d d4eb 873d 1915 8e3d 8d7e 71bd
000002c0: 0036 8037 ac2a 643d b784 bbbd 76ac c93c
000002d0: f74e 2cbd ecc4 a0bd f767 f33d 2ac8 dcbc
000002e0: db59 c4bd a492 2abd b93f abba c224 42bd
000002f0: 0b15 d43d 7616 423d f16b 303e 2eea 75bc
00000300: 3c0e 03be 47ef 863d 1971 9f3d 4708 d1bd
00000310: f9fa 3c3c 16da 6ebd 6790 a53c d546 98bd
00000320: f41a 20bd 8689 11bd 6788 3dbe 713f 3b3c
00000330: 0bca 4c3d 0901 90bd be06 c0bd eb9e 903d
00000340: 17fb 133e ce39 103e f574 52bd a966 ba3d
00000350: 4f7a 79bd 565f fdbd 798a cd3d aa04 e53b
00000360: 81e5 d23c 90ee 393e 0636 f43c 5a51 283d
00000370: bf1f fe3d 86ab b7bd 312b 593d 3090 2dbc
00000380: 9197 4ebd 3d03 67bc 6d63 aa3d 6766 ebbd
00000390: 3fcb 9bbd d6c4 be3d 4c43 2ebe b10b fa3d
000003a0: 05b7 1cbe 5c66 593d 1cc6 7e3c cb6f d6bd
000003b0: 5d8d 123d d49f 1cbe 811e ddbd 6528 863d
000003c0: 21f4 5a3e 34fe 2f3c f22d 80bd b2cc e23d
000003d0: 2062 b3bd 7fe1 c13d 42d0 0b3e cbb5 643d
000003e0: 2911 39bd ab16 aa3d a072 1d3d c7d7 b03d
000003f0: 8543 1b3e 03c6 a53d 9d02 01be 60c4 45bd
-0.014353649 -0.106763184 0.06294662 -0.07550101 0.12001151 0.037317943 -0.09643729 0.13497466
0.032771103 -0.052858584 0.014924009 0.06268926 0.08886429 -0.054771673 -0.019697364 -0.10551613
0.05018069 -0.12693137 -0.032623388 -0.057914063 0.12954928 0.1307571 0.025610343 0.1262304
0.014358176 -0.03621875 -0.017781291 0.03502966 -0.13044918 -0.013393349 -0.13833497 -0.0952637
0.009705532 0.079774015 -0.011213317 0.13529241 -0.1550912 0.088656075 0.1099714 0.023141067
-0.13907878 0.028163759 -0.13276488 0.0020539246 -0.08299395 0.0903596 -0.030191112 0.12414535
-0.026323704 0.1268608 -0.15774198 -0.0024879917 -0.023580024 0.24851477 -0.019761318 -0.13051139
0.05858505 0.045668334 0.13372253 -0.15718287 0.06964948 0.031025954 0.028579222 0.0067951735
-0.023150194 -0.034530662 0.10003782 -0.013230204 0.1334189 0.06361375 0.04440826 0.053392086
-0.11047265 0.1548006 -0.12281544 -0.09869501 -0.13333926 0.09513219 -0.046484422 0.041548587
0.09401426 -0.060536128 -0.10154108 -0.1735582 -0.07568845 -0.088983744 0.08992255 0.09033409
-0.009230501 -0.024409816 -0.051505744 -0.07591974 -0.05569928 -0.028652033 0.092829145 0.04596609
0.0005470685 -0.13027027 -0.07046213 0.047610812 -0.05818653 0.115854986 0.106408685 -0.057976414
0.20165884 -0.015125024 0.0989383 0.07727097 0.118288405 0.025908187 -0.067424886 -0.029977314
-0.15828837 0.062354848 0.14563304 0.011668925 0.15182337 -0.117422596 0.034050934 -0.05553834
0.078644976 -0.013213158 0.15991995 0.059943855 -0.00915825 -0.070868276 0.06224795 -0.094800755
-0.036130644 0.073919736 0.017321445 -0.14451945 0.037678912 0.07611483 -0.0019944056 -0.0026446346
0.046769913 0.21437871 0.1165319 0.043357212 0.15171984 -0.0867677 -0.043925222 -0.11901781
0.034727547 -0.033619788 -0.089602366 0.03904913 0.007509022 0.12370239 -0.054644335 0.06864079
-0.101185456 -0.09729634 0.03054008 -0.14984894 -0.024715759 0.010243656 0.100335546 0.12617107
0.0042315307 0.018086975 0.013364534 -0.02990341 0.028844742 -0.061116938 0.00028168986 -0.032746382
0.02770187 -0.11823333 -0.0081739025 0.09107066 0.077492 0.066367775 0.06937618 -0.05895858
1.5283935e-05 0.055704758 -0.09156173 0.024618369 -0.042067494 -0.0785006 0.11885064 -0.026950914
-0.09587451 -0.041643754 -0.0013065255 -0.047398336 0.10355576 0.0473847 0.17228676 -0.015009446
-0.12798399 0.06588607 0.077852435 -0.10206657 0.011534446 -0.05831345 0.020210458 -0.07435385
-0.039088205 -0.035531543 -0.18509065 0.0114287 0.04999737 -0.070314474 -0.09376286 0.07061561
0.14451252 0.1408455 -0.05138107 0.09101612 -0.06090766 -0.123716995 0.10036177 0.0069890814
0.025744202 0.1815741 0.029810917 0.041093208 0.12408399 -0.089682624 0.053019706 -0.010593459
-0.050437514 -0.014099893 0.08319745 -0.11494141 -0.076071255 0.09314887 -0.17017859 0.12209261
-0.15304191 0.053076133 0.015550163 -0.104705416 0.035779346 -0.15295345 -0.10796834 0.065506734
0.2138219 0.010741759 -0.062587634 0.11074199 -0.0875895 0.09466838 0.13653663 0.055837434
-0.04518238 0.08305105 0.038439393 0.08634906 0.15162475 0.08094408 -0.12598653 -0.04828298

network_body._body_endoder.seq_layers.2.bias f4 [128]
00000000: 0000 0000 0000 0000 0000 0000 0000 0000
00000010: 0000 0000 0000 0000 0000 0000 0000 0000
00000020: 0000 0000 0000 0000 0000 0000 0000 0000
00000030: 0000 0000 0000 0000 0000 0000 0000 0000
00000040: 0000 0000 0000 0000 0000 0000 0000 0000
00000050: 0000 0000 0000 0000 0000 0000 0000 0000
00000060: 0000 0000 0000 0000 0000 0000 0000 0000
00000070: 0000 0000 0000 0000 0000 0000 0000 0000
00000080: 0000 0000 0000 0000 0000 0000 0000 0000
00000090: 0000 0000 0000 0000 0000 0000 0000 0000
000000a0: 0000 0000 0000 0000 0000 0000 0000 0000
000000b0: 0000 0000 0000 0000 0000 0000 0000 0000
000000c0: 0000 0000 0000 0000 0000 0000 0000 0000
000000d0: 0000 0000 0000 0000 0000 0000 0000 0000
000000e0: 0000 0000 0000 0000 0000 0000 0000 0000
000000f0: 0000 0000 0000 0000 0000 0000 0000 0000
00000100: 0000 0000 0000 0000 0000 0000 0000 0000
00000110: 0000 0000 0000 0000 0000 0000 0000 0000
00000120: 0000 0000 0000 0000 0000 0000 0000 0000
00000130: 0000 0000 0000 0000 0000 0000 0000 0000
00000140: 0000 0000 0000 0000 0000 0000 0000 0000
00000150: 0000 0000 0000 0000 0000 0000 0000 0000
00000160: 0000 0000 0000 0000 0000 0000 0000 0000
00000170: 0000 0000 0000 0000 0000 0000 0000 0000
00000180: 0000 0000 0000 0000 0000 0000 0000 0000
00000190: 0000 0000 0000 0000 0000 0000 0000 0000
000001a0: 0000 0000 0000 0000 0000 0000 0000 0000
000001b0: 0000 0000 0000 0000 0000 0000 0000 0000
000001c0: 0000 0000 0000 0000 0000 0000 0000 0000
000001d0: 0000 0000 0000 0000 0000 0000 0000 0000
000001e0: 0000 0000 0000 0000 0000 0000 0000 0000
000001f0: 0000 0000 0000 0000 0000 0000 0000 0000
0.0 0.0 0.0 0.0 0.0 0.0 0.0 0.0
0.0 0.0 0.0 0.0 0.0 0.0 0.0 0.0
0.0 0.0 0.0 0.0 0.0 0.0 0.0 0.0
0.0 0.0 0.0 0.0 0.0 0.0 0.0 0.0
0.0 0.0 0.0 0.0 0.0 0.0 0.0 0.0
0.0 0.0 0.0 0.0 0.0 0.0 0.0 0.0
0.0 0.0 0.0 0.0 0.0 0.0 0.0 0.0
0.0 0.0 0.0 0.0 0.0 0.0 0.0 0.0
0.0 0.0 0.0 0.0 0.0 0.0 0.0 0.0
0.0 0.0 0.0 0.0 0.0 0.0 0.0 0.0
0.0 0.0 0.0 0.0 0.0 0.0 0.0 0.0
0.0 0.0 0.0 0.0 0.0 0.0 0.0 0.0
0.0 0.0 0.0 0.0 0.0 0.0 0.0 0.0
0.0 0.0 0.0 0.0 0.0 0.0 0.0 0.0
0.0 0.0 0.0 0.0 0.0 0.0 0.0 0.0
0.0 0.0 0.0 0.0 0.0 0.0 0.0 0.0

action_model._continuous_distribution.log_sigma f4 [1, 48]
00000000: 0000 0000 0000 0000 0000 0000 0000 0000
00000010: 0000 0000 0000 0000 0000 0000 0000 0000
00000020: 0000 0000 0000 0000 0000 0000 0000 0000
00000030: 0000 0000 0000 0000 0000 0000 0000 0000
00000040: 0000 0000 0000 0000 0000 0000 0000 0000
00000050: 0000 0000 0000 0000 0000 0000 0000 0000
00000060: 0000 0000 0000 0000 0000 0000 0000 0000
00000070: 0000 0000 0000 0000 0000 0000 0000 0000
00000080: 0000 0000 0000 0000 0000 0000 0000 0000
00000090: 0000 0000 0000 0000 0000 0000 0000 0000
000000a0: 0000 0000 0000 0000 0000 0000 0000 0000
000000b0: 0000 0000 0000 0000 0000 0000 0000 0000
0.0 0.0 0.0 0.0 0.0 0.0 0.0 0.0
0.0 0.0 0.0 0.0 0.0 0.0 0.0 0.0
0.0 0.0 0.0 0.0 0.0 0.0 0.0 0.0
0.0 0.0 0.0 0.0 0.0 0.0 0.0 0.0
0.0 0.0 0.0 0.0 0.0 0.0 0.0 0.0
0.0 0.0 0.0 0.0 0.0 0.0 0.0 0.0

action_model._continuous_distribution.mu.weight f4 [48, 128]
00000000: db4f 0bbb 13f3 a0bc 488c dabc dfcc 3cbc
00000010: 77da febc 5dbc bdbc df1b bcba d36e 7fbc
00000020: 553b 953c a3bd 89bc 2392 0bbd f060 d8bc
00000030: 0afb 1e3b 51c1 a93c 1b05 89bb eaf8 07bc
00000040: d089 e4bb 5bbb 6fbc a768 33bc 259d 82bc
00000050: 129c 4f3c 1101 ae3c f3e5 a13b 78e6 e83c
00000060: 9508 e63c b286 2bbc 3278 f4bb b310 a53c
00000070: 38ff d4bc e619 20bb 4af5 4a3c 6241 953c
00000080: 08be 88bb 2f95 81bc c1cf b0bc e1ff 003c
00000090: 2865 dabb 92a2 bf3b 8d2a 293c 2ab0 a6bc
000000a0: 7f1d f43b 4025 e23c 76e6 8dbc 2bfd 7bbb
000000b0: c77a 343c 08bb fd3c 0687 b8bc f727 0a3c
000000c0: 4be3 5f3b ba4e dbbb d9f1 1cbc ce4a 083c
000000d0: a2ae b3bc 1612 06bd ebce ac3c c59e 1a3c
000000e0: 1f01 7fbb 431f 1abc bd81 223d d437 1c3c
000000f0: 834e 12bc dfa3 e13c b915 bebc becb 49bc
00000100: 281b c2b8 fea7 10ba 77d8 1c3d 58f8 d3bb
00000110: 55a9 f0bc 9a30 d1bc 2546 30bc afbe 233d
00000120: 4fe5 f13b 951a ff3c a8d3 68bc 2f13 d7bc
00000130: 1f93 0ebb 38c2 3bbc efeb 983c 82a9 0e3d
00000140: ba79 763c d547 f33c 6f59 10bd 4a93 4e3c
00000150: 448a b03c 6d36 813c a7bc 00bc b13d a1bc
00000160: 80e2 94bc d5b7 9fba eb10 3839 a453 a73c
00000170: 0728 073c da67 4dbc 93b5 0f3d 4df7 183c
00000180: 5bed 06bc 184d 2c3c 06f3 3b3a 88ed 72bc
00000190: 6173 8ebc 029d b9bc ded9 a8bc 3d9a 2a3d
000001a0: 125a dabb 336a 0b3c 6dd1 1b3d 6692 abbb
000001b0: 776f ca3c f3c5 9abb 59f2 303d e09d f6bb
000001c0: bc78 9a3c 1d36 94bb 1755 3dbc c7b7 48bc
000001d0: decf 84b9 6d5e 563c cac1 fdbc 937c 033c
000001e0: 04bb 3f3b 106e 673b d674 bcbb f699 abbc
000001f0: 3f55 02bc 1fe7 4ebb e743 ba3c 52b3 0b3d
00000200: 0008 513a 2ba1 f539 9416 2b3d 534b 3ebc
00000210: f1a3 16bc e777 28bc 3ff0 b2bc dd8f f83b
00000220: 0ffd 213d 9753 d6bc b071 e83c 7eb3 85bc
00000230: d5f7 f73c 1b49 33bd 48cc d1bb 82b1 78bc
00000240: eb84 b13b bb2e 97bc d8c9 603c 56c9 08bd
00000250: ff69 c2bc 087a 64bc f7ac b0bc d228 da3c
00000260: 6701 a3bc cdae 52bc cd81 723c c773 b1bb
00000270: df49 f23b 57be 70bc 821c 24bd b97e 053c
00000280: 90a1 e9bc 63aa c13b eaa8 e3bc 720d de3b
00000290: 571c 6a3c f2f5 0fbd f3b7 4e3c 6fc4 da3a
000002a0: 114e a7bc a59c efbb 8437 153c df51 b03b
000002b0: 679b 5cba 0e32 093c 45b9 79bc c8f6 8fbc
000002c0: a811 db3b 7f13 a2bc a795 163d 79a4 a13c
000002d0: 3ab0 343c 2ba3 fd3b f8b5 f7bc 33e6 0d3c
000002e0: 02ef c9bc 946b 4a3c 120e 0dbb 1082 34bb
000002f0: 1d83 f7ba ff69 2f3c c778 6dbb 0755 abbb
00000300: 5bf5 c53b 27ff 5dbb 3bad 56bc 22dc e43c
00000310: 0154 243b 1c31 493d adb9 9c3b b2b1 26b9
00000320: 3810 8439 6b68 b2ba 5a7d 333d fe00 47bc
00000330: d39b 57bc 2b80 4cbc bbfd 90bc 5a34 2ebd
00000340: c90f 013c 53d7 0ebd 5d4b 6ebc 2b1e fd3c
00000350: 82ae 6bba b7cb 043d 6dbf 93bc 58ba 473c
00000360: 55c0 f0bb e403 3fbc aad0 86bb 1a81 c33c
00000370: 1413 44bc 1e45 05bd 9b84 ddbb 0abb ffbb
00000380: e384 193d a03a 51bc 9c17 b93b 75a1 4fbb
00000390: 7f44 893c 4a0f fb3b f814 55bc b906 06bd
000003a0: fde6 183c 2b70 a4bc 62ba 5e3c 9a0b 833a
000003b0: d03a 63bc 076a 163a 2067 4dbb 7744 6a3c
000003c0: 03b7 36bb de1e 033c 3332 3ebc 3faf 6cbb
000003d0: d2a4 723c 373a 463c a805 3cbc b086 323c
000003e0: 1a56 f83c 6d96 f63c 1b0b e4bc 509d fd3b
000003f0: f693 a2bb 37ed db39 118c 95bc ab27 3c3c
-0.0021257314 -0.019647157 -0.02667822 -0.011523454 -0.031110032 -0.023161108 -0.0014351568 -0.015590387
0.018216768 -0.016814059 -0.034074914 -0.02641341 0.0024258518 0.020722063 -0.004181517 -0.008299092
-0.0069744363 -0.014632071 -0.010950244 -0.015944073 0.012671487 0.021240743 0.004940742 0.028430209
0.028080264 -0.010469126 -0.0074606175 0.020149564 -0.026000604 -0.00244295 0.012387583 0.018219654
-0.004173044 -0.015818207 -0.02158344 0.007873506 -0.006664891 0.0058482373 0.010325086 -0.020347673
0.0074498053 0.027605653 -0.017321806 -0.003845046 0.0110156005 0.030972973 -0.022525322 0.00843238
0.0034162577 -0.0066927345 -0.009579145 0.008318616 -0.021933857 -0.03273209 0.02109476 0.009437268
-0.003891058 -0.009406867 0.03967451 0.009534795 -0.008929851 0.02754396 -0.023203718 -0.012316642
-9.255699e-05 -0.0005518197 0.038292374 -0.006468814 -0.029377619 -0.02553587 -0.010758911 0.039976772
0.007382072 0.031140605 -0.014210619 -0.026254265 -0.0021755171 -0.01145988 0.01866719 0.034829624
0.01504367 0.029697338 -0.03524154 0.012608359 0.021550305 0.015773023 -0.007857478 -0.019682737
-0.01817441 -0.0012185524 0.0001755391 0.020425625 0.008249289 -0.012536967 0.035085272 0.009336305
-0.008235301 0.010516427 0.0007169697 -0.01482714 -0.017389001 -0.022657875 -0.0206117 0.041651
-0.0066635692 0.008509207 0.03804152 -0.005235958 0.024711354 -0.0047233044 0.04319987 -0.0075261444
0.018856399 -0.0045230524 -0.0115559315 -0.012250847 -0.00025331875 0.013084036 -0.030976195 0.008025306
0.0029255757 0.0035313405 -0.0057512326 -0.020947438 -0.007954895 -0.0031570864 0.022737456 0.03410656
0.00079739094 0.0004685012 0.04176958 -0.011614638 -0.00919436 -0.010282493 -0.021843074 0.007585509
0.039547976 -0.026162906 0.028374523 -0.01632094 0.030269543 -0.04377089 -0.006402526 -0.01517904
0.0054174564 -0.0184549 0.013719998 -0.033395134 -0.023732184 -0.01394511 -0.021566851 0.026630793
-0.01989813 -0.012859059 0.014801455 -0.005415413 0.00739406 -0.014693818 -0.04006625 0.008147889
-0.028519422 0.0059102043 -0.027790505 0.006776505 0.014288983 -0.03514666 0.012617099 0.0016690622
-0.020422967 -0.0073123747 0.009107474 0.0053808535 -0.0008415491 0.00837375 -0.015241926 -0.01757373
0.0066854544 -0.019784687 0.036763813 0.019731747 0.011028344 0.0077403984 -0.030238137 0.008660841
-0.0246501 0.01235475 -0.002152328 -0.0027543344 -0.0018883679 0.010706424 -0.003623532 -0.005228642
0.0060412115 -0.0033874006 -0.013102825 0.027936999 0.0025074484 0.0491191 0.0047828765 -0.0001589719
0.00025189086 -0.0013611441 0.043820716 -0.012146233 -0.01315971 -0.0124817295 -0.017699113 -0.042530395
0.007877299 -0.034873318 -0.014544335 0.030898174 -0.0008990542 0.03242084 -0.018035615 0.012190424
-0.0073471465 -0.011658642 -0.00411423 0.023865271 -0.011967439 -0.03253662 -0.0067601926 -0.007804279
0.037480246 -0.012770325 0.0056485664 -0.003168193 0.016756294 0.0076617347 -0.013005488 -0.032721255
0.009332416 -0.020073017 0.013594242 0.0009997964 -0.013869002 0.0005737845 -0.0031341985 0.01429855
-0.002788008 0.008002965 -0.011608648 -0.0036115197 0.014809804 0.01209884 -0.011475958 0.01089637
0.030314494 0.030101025 -0.027837327 0.0077397004 -0.004961486 0.00041947674 -0.018255265 0.011484067

action_model._continuous_distribution.mu.bias f4 [48]
00000000: 0000 0000 0000 0000 0000 0000 0000 0000
00000010: 0000 0000 0000 0000 0000 0000 0000 0000
00000020: 0000 0000 0000 0000 0000 0000 0000 0000
00000030: 0000 0000 0000 0000 0000 0000 0000 0000
00000040: 0000 0000 0000 0000 0000 0000 0000 0000
00000050: 0000 0000 0000 0000 0000 0000 0000 0000
00000060: 0000 0000 0000 0000 0000 0000 0000 0000
00000070: 0000 0000 0000 0000 0000 0000 0000 0000
00000080: 0000 0000 0000 0000 0000 0000 0000 0000
00000090: 0000 0000 0000 0000 0000 0000 0000 0000
000000a0: 0000 0000 0000 0000 0000 0000 0000 0000
000000b0: 0000 0000 0000 0000 0000 0000 0000 0000
0.0 0.0 0.0 0.0 0.0 0.0 0.0 0.0
0.0 0.0 0.0 0.0 0.0 0.0 0.0 0.0
0.0 0.0 0.0 0.0 0.0 0.0 0.0 0.0
0.0 0.0 0.0 0.0 0.0 0.0 0.0 0.0
0.0 0.0 0.0 0.0 0.0 0.0 0.0 0.0
0.0 0.0 0.0 0.0 0.0 0.0 0.0 0.0

action_model._discrete_distribution.branches.0.weight f4 [1, 128]
00000000: 726d 603b 4c75 1d3b 7e8a 153c 3af6 89bc
00000010: f787 7a3c 5b96 b03b a2b0 ecbb b0e2 003c
00000020: 3034 a6bb 2300 be3a 8f9b 19bc ea56 9dbb
00000030: 2992 393c ab29 82bc f330 953b 5b5f 0fbb
00000040: dc46 31bb cd07 43bb 09e4 a3bc fbe7 643b
00000050: 7627 80ba 5b4b 893b dada f0bc 2003 d63b
00000060: 4799 80bb 72ed 343b 6627 20bc abaa adbc
00000070: 17f9 40bc 819a 9ebb 81a2 bdbb 0bad 48bc
00000080: 9f74 55bb 77b8 823b 7289 ab3a b585 d5ba
00000090: 778c f03b cfb7 60bc ad6a e2bb f1ac 9bba
000000a0: 6b55 c9bb cba2 07bc 4dc9 29bb 0f3e c43b
000000b0: fbde 6d3c be58 2fbc 3e32 88bb 9fde 7cbc
000000c0: 4704 d53a 6805 6abc e4fd 16bc 0b41 7d3b
000000d0: 6ce2 0ebc 4a53 29bb d95d 3f3c 07da f8ba
000000e0: 3c22 2fbc 198d 0cbc 8463 273b 4729 253b
000000f0: fb52 debb e7ed c83a d73f fd3a f892 66bc
00000100: af82 c0bb ffab 69bb 7bc6 95bc 8adc f7bb
00000110: 8e77 393b a99d 01bc 1011 8e3b c587 883b
00000120: d73e 59bc 2804 eabb e2bb 9a3b 6ba9 653c
00000130: 8ffc 24b9 4fb3 373c d4d3 39bc 03f3 65bb
00000140: e4f1 95bc 9d5d 9d3b 3f46 2dba 0901 95bb
00000150: 62ee c1bb d9c7 94bb 291a 93bb 0ba2 1d3b
00000160: e3ff 773c eb23 87bb 2b89 ca3b b768 8a3b
00000170: e4fb 81bb 3f55 3aba 5506 db3a 33c3 07bb
00000180: 6fe4 b93a c8cc 153c 3316 603a 62c4 6f3c
00000190: 4b1a a437 771b aa38 3095 293b d56f 9ebb
000001a0: c7f0 843c e776 77bb 7be4 553c 489b 3339
000001b0: dc71 263c b17d 22bc 0851 10bc 07e0 153b
000001c0: bfa7 a53c 23bd e53b 9a4b 1e3c 370d 1c3c
000001d0: 7560 6b3c 231c 583c e03e 5a3c 42f8 d63b
000001e0: de33 8ebb 95c4 753a 5efa 493b 6a6e 8abb
000001f0: fa1a 73bc 7f16 f63b 0ba9 42bc 2609 413c
0.0034244922 0.0024026213 0.009127257 -0.016841043 0.015291206 0.0053890175 -0.0072232047 0.0078665465
-0.005072139 0.001449589 -0.009375467 -0.0048016207 0.011326351 -0.01588901 0.0045529543 -0.0021876905
-0.0027050292 -0.0029759288 -0.020006197 0.003492831 -0.0009777385 0.0041898913 -0.029401232 0.0065311342
-0.003924522 0.0027607349 -0.009775018 -0.021199545 -0.011778138 -0.0048401956 -0.0057871942 -0.012248288
-0.0032570732 0.003989275 0.0013087227 -0.0016290458 0.0073409635 -0.013715698 -0.0069096894 -0.0011877102
-0.006144216 -0.008278559 -0.0025907338 0.0059888433 0.014518495 -0.01070231 -0.00415638 -0.015433936
0.0016251885 -0.0142835155 -0.009215806 0.0038643505 -0.008720975 -0.0025836998 0.01168009 -0.0018985876
-0.010689314 -0.008578562 0.0025541494 0.0025201605 -0.0067847944 0.001532969 0.0019321394 -0.014073126
-0.0058749537 -0.0035655496 -0.01828312 -0.007564132 0.002830002 -0.007911124 0.00433553 0.0041665756
-0.013259611 -0.0071416087 0.0047221044 0.014017443 -0.00015734344 0.011212184 -0.011342008 -0.0035087473
-0.018303819 0.0048024193 -0.0006609894 -0.0045472425 -0.00591831 -0.0045404253 -0.0044892025 0.0024052884
0.015136692 -0.004124155 0.0061809025 0.0042239088 -0.0039667953 -0.00071080396 0.0016710261 -0.0020715713
0.0014182458 0.009143062 0.000854823 0.014634224 1.9562567e-05 8.1113474e-05 0.0025876276 -0.0048351088
0.016228093 -0.003776008 0.013054962 0.00017128617 0.010158982 -0.0099176625 -0.008808382 0.0022869126
0.02022159 0.0070110722 0.0096615795 0.009524635 0.014366259 0.013190302 0.013320655 0.0065603564
-0.004339679 0.00093753013 0.0030819396 -0.004224588 -0.014837975 0.007510006 -0.011881123 0.011781966

network_body._body_endoder.seq_layers.0.weight f4 [128, 805]
00000000: f1d0 6c3c ef4c c2bc 689e c53a f119 e73c
00000010: d6d1 af3c ffb0 553d a9ab b7bc 1b08 2dbc
00000020: b9db 39bc 43ee b93b ac26 30bd 342b 86bc
00000030: 73d0 d9bb 74e9 0c3c 4fd1 423c 71da 913b
00000040: 3bca 763c 985d d8bb 7ba2 2fbd ed93 88bc
00000050: 5454 d03a e2de 80bd d68a dbbb 7f7a 333d
00000060: 71cd 69bb 6c16 c13d 7d66 903d e266 b5bd
00000070: efc4 413c c579 1a3d e343 e03c 6609 74bc
00000080: 8902 c6bc 7c42 45bc 0efa 863c 0601 83bb
00000090: 692e 6bbc c5cc f63c 0209 b23c c327 1d3b
000000a0: 44fd 86bc 5320 193d e757 34bc 0edf 5cbb
000000b0: 025e 08bd c6ce 18bc 2e9f 34bd 90ee 2c3b
000000c0: 88f1 b13c baa0 fb3c 25f8 8cbd f3b0 193c
000000d0: 10f6 f9bb 8899 0dbc 2c6e 59bc 952d 2bbd
000000e0: f0da d6bc 52f0 e83c ddc2 d3bc b724 743d
000000f0: ccc8 d6bc 141d 1a3d 503d 2fb8 2df2 a03b
00000100: 1eb6 cabc c3f8 05bd 3611 e03c e3f8 6abb
00000110: b2d6 b23a a79d 053d 1f28 fd3c cff3 b3bc
00000120: d48a 37bd 43e9 82bb b24c 47bd a5a7 393d
00000130: 55d2 2ebc 1505 e33c 7240 96bc 936f a2bb
00000140: ece1 3f3d 83e4 62bd 16f0 673d b8b3 9fbb
00000150: e8f4 e0bc cdb0 cebc cfe2 19bb c9b6 e13b
00000160: 7ee0 f5bb db77 02bd c5de 40bd 3e55 17bd
00000170: 5638 083d 953b 1bbd 7b0c cfbb 52d6 363c
00000180: c95d e6bb e42d 8b3c 08cb 383b 3205 d4ba
00000190: ccdc 6b3c 5d12 563d 3efb 84bd 865f 0bbd
000001a0: 6bca 973d 9dc2 b63c 9b80 f6bb 1bec 273b
000001b0: 28d9 dbba b8d9 733c 4fa1 3ebc 764d afbb
000001c0: 3f4b 703c 10bc 6c3c ff58 013a 8826 cebc
000001d0: 6b48 84bd 483a a33c 3ed5 0bbd 4f4b 76bd
000001e0: 2a25 92bc a8c8 c4bc 3e82 2cbd 5ac6 083c
000001f0: 655d b0bc a52e 3cbd 3b49 353d 166e 91bc
00000200: bf37 093d 18f8 ccbc e217 793d eeb0 2a3d
00000210: 4dd0 393d 57bd 883d 0889 bd3c 6d66 153c
00000220: f142 28bd 29c4 8bbd 9e00 12bc 8c96 88bc
00000230: ecdd 263d 8114 dd3c ed87 4bbc e8d4 6cbd
00000240: 442d 4a3b c894 0ebd 4a5e 273b 8c0d b5bb
00000250: de3d c73d 9c94 45bc fbbd 153d da0d b2bc
00000260: bfdd ed3b d72d afbc 1e39 21bd 729f 673c
00000270: 8695 dd3b 7f5e 3b3c 5bc4 e1bc 2d64 c0ba
00000280: 7fc9 a93c a826 56bc e9ad 513d a7fc 9c3d
00000290: c42c fd3c 171f e93c 6deb 2bb9 c256 76bb
000002a0: 6305 4cbd b5e6 babc bfa9 823d cd4e f03b
000002b0: d00f 923c 9b76 523c 4ad1 703d 85c4 a13c
000002c0: 0a4a 23bc 40fc ccbd 3ed0 333d 9bbe 24bc
000002d0: ee8e 9cbc dfe8 1bbc 9121 643d 96c7 363c
000002e0: ade3 c33c 718b 603d a3a7 c0bc de38 e6bc
000002f0: 6b90 693d 504f ab3b cf1f 9fbd 4ddd 05bc
00000300: 520a d83c bfff a83d 8a32 df3c cf34 ab38
00000310: 5838 c5bb 576c 2a3c 824d 543d aad9 2f3c
00000320: 5062 c4bc cad0 e63c 7161 b83c 66a6 bfbb
00000330: 7131 f8bc b4aa b03b 2f95 4fbc fea2 b13c
00000340: 9c84 54bc f79a c7bc 33f8 003d 1046 483d
00000350: 8bee edbb 77ca 64bc d6aa 81bc 3f7a 9fbc
00000360: 7281 87bc 7211 483d 90b7 07bd 164c 9cbc
00000370: 6deb 18bd ff18 a03d 82ff 303c 73d0 e4bc
00000380: b3c5 b23c b195 303d 14ae 153d f295 e33b
00000390: 45fc a2bb 2335 173d 296d 283d 2032 22bc
000003a0: a7cd 943d af4a 00bd a096 25bd 9aa8 02bd
000003b0: 5aaa f9bc b9fc 113d 0f84 2f3b 72fe a4bc
000003c0: 532a 8ebc a64a febb 84e5 123d 3603 643c
000003d0: 4d41 9a3d 88d9 92bc 9c81 2ebd ba5d 19bc
000003e0: dc20 2abc 5d7c 24bd de58 aebc 5e34 e53a
000003f0: 4270 183d e1e2 bdbc 41a9 7ebd dcb5 413a
0.014454112 -0.023718325 0.0015077116 0.028210612 0.021462362 0.05217075 -0.022420721 -0.0105610145
-0.01134389 0.005674155 -0.04300563 -0.016378023 -0.0066471635 0.008600581 0.011890723 0.004451089
0.015062864 -0.006602954 -0.042879563 -0.016672099 0.0015894272 -0.062925115 -0.0066999 0.043817993
-0.003567543 0.09428105 0.07050798 -0.08857514 0.011826738 0.037713785 0.02737612 -0.014894819
-0.02417113 -0.012039777 0.016476657 -0.0039979247 -0.014354327 0.030126939 0.02173281 0.0023979999
-0.016478188 0.037384342 -0.011007286 -0.0033702287 -0.033292778 -0.009326642 -0.044097118 0.0026387312
0.021721616 0.030716289 -0.06883267 0.009380567 -0.00762821 -0.008642562 -0.013270896 -0.041791517
-0.026227444 0.028434906 -0.025849754 0.059605327 -0.026218794 0.037625387 -4.1780353e-05 0.004911682
-0.024745043 -0.03270794 0.027351957 -0.0035853914 0.0013644306 0.032621052 0.03090292 -0.021966843
-0.04481013 -0.003995092 -0.048657127 0.045325894 -0.010670264 0.027712384 -0.018341277 -0.0049571483
0.046846315 -0.055393707 0.05662545 -0.004873719 -0.02746053 -0.02523079 -0.0023481136 0.0068882448
-0.007503568 -0.031852584 -0.04708745 -0.036946528 0.03325685 -0.03789862 -0.0063186265 0.011159496
-0.007030223 0.016989656 0.0028197188 -0.0016175865 0.014395904 0.052263606 -0.06493233 -0.034026645
0.07411655 0.022309596 -0.007522655 0.0025622908 -0.0016773092 0.014883451 -0.011635139 -0.0053498102
0.014666378 0.0144491345 0.0004934221 -0.025164858 -0.06459125 0.019925252 -0.03413891 -0.060130414
-0.017839987 -0.024021462 -0.042116396 0.008348072 -0.021528909 -0.04594292 0.04425929 -0.017752688
0.03350043 -0.025020644 0.060813792 0.04167264 0.045364667 0.06676739 0.02313663 0.0091186585
-0.041079465 -0.06824524 -0.00891128 -0.016673349 0.040738985 0.026987316 -0.012422544 -0.05782023
0.0030849734 -0.034809858 0.0025538378 -0.0055252966 0.09728597 -0.012059357 0.036558133 -0.02173512
0.0072591 -0.021384163 -0.03936111 0.014137136 0.0067622093 0.011436104 -0.02755945 -0.0014678292
0.020725964 -0.01307074 0.051191244 0.07665377 0.030905135 0.028457208 -0.00016395534 -0.0037588333
-0.049809825 -0.022815088 0.06380033 0.0073336125 0.017829806 0.012845661 0.058793344 0.019747028
-0.009966383 -0.1000905 0.043899767 -0.0100552095 -0.019111123 -0.00951597 0.055696074 0.011155983
0.023912275 0.05482048 -0.023517435 -0.028103288 0.057022493 0.0052279606 -0.07769739 -0.008170438
0.026372109 0.08251905 0.027245779 8.163752e-05 -0.0060186796 0.010401807 0.05183173 0.0107330475
-0.02397266 0.02817573 0.022507401 -0.0058486937 -0.030297013 0.005391443 -0.0126698455 0.021684166
-0.01297107 -0.024365885 0.0314867 0.04889494 -0.0072611026 -0.013964287 -0.015828531 -0.019467471
-0.016541217 0.048844762 -0.033134043 -0.01907925 -0.037333895 0.078172676 0.010803105 -0.027931428
0.021822786 0.043111507 0.036542967 0.006945365 -0.0049739205 0.03691591 0.04111973 -0.009899646
0.072657876 -0.031321224 -0.04042685 -0.031899072 -0.030476738 0.035641406 0.0026781594 -0.02014086
-0.017354166 -0.0077603636 0.035863414 0.013916781 0.075319864 -0.017925993 -0.042604074 -0.009360725
-0.010383811 -0.040157665 -0.02128261 0.001748692 0.037216432 -0.023179473 -0.06217313 0.0007389465

network_body._body_endoder.seq_layers.0.bias f4 [128]
00000000: 0000 0000 0000 0000 0000 0000 0000 0000
00000010: 0000 0000 0000 0000 0000 0000 0000 0000
00000020: 0000 0000 0000 0000 0000 0000 0000 0000
00000030: 0000 0000 0000 0000 0000 0000 0000 0000
00000040: 0000 0000 0000 0000 0000 0000 0000 0000
00000050: 0000 0000 0000 0000 0000 0000 0000 0000
00000060: 0000 0000 0000 0000 0000 0000 0000 0000
00000070: 0000 0000 0000 0000 0000 0000 0000 0000
00000080: 0000 0000 0000 0000 0000 0000 0000 0000
00000090: 0000 0000 0000 0000 0000 0000 0000 0000
000000a0: 0000 0000 0000 0000 0000 0000 0000 0000
000000b0: 0000 0000 0000 0000 0000 0000 0000 0000
000000c0: 0000 0000 0000 0000 0000 0000 0000 0000
000000d0: 0000 0000 0000 0000 0000 0000 0000 0000
000000e0: 0000 0000 0000 0000 0000 0000 0000 0000
000000f0: 0000 0000 0000 0000 0000 0000 0000 0000
00000100: 0000 0000 0000 0000 0000 0000 0000 0000
00000110: 0000 0000 0000 0000 0000 0000 0000 0000
00000120: 0000 0000 0000 0000 0000 0000 0000 0000
00000130: 0000 0000 0000 0000 0000 0000 0000 0000
00000140: 0000 0000 0000 0000 0000 0000 0000 0000
00000150: 0000 0000 0000 0000 0000 0000 0000 0000
00000160: 0000 0000 0000 0000 0000 0000 0000 0000
00000170: 0000 0000 0000 0000 0000 0000 0000 0000
00000180: 0000 0000 0000 0000 0000 0000 0000 0000
00000190: 0000 0000 0000 0000 0000 0000 0000 0000
000001a0: 0000 0000 0000 0000 0000 0000 0000 0000
000001b0: 0000 0000 0000 0000 0000 0000 0000 0000
000001c0: 0000 0000 0000 0000 0000 0000 0000 0000
000001d0: 0000 0000 0000 0000 0000 0000 0000 0000
000001e0: 0000 0000 0000 0000 0000 0000 0000 0000
000001f0: 0000 0000 0000 0000 0000 0000 0000 0000
0.0 0.0 0.0 0.0 0.0 0.0 0.0 0.0
0.0 0.0 0.0 0.0 0.0 0.0 0.0 0.0
0.0 0.0 0.0 0.0 0.0 0.0 0.0 0.0
0.0 0.0 0.0 0.0 0.0 0.0 0.0 0.0
0.0 0.0 0.0 0.0 0.0 0.0 0.0 0.0
0.0 0.0 0.0 0.0 0.0 0.0 0.0 0.0
0.0 0.0 0.0 0.0 0.0 0.0 0.0 0.0
0.0 0.0 0.0 0.0 0.0 0.0 0.0 0.0
0.0 0.0 0.0 0.0 0.0 0.0 0.0 0.0
0.0 0.0 0.0 0.0 0.0 0.0 0.0 0.0
0.0 0.0 0.0 0.0 0.0 0.0 0.0 0.0
0.0 0.0 0.0 0.0 0.0 0.0 0.0 0.0
0.0 0.0 0.0 0.0 0.0 0.0 0.0 0.0
0.0 0.0 0.0 0.0 0.0 0.0 0.0 0.0
0.0 0.0 0.0 0.0 0.0 0.0 0.0 0.0
0.0 0.0 0.0 0.0 0.0 0.0 0.0 0.0

network_body._body_endoder.seq_layers.2.weight f4 [128, 128]
00000000: bf1f 123e db5a d6bd 1362 06be 6500 433d
00000010: 89c1 9a3c 69e0 92bd ea84 803b c248 8cbd
00000020: 3a31 d9bd 2b9a ccbb df9b dabd 2229 cb3d
00000030: e15b 31be cb0a 6f3d f3b7 6e3d 98ae cb3d
00000040: 6bfb 94bd 57d7 23be c9a9 ba3d 11ee 43bd
00000050: c837 03bd b813 ec3d 2fdd 503d 04cc d93b
00000060: e89e e2bb 0bea 233e 2489 943d 1c6d 10be
00000070: c8e2 f43d 6137 02be 0750 bebc ee13 c53c
00000080: c87e 053d e6fe 8bbc 1b3e 8bbd d872 08bd
00000090: fb02 d83d c91c 06bd c15e e03d 7616 c43d
000000a0: 952d 31bb ed6c 36be 188e b73d 5721 673e
000000b0: 70e8 25bd 26ac 34be 98c0 253e a996 943c
000000c0: 4256 d0bd bdd9 aebd a63c 64bd ec00 4abe
000000d0: ee32 853d 7ddf 48bd 1074 213d 1944 a5bd
000000e0: c46e 573d 66e5 8dbc 4159 81bd 1d32 9a3d
000000f0: f75d 0a3e 30ec d63c 6b41 0c3e 8567 00be
00000100: b11a 463e 0920 f73d 0dd5 cc3d 64af aa3d
00000110: 11e6 91bd 9b30 c43d 9e7c 1e3e 69fb 1f3d
00000120: 9936 f5bd 6b33 dc3c ce22 873d 5003 0b3d
00000130: 4317 0ebe 618f 85be 21dd 013e 7464 0abd
00000140: 021e e13d 1f8d 243e d74d 11bd 86a1 573e
00000150: 6c46 923d 2cf5 c4bd 8059 8ebd 84b3 4cbe
00000160: 0c6b 10bc 8162 51bd c0d3 86bc 4262 7c3d
00000170: 93ac c03d a532 7cbd a239 ab3b 2e36 463d
00000180: 6b1d a23d 03b5 9ebd 1044 c73d 897b c2bc
00000190: e5f0 fabb d6d8 b2bc 14d6 bb39 02d1 c1bd
000001a0: 7884 76bd f943 c1bd fd99 91be 6192 b03d
000001b0: 4dfa 7c3d 6a95 243e 872a 653d 724c 39bd
000001c0: 6028 c93d 2c77 d93d 93b3 bbbd cd1b 9d3d
000001d0: bedd ecbc 55e1 82bd c77c e03d 9227 653c
000001e0: 46f0 9b3d dd2a 043d 6ecb adbd 8979 983c
000001f0: 27a1 033e 74d8 b1bd ab29 91be 22e8 8abd
00000200: cd1d d33d bca0 e1bd ac1f 383d bd79 5bbd
00000210: d00c f53c 8836 67be 9749 f3ba e003 db3d
00000220: 712f 253e 3d16 b53c b4c8 3abc 106b e4bc
00000230: c448 90bc c8aa fc3d f548 573e 474d 423e
00000240: a3e9 43be 144e 0dbc 0db4 853c cae8 e9bc
00000250: 4af3 0bbd 95e5 113e cf9a 3f3d 4622 37be
00000260: 6a38 debb 4afc 94bd 0e2e 2fbc 0020 5ebc
00000270: 8f36 4e3c 764c 0cbe 50a9 48bd 36c5 ccbd
00000280: b45e ddbd 2e2f 95bd fbc0 87bd 1da0 2abd
00000290: 0d33 debc a623 133d 2b9f 80bc 247b e3bd
000002a0: 9ae3 f6bc 9753 fa3c 6546 c4bd c172 c03c
000002b0: 5d83 23be 487d 04be 231f cebd abc4 31be
000002c0: b398 6f3c 637c 64bd 8625 edbc 6a86 20bd
000002d0: 8e72 2bbd 2072 483d 9edb 90bc fd9c 1a3d
000002e0: b3ca f83d d599 b33d 5260 8a3c 72b8 4cbe
000002f0: f74f 2b3c fff8 333b b397 473c 95b5 a0bc
00000300: 1b76 bcbd 2057 ecbd 8fa1 0f3e 386e 88bd
00000310: b4c1 ce3c 07be f2bd 4fb6 013a 8e70 1cbe
00000320: 01ed 28bd be73 d4bd 6c3d 58bc 813b 983d
00000330: ea8d 65bd 7afb 5e3e e536 a8bd 9ee7 8abc
00000340: ec8a 0abd c845 753e 212f 25be 4cd1 5dbd
00000350: f421 d1bd 7f54 c43c 2cce 38be 7f99 c63d
00000360: 44b4 c1bd d8d0 893d 4f38 cabc 1f18 3bbd
00000370: 45d9 b63c c612 c5bd e20a be3d f64c 12be
00000380: 38f7 afbd 9bf2 02bd cb12 363d b3bc 14be
00000390: 2541 efbd 70af d7bd 4f0d a9bd d301 85bc
000003a0: 1a43 a7bd ffd8 51bc acbc 173e 3f78 c9bc
000003b0: 372b 363e eac5 bdbd c3b7 57be f0ec 67bd
000003c0: 1dc1 1a3c 4e93 65bd 18ee d1bd fa2f b7bd
000003d0: 02f2 943d 78b3 a03d aa5e 9fbd 348b c6bd
000003e0: bd03 1b3e 118f 32be 80fe 783d 4180 fc3d
000003f0: 5e3b ac3d 9eb8 093e bcb0 bc3d 8b72 9d3d
0.14269923 -0.10466548 -0.1312335 0.047607798 0.018891113 -0.07171709 0.0039220946 -0.06849815
-0.10605092 -0.006243964 -0.10674261 0.09919955 -0.17320205 0.058359902 0.058280896 0.099454105
-0.07274517 -0.16000114 0.09114415 -0.04783446 -0.03203562 0.115271986 0.050992187 0.006646635
-0.0069159158 0.16007249 0.0725272 -0.14104122 0.119573176 -0.12716438 -0.02323152 0.024057355
0.03259161 -0.017089318 -0.06798955 -0.03331265 0.105474435 -0.032742295 0.10955573 0.095745966
-0.0027035226 -0.1781499 0.08962649 0.22571312 -0.040504873 -0.17643794 0.1618675 0.018138247
-0.10172702 -0.08537624 -0.0557219 -0.19726914 0.06503855 -0.04904126 0.039417326 -0.08069629
0.05259587 -0.0173213 -0.06315852 0.075290896 0.13512407 0.02623567 0.1369683 -0.1253949
0.1934612 0.12066657 0.10001574 0.08334234 -0.0712396 0.09579583 0.15477225 0.039058123
-0.11973304 0.026879987 0.06598435 0.033938706 -0.13876061 -0.26085952 0.1268201 -0.033787206
0.10992052 0.16069458 -0.035474624 0.2105771 0.07142338 -0.09617075 -0.069506645 -0.19990355
-0.008814584 -0.05111933 -0.016458392 0.061617143 0.09407916 -0.061571736 0.005225376 0.048391514
0.07915767 -0.07749369 0.09729779 -0.023740547 -0.0076581114 -0.021831911 0.0003582692 -0.09463693
-0.060184926 -0.09436793 -0.28437796 0.086216696 0.061762143 0.16072622 0.05594876 -0.04523892
0.09822154 0.10618433 -0.091651104 0.07671318 -0.028914329 -0.06390635 0.109612994 0.013986485
0.07614188 0.03226744 -0.08486067 0.01861264 0.12854443 -0.08683863 -0.28352103 -0.06782557
0.103084184 -0.11016986 0.04495208 -0.053582896 0.029913336 -0.22579396 -0.001856136 0.106940985
0.16131379 0.02210533 -0.01140039 -0.027883083 -0.017612822 0.123372614 0.21023925 0.18974791
-0.19132094 -0.008624572 0.016321206 -0.028553385 -0.034167565 0.14247735 0.046778496 -0.17884168
-0.0067816274 -0.07274683 -0.010692133 -0.013557434 0.01258625 -0.13701043 -0.048989594 -0.099985525
-0.10809079 -0.072843894 -0.06628605 -0.041656602 -0.027123952 0.03592267 -0.015700897 -0.111074716
-0.030137826 0.030557437 -0.09583739 0.023492219 -0.1596808 -0.12938416 -0.100645326 -0.17360179
0.014623809 -0.055782687 -0.028948557 -0.039190687 -0.041857295 0.048936963 -0.017682847 0.037747372
0.12148037 0.087695755 0.016891632 -0.19992235 0.010456077 0.0027461646 0.012182164 -0.019617835
-0.09202214 -0.11540055 0.14026473 -0.066616476 0.02523885 -0.11852651 0.00049481256 -0.15277311
-0.04124165 -0.103736386 -0.013198238 0.074332245 -0.056043543 0.21775618 -0.08213595 -0.016956147
-0.033823892 0.239524 -0.1613126 -0.05415468 -0.10211554 0.023966072 -0.18047398 0.09697246
-0.09458211 0.06729287 -0.024685053 -0.0456773 0.022320399 -0.096227214 0.092794195 -0.14287171
-0.08592075 -0.031969648 0.044451516 -0.14525108 -0.11682347 -0.10531509 -0.082544915 -0.016236221
-0.081670955 -0.012808084 0.14818066 -0.02459347 0.17789923 -0.09266265 -0.21066193 -0.056622446
0.009445456 -0.056048684 -0.10250491 -0.08944698 0.07272722 0.07846731 -0.077817276 -0.0969452
0.15138145 -0.17437388 0.060789585 0.1232915 0.08409761 0.13449332 0.09213397 0.07687863

network_body._body_endoder.seq_layers.2.bias f4 [128]
00000000: 0000 0000 0000 0000 0000 0000 0000 0000
00000010: 0000 0000 0000 0000 0000 0000 0000 0000
00000020: 0000 0000 0000 0000 0000 0000 0000 0000
00000030: 0000 0000 0000 0000 0000 0000 0000 0000
00000040: 0000 0000 0000 0000 0000 0000 0000 0000
00000050: 0000 0000 0000 0000 0000 0000 0000 0000
00000060: 0000 0000 0000 0000 0000 0000 0000 0000
00000070: 0000 0000 0000 0000 0000 0000 0000 0000
00000080: 0000 0000 0000 0000 0000 0000 0000 0000
00000090: 0000 0000 0000 0000 0000 0000 0000 0000
000000a0: 0000 0000 0000 0000 0000 0000 0000 0000
000000b0: 0000 0000 0000 0000 0000 0000 0000 0000
000000c0: 0000 0000 0000 0000 0000 0000 0000 0000
000000d0: 0000 0000 0000 0000 0000 0000 0000 0000
000000e0: 0000 0000 0000 0000 0000 0000 0000 0000
000000f0: 0000 0000 0000 0000 0000 0000 0000 0000
00000100: 0000 0000 0000 0000 0000 0000 0000 0000
00000110: 0000 0000 0000 0000 0000 0000 0000 0000
00000120: 0000 0000 0000 0000 0000 0000 0000 0000
00000130: 0000 0000 0000 0000 0000 0000 0000 0000
00000140: 0000 0000 0000 0000 0000 0000 0000 0000
00000150: 0000 0000 0000 0000 0000 0000 0000 0000
00000160: 0000 0000 0000 0000 0000 0000 0000 0000
00000170: 0000 0000 0000 0000 0000 0000 0000 0000
00000180: 0000 0000 0000 0000 0000 0000 0000 0000
00000190: 0000 0000 0000 0000 0000 0000 0000 0000
000001a0: 0000 0000 0000 0000 0000 0000 0000 0000
000001b0: 0000 0000 0000 0000 0000 0000 0000 0000
000001c0: 0000 0000 0000 0000 0000 0000 0000 0000
000001d0: 0000 0000 0000 0000 0000 0000 0000 0000
000001e0: 0000 0000 0000 0000 0000 0000 0000 0000
000001f0: 0000 0000 0000 0000 0000 0000 0000 0000
0.0 0.0 0.0 0.0 0.0 0.0 0.0 0.0
0.0 0.0 0.0 0.0 0.0 0.0 0.0 0.0
0.0 0.0 0.0 0.0 0.0 0.0 0.0 0.0
0.0 0.0 0.0 0.0 0.0 0.0 0.0 0.0
0.0 0.0 0.0 0.0 0.0 0.0 0.0 0.0
0.0 0.0 0.0 0.0 0.0 0.0 0.0 0.0
0.0 0.0 0.0 0.0 0.0 0.0 0.0 0.0
0.0 0.0 0.0 0.0 0.0 0.0 0.0 0.0
0.0 0.0 0.0 0.0 0.0 0.0 0.0 0.0
0.0 0.0 0.0 0.0 0.0 0.0 0.0 0.0
0.0 0.0 0.0 0.0 0.0 0.0 0.0 0.0
0.0 0.0 0.0 0.0 0.0 0.0 0.0 0.0
0.0 0.0 0.0 0.0 0.0 0.0 0.0 0.0
0.0 0.0 0.0 0.0 0.0 0.0 0.0 0.0
0.0 0.0 0.0 0.0 0.0 0.0 0.0 0.0
0.0 0.0 0.0 0.0 0.0 0.0 0.0 0.0

value_heads.value_heads.extrinsic.weight f4 [1, 128]
00000000: dacd f1bd 8a9e 03be 73c1 ad3a a697 0b3d
00000010: 69f6 c03c e950 16be 904b 92bd 6dbf 3e3e
00000020: 891c 8a3c 9dbb b03b c32a 213d f215 053e
00000030: 1749 063e 8a1d 00bd ea0a 343e 6664 3abe
00000040: 8bf4 8e3d bcaf 0dbe 5f38 b6bd 5e5d ccbd
00000050: 436b b33c 924b bdbd 7fa4 4e3c aaed fbbd
00000060: 631e c73c 19b2 c03d 9ac7 16be 81ac eabd
00000070: 7350 d43d d5a5 fb3d f3dd 25be fef6 733d
00000080: c385 493d 7559 91bd fb4c afbb 0285 b6bd
00000090: d646 4fbd 4440 2d3e 75a3 e13d e7a0 093e
000000a0: feea 0a3e f8c5 7bbc 9823 003e a1dc edbb
000000b0: e8cb 50be 084e bd3d 61e0 f5bd 2740 4fbe
000000c0: 6e42 4b3e 4409 b93c 9774 fbbd a3a9 42be
000000d0: 43a4 263c 4508 f43b b503 003e 468f 42be
000000e0: d958 7fbd 6841 d0bd d2a3 0ebe 9362 753d
000000f0: 7b7d 46be 0f69 913d d385 c23d b402 3ebe
00000100: 39db c7bd b1a4 47be 922c 433e b3ac 0a3e
00000110: a150 1bbe 5c18 d53d 948d d93d a393 5b3e
00000120: 6d05 31bc d7ac 50be 5bbc 473e 5fc2 0bbe
00000130: 0cc0 4e3e 4515 4cbe ee72 003e 7a40 1abe
00000140: 3f0d f43d fa40 d13d 26f7 e7bd 2458 babd
00000150: e825 d23d 3065 48bd eb66 0ebe c9df e2bc
00000160: 2dcd 8abd ea76 453e beba 16be cf38 773d
00000170: e1ea 543b 2b12 8abd 513e 043a 3ad3 59be
00000180: 98d2 e93d b285 6c3d 8c58 703d 6ce6 0e3e
00000190: 11ce d83c 254a 36be 27a7 2ebe 7a38 5bbe
000001a0: df2d 4fbe 91ef 62bd 6df8 8bbd e8fc 43be
000001b0: 487c f23d 2f5b 02bd 12fa 0a3e 19c7 113e
000001c0: 55ab c53b 6802 a33d c169 333d fc71 963c
000001d0: 89bd ff3c 6e51 c9bd f2b4 4cbe 7408 fb3b
000001e0: d74e 2abc 24b4 a93d 329d 4d3d 10f4 10bc
000001f0: e16a 0fbe 1806 cebd 2145 d93d c82d 393e
-0.11806841 -0.12853447 0.0013256505 0.03408017 0.023554998 -0.14679302 -0.07143319 0.1862771
0.01685931 0.005393459 0.03934742 0.12996653 0.13113819 -0.03127817 0.17582288 -0.18202361
0.069802366 -0.13836569 -0.08897471 -0.09978746 0.021901732 -0.092429295 0.012612461 -0.1230119
0.024306482 0.094089694 -0.1472458 -0.11458684 0.10366907 0.12287489 -0.16197948 0.059561722
0.04919983 -0.07097141 -0.005349753 -0.08912088 -0.050604664 0.16919047 0.11017505 0.13440286
0.13566205 -0.015367024 0.12513578 -0.007258967 -0.20390284 0.09243399 -0.120056875 -0.20239316
0.1984956 0.022587426 -0.12278097 -0.19010024 0.010170999 0.007447275 0.12501414 -0.18999967
-0.06234059 -0.10168725 -0.1392968 0.05990846 -0.19383805 0.071001165 0.09498181 -0.18555719
-0.0975861 -0.19496419 0.19059971 0.13542442 -0.15167476 0.10405037 0.10622707 0.21443038
-0.010804516 -0.20378433 0.19505446 -0.13648365 0.20190448 -0.19929989 0.12543842 -0.15063658
0.11916589 0.102174714 -0.11326437 -0.09098843 0.10261136 -0.048924625 -0.13906448 -0.0276946
-0.067774154 0.19283643 -0.14719674 0.06035691 0.0032488632 -0.067417465 0.0005044686 -0.21271983
0.11417121 0.05774469 0.058678195 0.13955086 0.026465448 -0.17801721 -0.17055951 -0.21408263
-0.20232342 -0.05540425 -0.06834493 -0.19139445 0.11840111 -0.03182524 0.13571957 0.14236106
0.0060323873 0.07959443 0.043802027 0.018364899 0.031218307 -0.098299846 -0.199909 0.00766092
-0.010394773 0.08286312 0.05019874 -0.008847252 -0.14005615 -0.10059756 0.106088884 0.1808387
