results/baseball1/Baseball.onnx (onnx, 511308 bytes, 8 tensors)

network_body._body_endoder.seq_layers.0.weight f4 [128, 805]
000000 a5 06 6b bc 78 d4 c3 3c 92 dc 96 3c 68 c9 d4 3c
       -0.014344846 0.023905024 0.018415723 0.025974944
000010 17 99 0a bd 0f c5 8f bd 50 86 f6 bc ad 86 c6 bc
       -0.033837404 -0.07020008 -0.030093342 -0.02423414
000020 73 f8 06 bd a8 3c 0a bc e0 fb 6b bc 8b 63 2a bd
       -0.032951783 -0.008437313 -0.014403313 -0.041598838
000030 24 7f fe bc 9a a5 17 3d 63 7d f3 3c b0 22 92 bc
       -0.031066485 0.037023164 0.029722875 -0.017838806
000040 ae 65 0e 3d 2d ed a6 3d 5c 43 63 bd 20 86 98 bc
       0.034764938 0.081507064 -0.05548416 -0.018618643
000050 b3 89 36 3d 85 d6 94 3c ca 82 39 3d 3e 3e 04 3d
       0.044564914 0.018168697 0.045290746 0.03228592
000060 95 22 84 bd 41 41 40 3c 92 4f 1b bc 66 59 ae 3a
       -0.064519085 0.011734308 -0.00947942 0.0013301789
000070 cd 02 5d 3b ac 74 5e bc c3 70 90 3c 6b dc b9 bc
       0.0033723593 -0.013577621 0.017631894 -0.022688111
000080 22 1d f8 3c e0 9e 34 3d f0 63 fa 3a 10 39 a7 bd
       0.03028733 0.044096828 0.001910327 -0.08165181
000090 f1 67 4c bc b0 64 be bc 0d 89 48 bc 70 9a 26 3c
       -0.012475953 -0.02324137 -0.012239707 0.010168657
0000a0 ea ee c4 bb 8f 49 3c 3d 35 1e 49 3c a8 63 2d bc
       -0.006009926 0.04596859 0.012275268 -0.010582842
0000b0 0e 8e 8f 3b 3b 7c 11 3b 2e 0c 01 bd eb b5 b2 3c
       0.004380948 0.0022199291 -0.031505756 0.02181526
0000c0 e3 39 1c 3d 7d 17 3a 3c 32 f3 06 3d f8 b2 70 bd
       0.038141143 0.011358139 0.032946773 -0.058764428
0000d0 54 f0 1b 3c ee 96 ba bc 40 56 89 bd c0 ab 38 3d
       0.009517748 -0.022777047 -0.06705904 0.04508567
0000e0 f5 77 27 bd e8 07 e6 3b 55 b1 60 3d a2 fa 90 3b
       -0.040885884 0.0070199855 0.054856617 0.004424409
0000f0 91 f8 32 bd 5f ad a1 3d 26 f3 0e bd d8 85 bb bc
       -0.043694083 0.07894396 -0.034899853 -0.02289097
000100 bb 4c 94 bc cd c4 8e bd d7 b2 cf 3b 9c 91 ad 3d
       -0.018102994 -0.069711305 0.006338458 0.084750384
000110 6d 69 20 bc b5 28 c8 3b 2c cd 0c 3d b1 ff 34 bd
       -0.00979076 0.0061083683 0.034375355 -0.04418916
000120 b8 2a 5f bd f3 29 8d 3d 9e c9 99 bc cb 5c 52 3c
       -0.0544841 0.06892767 -0.018772896 0.012839506
000130 59 13 19 3b 0e cf 03 3d 7f c5 41 3c fe b8 c3 3c
       0.002335748 0.032179885 0.011826872 0.023891922
000140 07 61 ee 3c 2c a9 6b 3b bb f8 3f bb 84 f2 76 bc
       0.029099 0.0035958989 -0.0029292542 -0.015072469
000150 83 45 ee bc 49 27 51 bc 63 45 ba 3c d7 e3 1d 3d
       -0.02908588 -0.012765714 0.022738164 0.038547363
000160 93 6e 91 bc 1d 44 33 bd 74 19 9b bc 7a 34 96 bc
       -0.017752921 -0.04376613 -0.018933035 -0.01833557
000170 96 93 10 bc c6 bf b2 3c 28 57 17 bc d3 f3 fd 3c
       -0.00882425 0.02181996 -0.009237088 0.031000054
000180 fc 6f a4 bd 58 51 c4 3c ae 58 00 bd bc 47 95 bb
       -0.08029172 0.023964569 -0.03133457 -0.0045556705
000190 23 aa 05 3d 49 8b 3a bd de 09 16 3d a6 a4 a8 bc
       0.03263296 -0.04554299 0.036630504 -0.020586323
0001a0 e5 9f 2b 3d 0c c6 7f bd 17 66 5d 3a c5 3f 0e 3c
       0.041900534 -0.06244473 0.00084456935 0.008682196
0001b0 24 fb 8f 3c 11 e6 8e 3d ec 1e 00 3d 13 7c ce bc
       0.017575808 0.069774754 0.03127949 -0.025205648
0001c0 96 e8 83 bc a3 3d 29 ba 24 cc f1 3c 7e f5 6e bd
       -0.016102117 -0.0006456023 0.029516287 -0.05833959
0001d0 1a de b2 bc 32 d1 8b bb 66 0b fe 3a 51 1e 88 3b
       -0.021834422 -0.0042668814 0.0019382059 0.0041540046
0001e0 4c d5 e9 bb 72 66 15 bd 4a 79 92 bd 83 26 0e bd
       -0.0071360227 -0.036474653 -0.0715204 -0.034704696
0001f0 48 00 3e 3c 3b a1 b2 bc ef 5a 17 bc 18 d2 00 bd
       0.011596747 -0.021805396 -0.009237989 -0.03145036
000200 51 a5 cf bb f2 ba 2c bd 89 81 0a bd e4 4c 51 bd
       -0.006336846 -0.042170472 -0.03381494 -0.05109872
000210 a4 8b 3a 3c e0 38 a2 bb 02 d0 b2 3c f1 34 84 3c
       0.011385832 -0.0049506277 0.021827701 0.016138526
000220 f2 3f 89 3d 89 78 85 bc b2 b1 57 3c a0 a1 5a ba
       0.0670165 -0.016292827 0.013164924 -0.0008340124
000230 70 09 90 bc 4a 21 5e bd 5c 8a da bc 83 eb 89 bc
       -0.017582625 -0.054230966 -0.026677303 -0.016835934
000240 9d 45 9a bc 81 0f 19 3d 42 05 c2 ba 1d 2d 56 3c
       -0.018832022 0.0373683 -0.0014802592 0.013072279
000250 5d 4f b3 bc e8 3d cb 3b 0f 9e f0 3b 20 6c 11 3c
       -0.02188843 0.006202448 0.007343061 0.008875877
000260 7d ae 94 bc ce 2b 95 3c 2c d4 16 bd cc 80 fc 3c
       -0.018149609 0.018209364 -0.036823437 0.030823134
000270 5c 02 4d bd b1 37 1d 3c 78 3b ed 3b 87 59 d2 bc
       -0.05005108 0.009595797 0.0072397552 -0.025677456
000280 59 53 93 bd 1d 0d 63 ba 34 f4 4b bc a8 7b 95 bd
       -0.07193632 -0.0008661317 -0.012448359 -0.07298976
000290 e4 fb 14 bd cc 07 b0 3c bb da b1 3c 84 f3 fa bc
       -0.036373034 0.021488093 0.021710744 -0.030633695
0002a0 07 56 28 bc f7 4b 0c bc 98 17 51 3d a1 8b 1e 3c
       -0.010274417 -0.008563033 0.05104789 0.009676845
0002b0 62 14 93 bc ef a6 04 3d 8e d2 c8 3c 1c 64 5d 3d
       -0.017954055 0.032385763 0.024514463 0.05405055
0002c0 e0 11 c1 bc 66 64 d4 ba e2 1f cf bc d8 47 2a bc
       -0.023568094 -0.0016204237 -0.025283758 -0.010393105
0002d0 ed 10 32 3d b4 2c 48 bd 04 67 52 bd 6b 91 3a bc
       0.043473173 -0.048870757 -0.051367775 -0.011387209
0002e0 e3 2a d2 3c 3d 34 09 3c 45 dc e1 3c 29 2d bb bc
       0.025655216 0.008374271 0.027570853 -0.022848682
0002f0 dc 36 62 3d aa e6 3a 3d fc 49 78 bc ba a1 30 bd
       0.0552281 0.045630135 -0.015154358 -0.043122984
000300 d7 b5 7f ba 94 fb 03 3d 3a ce 83 3c e3 29 71 bd
       -0.0009754574 0.032222345 0.016089547 -0.058877837
000310 e5 8a 8a bc 38 8c 95 bc f0 bf 6e bc 35 7c 89 bc
       -0.016911933 -0.018255338 -0.014572129 -0.01678286
000320 f0 fa 28 3c 2b bd a5 bd d6 50 5a bc ed de 4f 3a
       0.010313734 -0.080927216 -0.013324937 0.0007929642
000330 c2 5b 70 3c 8b d7 4d 3d 81 5d 2b 3c f1 5f b2 3b
       0.014670314 0.050254386 0.010459305 0.005443566
000340 12 a5 4c bd 47 a9 1b 3d 33 58 0a 3c fd c8 26 bd
       -0.04996211 0.038003232 0.00844388 -0.04071902
000350 04 ea 3b bc da 9d 26 3a 0d 5b c6 ba 4d 88 32 3d
       -0.011469368 0.0006355919 -0.0015133336 0.043587018
000360 46 a1 c4 bc 1e 6f 47 3d 64 3a 50 3d 08 f3 d6 3c
       -0.024002682 0.048689954 0.050836936 0.026238933
000370 17 42 81 bd ab 35 83 bc 8f 8c d8 3c 4d ca fd 3b
       -0.06311434 -0.016016802 0.026434211 0.0077450634
000380 e1 d4 01 3c 88 7d 43 bc f1 d3 45 3d 82 f8 79 3c
       0.007924289 -0.011931784 0.048297826 0.015257003
000390 45 3c 2a 3d 55 11 a0 bc 19 ac a2 bd 74 cf 06 3a
       0.041561384 -0.019539515 -0.07942981 0.0005142607
0003a0 e9 c4 9b 3a 0a 01 d4 bb ac 5d f3 bc e7 10 8d 3d
       0.0011884245 -0.0064698504 -0.029707752 0.068879895
0003b0 43 ee 5f 3d 94 a8 b4 3c 92 45 13 bc e7 45 e9 bc
       0.054670583 0.02205304 -0.008988755 -0.028475715
0003c0 c1 47 34 bc 92 04 34 bd ff d5 a1 3d e7 34 36 3d
       -0.011003436 -0.04394967 0.07902145 0.044484045
0003d0 36 0c 26 bc 6c 4a 5a bd 53 b3 32 bc 62 84 52 bc
       -0.010134747 -0.05329363 -0.010907012 -0.012848945
0003e0 e3 d1 71 3d c5 93 86 3c a1 fc 67 bc ce 73 15 3c
       0.059038054 0.016427884 -0.0141593525 0.009121848
0003f0 88 41 5e bc d2 d3 e2 bc e5 2f c9 b8 ab fc be 3d
       -0.013565429 -0.027688894 -9.593348e-05 0.09325536

network_body._body_endoder.seq_layers.0.bias f4 [128]
000000 40 0c e0 3b 5f f8 03 3c e7 f7 85 bb ed d8 85 bb
       0.006837398 0.008054822 -0.00408839 -0.0040846975
000010 fa 6e 34 bb 35 48 4e bb 30 88 60 bb b5 c1 3f bb
       -0.0027531967 -0.0031476144 -0.0034260862 -0.0029259745
000020 a6 a1 98 bb 10 3e 8d 3b 9f e8 3f 3b 29 3e ee 3a
       -0.004657942 0.004310377 0.002928294 0.0018176484
000030 43 c5 8d 3a 3b 53 9e 3a 86 0c b1 3b dd 48 09 3b
       0.0010816235 0.0012079248 0.0054031042 0.002094797
000040 7a 0d e5 3a 76 9a 16 3a 4d 05 2b bb 7e bc a4 bb
       0.001747533 0.00057450624 -0.0026095689 -0.005027353
000050 e8 7a f4 ba 61 6c 9e 3b 87 b9 93 bb 1e c1 5b 3b
       -0.0018652352 0.004834697 -0.0045082006 0.0033531855
000060 9e 69 96 3b 66 4d 8d 3b a1 45 1c ba 5b 9a 47 3a
       0.0045902273 0.004312205 -0.0005961303 0.00076142483
000070 44 a4 13 3a b8 ae db 39 d4 6d 46 ba 1f 77 94 3b
       0.00056320825 0.0004190111 -0.0007569466 0.004530802
000080 31 d6 18 3b 98 78 c5 b9 13 ed c2 bb 79 69 4d ba
       0.0023321027 -0.00037664617 -0.0059486716 -0.0007835846
000090 ed f8 16 b9 ea 0f ec 3a 3f 41 98 ba f6 3a 0f 3b
       -0.00014397847 0.0018010114 -0.0011616125 0.0021855212
0000a0 d3 d2 13 3b eb 7d da ba 5b 96 bf 3b 6c d4 21 3b
       0.002255608 -0.0016669607 0.005846781 0.0024693264
0000b0 32 d9 11 3a 7e 68 99 bb c6 5b be 3b 8e d8 93 3b
       0.00055636757 -0.004681646 0.00580928 0.0045118993
0000c0 41 ec 50 3b e9 8e da 37 b6 94 aa bb d3 a6 27 3a
       0.00318791 2.6054173e-05 -0.005205716 0.0006395403
0000d0 19 87 0c bb 29 7b a4 3b 4b 50 0a bb 33 25 20 ba
       -0.002144283 0.0050195646 -0.0021104987 -0.0006109059
0000e0 d4 02 05 3b a1 94 50 3b c4 7b 5e b9 bf f1 65 3b
       0.0020295875 0.003182687 -0.00021217676 0.003508672
0000f0 ce 62 30 bb df 7c 87 bb 68 cb 08 3c d6 1d 4d 3b
       -0.002691436 -0.004134759 0.008349277 0.0031298301
000100 f0 50 b1 ba 46 e9 2f bb 27 ff 60 bb 08 67 ff ba
       -0.001352815 -0.0026841923 -0.003433177 -0.0019485662
000110 c0 15 13 3b 2c 1d 06 ba 71 52 62 bb 04 b1 8b 3b
       0.0022443384 -0.0005116041 -0.0034534002 0.0042630453
000120 1d 16 72 3a 89 3f 2d 3b f9 82 bc 3b e5 12 89 3b
       0.00092348625 0.0026435575 0.005752918 0.0041831606
000130 df b6 2e 3c e3 28 17 3b 09 91 07 bb 96 de 22 bc
       0.010663717 0.0023065142 -0.0020685813 -0.009940764
000140 d8 a1 f7 3a 92 9e 5c 3b 2a 35 f8 b9 d8 c3 96 3b
       0.0018892838 0.0033663851 -0.00047341856 0.004600983
000150 9c 22 9a ba cd 65 98 3b e2 46 ec 3a fe e8 d2 35
       -0.0011759582 0.0046508075 0.0018026496 1.5714029e-06
000160 42 9d 82 3a 7d 7b 72 3b 36 10 27 3b 85 51 e9 b8
       0.0009965079 0.0036999874 0.002549184 -0.0001112549
000170 9b 04 9c 3a 02 de 99 3b d5 9e f5 b9 c4 59 2d 3b
       0.0011903228 0.004695655 -0.0004684838 0.002645121
000180 0a d4 41 3a 32 86 7b 3b 82 26 46 3b 47 2a c4 3b
       0.0007393962 0.0038379547 0.0030235355 0.005986485
000190 e4 3d 06 3b 9e 46 c4 3a 7b cf 6a bb 65 0e fb 3a
       0.0020483667 0.0014974659 -0.0035829234 0.001915407
0001a0 05 55 46 3a e0 d8 7e ba ef 93 ef 3a 71 e8 93 bb
       0.00075657695 -0.0009721648 0.001827834 -0.004513793
0001b0 14 8b 85 bb 68 0b 1d 3b 5f aa 00 3c 6e 5a bf b9
       -0.0040754173 0.0023963097 0.00785312 -0.00036497734
0001c0 a7 3b c1 3b 76 16 9c 3b 37 27 d5 b9 e3 12 cf 3b
       0.0058970037 0.0047634197 -0.00040655743 0.00631939
0001d0 62 74 19 3b ff 5c ad 3b a9 72 8c 3b 14 f2 6c 3b
       0.0023415317 0.005290627 0.0042861295 0.0036155032
0001e0 a9 fb 82 3b 7c aa 42 3b 1f 09 9e 3b 61 0e bd 3b
       0.0039972854 0.0029703667 0.0048228647 0.0057695364
0001f0 d7 6f 8e 3b 1c c5 e7 b9 50 61 85 ba 3f c4 b3 3b
       0.0043468284 -0.0004420661 -0.0010176096 0.005486041

network_body._body_endoder.seq_layers.2.weight f4 [128, 128]
000000 9d 70 cd bc 83 67 0f 3c 0e 27 29 bc 3c 67 d6 bd
       -0.025078112 0.008752706 -0.010324253 -0.10468909
000010 fc dd 2e be 8e 16 d6 bd aa 7f 47 bd 9f 04 44 bd
       -0.17076868 -0.10453521 -0.048705734 -0.04785597
000020 16 51 07 3d d0 f2 03 bd 46 c6 84 3d 83 03 86 bd
       0.033036314 -0.032213986 0.0648313 -0.065436386
000030 8d 97 b3 3d a5 83 02 bd 49 47 0d 3e dd e4 35 bd
       0.087691404 -0.031863827 0.13796724 -0.044407714
000040 e7 b7 ea bd 7c b3 12 be 81 ae cc 3d 79 74 4c 3c
       -0.11460858 -0.1432628 0.099942215 0.012478941
000050 ad de 8b 3d 5b 2c f5 3d af 28 8c bd ef d0 62 bd
       0.068295814 0.11971351 -0.06843697 -0.055375036
000060 85 c1 ec 3c fd 5d 76 3c b4 0f 34 3d bc 22 00 3d
       0.028900871 0.015037057 0.04396029 0.031283125
000070 72 d3 74 bd 22 a8 a6 3d 31 9c 54 3d 81 54 f8 3d
       -0.059771962 0.081375375 0.05190677 0.12125493
000080 6f 79 aa bc fa d8 e1 bc 20 44 3c be c6 5b 52 3c
       -0.020809857 -0.027569283 -0.18385363 0.012839263
000090 cf ec ec bd cc 08 0f 3e 6f 4c ca bd 96 03 91 3d
       -0.11568605 0.139682 -0.0987786 0.07080762
0000a0 68 cf 66 3c a4 94 e0 bd b7 93 69 3d 6b 42 d5 bd
       0.014087535 -0.10965851 0.057025637 -0.10413059
0000b0 76 2e 9f 3c e7 6e b4 3d 6f 57 42 3d 8a 0e be bc
       0.019431334 0.088102154 0.047446664 -0.023200292
0000c0 5b 23 11 be 57 aa c2 3d 24 7b e2 3d 3b 2b bf bd
       -0.14173643 0.09505146 0.110586435 -0.093344174
0000d0 df bb de bc eb 27 18 bd 99 ee e8 3d 87 01 56 3e
       -0.027189193 -0.037147444 0.11373634 0.2089902
0000e0 ac 8b cc 3d 07 a1 49 bd bf e9 02 bd 8f 15 04 be
       0.09987578 -0.049225833 -0.0319612 -0.12898849
0000f0 2e dd 60 bc 0f 20 92 bc e9 83 d9 ba 67 68 35 be
       -0.013724608 -0.017837552 -0.0016595098 -0.17715608
000100 cd 33 b1 3d 64 35 95 3a c3 7e 77 bd da d8 ac 3d
       0.08652458 0.001138371 -0.060423624 0.08439799
000110 83 cf 5e 3c 3a c5 d9 3c f7 2a 1e 3e 73 0a 23 bd
       0.013599279 0.026583303 0.15446077 -0.039804887
000120 18 53 66 3d de e8 8e 3c 72 88 eb 3d 77 a1 cc bd
       0.056231588 0.017445024 0.11500634 -0.099917345
000130 6b d3 df 3b 08 26 0f 3d 07 67 51 bd f8 7c ac 3c
       0.006830623 0.03494838 -0.051123645 0.021055683
000140 79 0c 02 bc a0 e8 e1 bd 9a 20 65 3c f4 b5 cc bc
       -0.007937544 -0.11030698 0.013984824 -0.024989106
000150 f9 7d 01 3e 19 ef a3 bc 2f 24 89 3d ab 5a 34 3d
       0.12645711 -0.020011472 0.066963546 0.04403178
000160 75 2d c7 3b 65 82 2b bd b6 1e b5 bd f3 7a 26 bd
       0.006078417 -0.0418724 -0.08843748 -0.040644597
000170 56 63 a3 3d ca 00 e4 bd 3e 39 a8 bc 81 fe 04 bd
       0.07977931 -0.11132963 -0.020535108 -0.032469276
000180 4c af 05 3d 26 87 b8 bc 65 3e 4c bd e3 4e 72 bc
       0.03263788 -0.022525381 -0.04986419 -0.014789316
000190 b5 75 b6 bd cf 2d 5f 3d de 80 50 bd 13 8c 83 bd
       -0.089091696 0.054487046 -0.050904147 -0.064232014
0001a0 0f 16 5f 3e 2a 79 5e 3d c1 eb a9 bd 0a 3a 95 bd
       0.21785758 0.05431477 -0.082969196 -0.07286461
0001b0 f0 99 a6 bd b4 7c 4d be 63 91 2a 3d 8d c5 e5 3d
       -0.0813483 -0.20067102 0.041642558 0.112193204
0001c0 8a c3 f7 bd 70 d9 ac bd 17 2a 40 3d 47 14 b7 3d
       -0.12097843 -0.084399104 0.04691514 0.089394145
0001d0 a5 c6 98 bd 37 ba c8 3d 9c c6 53 bd eb 66 c5 3d
       -0.074597634 0.09801143 -0.05170308 0.09638771
0001e0 9e a9 27 be cf 53 13 bd 59 8c 6d bd bb 2a 92 bd
       -0.16373298 -0.035968598 -0.057995174 -0.071370564
0001f0 de 17 e5 bd be b5 88 bc 55 35 25 3d b6 5c aa bd
       -0.11186193 -0.016688224 0.040334065 -0.083184645
000200 50 8f c2 3d fa 47 7f 3d ba 8f 57 39 ed f2 26 3d
       0.09499991 0.0623245 0.0002055754 0.040759016
000210 fd 16 31 bc 5f b3 0f 3b ca 94 42 3c d5 e4 1d 3e
       -0.0108087035 0.0021926982 0.011876294 0.15419324
000220 60 c1 43 3d 3b 45 59 3b 3b aa 2e bd 09 14 5e bd
       0.04779184 0.0033152837 -0.042642813 -0.054218326
000230 4c 61 97 bd 10 33 94 3d 90 d1 87 bc 7e 3c 26 bd
       -0.07391605 0.07236302 -0.01657942 -0.040585034
000240 02 30 8d bd 57 68 96 3d 27 b3 cf bd 5c 0b 9c bd
       -0.068939224 0.0734412 -0.101415925 -0.07619354
000250 ec 5c c4 bc 2a 6d 91 bc a2 f5 d8 3d 7b 2f d0 bd
       -0.02397009 -0.017752249 0.10593726 -0.10165306
000260 b9 24 ca 3c f6 41 12 3d 12 50 08 be dc 32 fa 3d
       0.024675714 0.035707437 -0.13311794 0.12216732
000270 b4 52 04 bd 18 dd 03 3e 68 b7 3e 3d 2d 1f 91 bd
       -0.032305434 0.1287731 0.04656163 -0.070860244
000280 50 6c 88 bd e8 97 b5 3d 3e b7 7d bd 15 16 bb 3d
       -0.06661284 0.088668644 -0.06194233 0.09135071
000290 b1 9b 5d 3d aa cd d3 3d c5 d4 f5 bd df 88 a0 bd
       0.054103557 0.10341962 -0.12003473 -0.07838606
0002a0 6e 6e 3e bd 66 d1 07 be 0d 92 af 3d 0a 08 d9 3d
       -0.046492033 -0.13263473 0.08572779 0.105972365
0002b0 86 1e 2d 3e ec e4 db 3d 21 01 f8 3d 96 98 0e 3e
       0.16906175 0.10737023 0.1210959 0.13925394
0002c0 79 04 ca 3d 6a 33 ac bd 57 61 21 3e 19 1a a2 3c
       0.09864134 -0.08408244 0.15759788 0.019787835
0002d0 c7 52 99 bd a2 4e bd 3d ef 1d 96 bd b4 65 49 3d
       -0.07486492 0.09243514 -0.07329928 0.049169257
0002e0 8c 6d 90 3d a6 02 78 3d fd 1e ae 3b 84 db b9 3c
       0.070521444 0.0605494 0.0053137527 0.022687681
0002f0 b3 c0 c9 3b cf 92 b8 bc f0 7b 07 3e 77 9c 29 bd
       0.0061570047 -0.022530941 0.13230872 -0.041408982
000300 2d 96 0d be ae 03 1a bc c0 9a 7f bd 01 3a a4 bd
       -0.13826819 -0.009400291 -0.06240344 -0.08018876
000310 79 ed 16 be 25 ac 47 be 52 b6 0f bd 06 96 c9 bc
       -0.14739026 -0.19499262 -0.035085984 -0.02460767
000320 1a 1f ca bd 36 98 f2 3b f4 0f c4 3c e3 2e 24 3b
       -0.098692134 0.007403399 0.023933388 0.002505236
000330 2d 68 7e bd b9 f8 a3 3d 3c 09 50 3d 45 c1 dc bd
       -0.06211107 0.080064245 0.050790057 -0.10779051
000340 39 77 d2 bd c2 4d 65 3c c7 58 53 3d 08 02 a4 3d
       -0.10276646 0.01399559 0.051598337 0.080082
000350 42 d2 9c bd 91 95 d5 3d 23 0b 95 bd cf bd 84 bc
       -0.07657291 0.10428918 -0.07277515 -0.016203789
000360 a0 e2 00 be 99 b6 05 bd b1 cd ef 3c 8b c4 19 bb
       -0.1258645 -0.03264484 0.029272886 -0.0023463096
000370 0c d3 03 be de 6b b4 bc fc 7c b6 3d 0d 6f 0a 3c
       -0.12873477 -0.022024091 0.08910558 0.008449328
000380 59 b2 a5 3b 22 20 93 3d 03 5f 08 3e 61 00 31 bd
       0.005056661 0.07183863 0.13317494 -0.043213252
000390 94 fd cb 3d dc a2 4d 3d 4f d3 9c bc d2 39 ba 3d
       0.099604756 0.050204143 -0.019143729 0.090930596
0003a0 4e f4 3b bd 63 9f 86 3d a2 7c ce 3d 51 55 ff 3c
       -0.045887284 0.06573369 0.100823656 0.031168612
0003b0 1a c4 4e 3d fc 37 aa bc 70 40 a7 3d f9 bc 45 3d
       0.050479986 -0.020778649 0.08166587 0.04827592
0003c0 8a 2f 98 3c 06 08 f9 bb 08 34 b3 bb 4a 90 e6 bb
       0.018577356 -0.0075998334 -0.005468849 -0.0070362436
0003d0 b0 86 11 bd ba 6f 37 be 59 e1 a2 bc 1e c4 9d 3d
       -0.03552884 -0.17913714 -0.019882845 0.07703422
0003e0 15 8f ab bd 57 27 03 3c 93 99 f8 ba 0e 7e 62 bd
       -0.083769 0.008004985 -0.0018966667 -0.055295996
0003f0 eb 0d 1f 3d f2 cb 4c bd 89 a9 35 be f5 57 79 be
       0.038831633 -0.049999185 -0.17740454 -0.24349959

network_body._body_endoder.seq_layers.2.bias f4 [128]
000000 4f 8d de 3b 83 dc 68 ba 56 68 0e 3c 39 21 a3 bb
       0.0067917476 -0.00088829565 0.008691868 -0.0049783257
000010 4b 03 73 3b e5 9a 61 3b d7 72 ae bb 16 b7 91 ba
       0.003708082 0.00344246 -0.0053237486 -0.0011117186
000020 08 15 1c 3c ce 44 e7 3b 6c 5e 7e bb 2d 6b c7 3b
       0.009526499 0.0070577627 -0.0038813604 0.0060857744
000030 0a 89 9c 3a cc 3a 01 39 e3 93 14 bb 63 e2 d2 39
       0.0011942696 0.00012324302 -0.0022671155 0.00040222993
000040 5b 7a 31 3b 3d c1 10 3b 7c 6f 02 3b ff 21 18 3b
       0.0027080986 0.0022087835 0.0019902876 0.0023213623
000050 94 7b 05 bc 88 25 10 3b 0e 33 49 bb a4 71 c4 3b
       -0.008147139 0.0021995027 -0.0030700597 0.0059949923
000060 fc 68 d0 3a 39 dd d8 bb 21 c6 6f 3a 3c 5c 53 3b
       0.0015900428 -0.0066181687 0.000914665 0.003225102
000070 15 d3 4f ba 86 64 03 bb 8f b9 a8 3a 1e 35 b3 3a
       -0.0007927877 -0.002004893 0.0012872684 0.0013672446
000080 83 55 c1 ba b4 27 4d 3b 71 44 92 3b 50 c0 26 bb
       -0.0014750216 0.0031304182 0.0044637253 -0.0025444217
000090 d0 0b 15 3b eb 59 37 3b 7b fb 96 bb 69 e3 cd 3a
       0.0022742637 0.002797718 -0.0046076155 0.0015708032
0000a0 91 cb 08 3b 78 07 18 3b 52 9d 87 ba ab 0e 24 bb
       0.0020873288 0.002319781 -0.0010346568 -0.0025033157
0000b0 1a ed 39 bc 32 6a 82 3b 76 e2 c4 3b 0d 59 00 3a
       -0.011348033 0.0039799446 0.0060084416 0.0004896082
0000c0 b4 f3 55 b9 86 4b 2d 3c b5 bb 22 3b a4 b5 b5 ba
       -0.0002040405 0.010577088 0.002483112 -0.0013863337
0000d0 68 8d f5 3b c8 20 18 3c 0b 03 cc ba c8 0c 24 3a
       0.0074936636 0.009285159 -0.0015564872 0.0006258008
0000e0 fa 1f b4 3b 95 3d a8 3b 06 5a 2c bb 30 a8 d8 ba
       0.005496976 0.0051342943 -0.0026298775 -0.0016529616
0000f0 9f b4 7c 3b b7 fb 37 3c ae cf aa 38 47 3c 1d 3c
       0.0038559807 0.011229447 8.144915e-05 0.009596891
000100 1d 6b c1 ba ca 7c c5 ba 5b 66 17 3b 59 ca 2d b9
       -0.0014756654 -0.0015067097 0.002310178 -0.00016573946
000110 c8 ad 80 3b b9 42 2e bb 45 d3 8d b9 45 30 33 3a
       0.0039269663 -0.0026590063 -0.00027051024 0.0006835501
000120 cd 77 18 3c eb d3 c5 3b 46 28 1b 3b e4 07 05 3c
       0.0093059065 0.0060372255 0.0023675128 0.008119557
000130 c3 df 78 3b 39 a9 77 3b fb 44 07 ba fb 9d bc 3a
       0.003797517 0.0037790074 -0.000516012 0.0014390344
000140 ee c7 b8 39 96 e4 b9 3b ed 04 32 3b 81 7e e7 bb
       0.00035244174 0.0056730015 0.002716358 -0.007064641
000150 1b 6e 6d 3a 59 96 4b 3b d9 b5 fa ba cf 52 e7 3a
       0.00090572395 0.0031064956 -0.0019127681 0.001764858
000160 6f ae 66 39 ea 76 e2 3a 3c f9 3c 3b d8 a7 fe 3a
       0.00021999491 0.0017277871 0.0028835079 0.0019428683
000170 d0 97 5e ba 89 72 7d 3b b3 15 16 3b 69 af 85 3a
       -0.000849125 0.0038673005 0.0022901117 0.0010199371
000180 e2 e5 00 3c cd 0c 45 39 c4 cf c3 ba 59 68 e6 3b
       0.007867308 0.00018792153 -0.0014939238 0.007031482
000190 ab d3 7a 3b bc d5 a2 3b bb 86 36 39 0b 7d b3 b9
       0.0038273137 0.004969327 0.00017407064 -0.00034234705
0001a0 fe 6c cc 3a fa 4e e2 3b e1 e9 fd 3b f1 d7 b8 3a
       0.0015596447 0.0069063874 0.007748828 0.0014102441
0001b0 ab 0c 15 3c 56 6b cb b9 c8 22 f3 39 f5 be ab 3b
       0.009097259 -0.0003879915 0.00046374486 0.0052412697
0001c0 bb c1 5a 3b 48 74 a6 3a df 3e d0 3b 5b 3c 03 3b
       0.0033379633 0.001269945 0.006355151 0.0020024988
0001d0 af 13 4d 3b 88 24 a7 3b 0a 01 32 bb ff 5b ab 39
       0.003129225 0.0051007904 -0.0027161264 0.00032684204
0001e0 17 b7 97 bb 31 28 aa bb f1 29 ea 3b 29 c9 19 ba
       -0.0046299803 -0.0051927795 0.007146113 -0.0005866462
0001f0 b3 85 0a bb 95 c0 8e 3a 9f 59 9b 3b 95 5d d1 bb
       -0.002113682 0.0010891134 0.0047409083 -0.0063893297

action_model._continuous_distribution.log_sigma f4 [1, 48]
000000 cf 9c 4f 3b 8c 6b 2d 3c 40 99 c8 3b 16 20 b0 3a
       0.0031679159 0.010584723 0.0061217844 0.0013437297
000010 7c c2 2a 3b b6 c6 7f 3a 31 4c 5b 3b 1e 68 96 3b
       0.0026055863 0.0009757088 0.0033462162 0.0045900485
000020 07 b9 18 3a f4 2f be 3b 3e 46 51 ba 99 b1 90 3b
       0.0005825911 0.0058040563 -0.0007983184 0.0044157025
000030 74 50 af ba d2 f3 d5 b9 27 4c 15 3c 0b 5a aa bb
       -0.0013375417 -0.00040808186 0.009112394 -0.0051987222
000040 d8 09 7e bb 67 bf 97 3b 80 bb 99 37 0d 22 88 3b
       -0.0038763192 0.0046309712 1.8326333e-05 0.00415445
000050 25 eb 8d bb 41 ce b3 b9 eb 62 30 3a 86 8e b6 bb
       -0.00433101 -0.00034295212 0.0006728607 -0.0055711893
000060 b6 30 f3 ba 1f 57 0b 3c 8c ed 8e 3b b6 ab b6 3a
       -0.0018553946 0.008504658 0.004361814 0.0013936672
000070 7d df af bb 30 98 e1 3b c8 24 fe bb b6 22 30 3c
       -0.005367218 0.0068845972 -0.0077558495 0.010750463
000080 b5 c9 f6 bb 71 78 00 bc 7f 78 8c ba f4 be 03 bb
       -0.0075313696 -0.0078412155 -0.0010717063 -0.002010283
000090 3e 1b fc ba e4 91 87 3b 39 df de b8 d9 82 86 bb
       -0.0019234193 0.0041372646 -0.000106273634 -0.0041049537
0000a0 85 8b c1 3b 6c 23 42 3c b8 55 b4 bb 8f d8 cd 3b
       0.0059065246 0.011849266 -0.0055033825 0.0062819193
0000b0 a6 3a f2 3b 0c df 1c bb c7 82 ee ba ee ee 9c ba
       0.0073922453 -0.0023936657 -0.0018196934 -0.0011973062

action_model._continuous_distribution.mu.weight f4 [48, 128]
000000 5a 70 1c bd 3f c7 e2 bc 29 c2 26 bd e0 ea fb 3a
       -0.038193084 -0.027682899 -0.04071251 0.0019219778
000010 8b 3e 02 3c 78 e9 33 bc fd 6b 5f 3d f4 67 be bc
       0.007949482 -0.010980956 0.054546345 -0.023242928
000020 04 3d 30 3d 65 fd fc bc fe 05 91 3c b4 b2 02 bb
       0.04302694 -0.030882547 0.017703053 -0.001994294
000030 a8 f9 09 bc f6 69 b5 bc 11 a7 1a bc f1 c1 a2 3c
       -0.008421339 -0.022145253 -0.009439246 0.01986787
000040 e1 74 b8 bc 20 27 8e 3c 3b 19 10 bd 80 06 a8 bc
       -0.02251667 0.01735264 -0.03518031 -0.020510912
000050 08 bb 41 3c 98 79 18 3b a2 26 68 3b 6e ea 3f 3c
       0.011824377 0.0023265835 0.0035423418 0.011713607
000060 20 df 05 3d ba a9 d1 3c 72 6f 11 bc e3 88 84 39
       0.03268349 0.025593627 -0.008876668 0.0002527899
000070 68 33 43 bb a5 dc 87 3b 83 21 70 bc 2c d2 8a bc
       -0.002978528 0.004146176 -0.014656427 -0.01694592
000080 77 29 5c bb c5 a0 b1 3b ba 3f dd bc 66 e2 49 39
       -0.003359405 0.0054207765 -0.027007926 0.00019253194
000090 cb a2 b5 3c b6 ef a5 ba 2e ad f5 bb cb 1f 1b 3c
       0.022172352 -0.001265994 -0.0074974513 0.009468029
0000a0 42 54 1e bc 64 4d 6f bc 60 8b 08 3d 9e e3 b6 bc
       -0.009663643 -0.014605854 0.033336043 -0.022325333
0000b0 e6 48 04 3c 07 9e 85 3c d5 6d f7 bb 04 0b 88 3a
       0.008074021 0.016310705 -0.007550935 0.001037926
0000c0 e3 ff 80 bc 17 5f 18 bd db 3f 13 bd b8 d2 dc bc
       -0.015747016 -0.03720006 -0.03594957 -0.026955947
0000d0 fc 88 50 3b f1 7d 0f 3d 46 77 80 3b 2e 7d 4b bc
       0.003181993 0.035032216 0.0039204685 -0.012419982
0000e0 1a aa ea 3c 0c e2 d4 3a e8 a3 d0 bc 03 28 45 39
       0.028645564 0.0016241684 -0.025468782 0.0001880229
0000f0 3e b6 ab bb 04 f0 d8 3c 76 ac 49 bc b6 ef 64 bb
       -0.005240231 0.026481636 -0.012309184 -0.0034932918
000100 5d 5a 33 bc c3 da 17 bb b1 17 bd 3b 54 40 ec bb
       -0.010946837 -0.0023171164 0.0057706465 -0.007209817
000110 1f f6 73 bb 36 e5 46 bd 49 0b 24 3c c3 35 94 bc
       -0.0037225557 -0.048558436 0.010012456 -0.018092042
000120 6a da 72 3a 75 02 b9 bb c6 b8 ac 3b d1 be c6 bc
       0.00092641136 -0.005646045 0.00527105 -0.02426091
000130 48 13 11 ba 1a f3 9c 3c 9b 12 1a 3d 28 db 74 bc
       -0.0005534184 0.019158889 0.0376154 -0.014944829
000140 16 b1 56 bc 09 60 93 3c b0 50 81 bb e8 04 59 3c
       -0.013103744 0.017990129 -0.0039463863 0.013245799
000150 71 b5 31 bc e8 e3 78 3c 2a df 38 3c 22 86 ad 3b
       -0.010846482 0.015191056 0.011283675 0.005295531
000160 f7 0e 67 bc bf b1 03 bd ea a9 ba 3b b2 e3 8c bc
       -0.014102689 -0.032151934 0.005696525 -0.017198417
000170 3c 1d 13 3c 5b a1 d4 3b 18 ed 1a 3b b7 be c6 3c
       0.008979138 0.0064889616 0.0023639854 0.024260862
000180 53 74 be 3c 58 26 70 bc 8e df 60 bc 09 50 83 bc
       0.023248827 -0.014657579 -0.013725175 -0.016029375
000190 c8 ca 6c bc 25 76 86 bc 6f 1b ed 3c a9 46 85 bc
       -0.014452644 -0.016413758 0.028943745 -0.016269045
0001a0 0d f9 07 3b 86 14 8b bb 2d ee 08 bc 61 f7 91 bc
       0.002074781 -0.00424439 -0.008357567 -0.017818155
0001b0 30 73 e8 bb a5 ce 1e bc 33 a7 76 bb 2a f4 f1 39
       -0.0070938095 -0.009692823 -0.003763628 0.00046149018
0001c0 df 80 1d bc 4d 2f fc 3c ad f1 b4 3a 20 7e 93 bb
       -0.009613245 0.030784274 0.0013804935 -0.0045011193
0001d0 be fa 80 3b 01 3d 57 bc c9 68 6e 3c d3 af b9 ba
       0.003936141 -0.013137103 0.01455135 -0.001416678
0001e0 33 76 b1 3b 67 03 24 3b 3b 3b 6f 3c 6e b5 a5 3c
       0.005415702 0.0025026442 0.014601524 0.020228114
0001f0 e7 a6 83 3a d4 1d 03 bd 51 b5 16 3b 2a 5f ed 3b
       0.0010044248 -0.03201087 0.0022996257 0.0072440105
000200 f5 81 05 3d e6 d0 9a 39 3b 60 f0 3b 52 1f 2a bc
       0.03259464 0.0002952881 0.0073356903 -0.010383444
000210 f5 95 e3 3c e9 6a 25 bd cd 53 ae 3c 6b 28 89 3c
       0.027781466 -0.04038516 0.021280194 0.016742906
000220 fa 39 b3 bc 7a 0c 95 bc b0 82 97 3a a4 7f 9e 3c
       -0.021878231 -0.018194426 0.0011559334 0.019347973
000230 61 20 b0 bb 3e 27 b9 bc 3a 82 9f 3c 47 94 7d 3c
       -0.0053749536 -0.02260172 0.019471277 0.015477247
000240 97 18 be bc d4 ec 8f bc 6c b8 58 bc d5 64 75 bb
       -0.023205085 -0.017568983 -0.013227563 -0.0037444134
000250 b8 45 a5 bc f3 fc e7 3c b9 c3 fe 3b 69 e8 c9 3c
       -0.020174846 0.028318858 0.007774797 0.024646955
000260 eb 60 0e bd 30 ed 8f bc e5 c1 75 bb 99 4f c5 bb
       -0.034760397 -0.017569155 -0.0037499603 -0.0060214517
000270 11 73 f0 bc cc 84 03 3a 60 cd 96 3b e8 2f 44 3c
       -0.029351743 0.00050170417 0.0046021193 0.011974312
000280 17 69 33 3c 86 2e 86 3c 69 16 8e 3b 4f 29 d0 bb
       0.010950348 0.016379606 0.0043361676 -0.0063525806
000290 6c 58 c9 bc 4e a0 2b bd ba bb e8 ba 0a d1 1c bc
       -0.024578296 -0.041900925 -0.0017756142 -0.009571323
0002a0 de 4c c4 bc fe 03 39 bc 68 68 59 3c a8 19 06 3b
       -0.023962434 -0.011292456 0.013269521 0.002046207
0002b0 ba d5 30 3b 83 88 01 bc 35 cf e1 3b fa da 03 3c
       0.002698286 -0.007906082 0.006891156 0.008047814
0002c0 e4 36 0a 3d 37 01 4d 3c d6 27 21 bc 69 a0 85 3c
       0.033743754 0.012512497 -0.009836158 0.016311841
0002d0 06 cd d8 bc 76 a6 b8 bc 7f fc ee bb 7f 03 62 3c
       -0.02646495 -0.022540312 -0.0072932835 0.013794779
0002e0 86 ff 6c bc 18 8a b9 3c ed d7 8f ba 2d e9 66 3c
       -0.014465218 0.022648856 -0.0010974385 0.014093679
0002f0 a9 a2 38 39 49 15 69 bc 26 fe 4d bb 14 21 24 bd
       0.00017608203 -0.014226266 -0.0031432002 -0.04007061
000300 8a e7 a7 3c ed 39 84 ba 63 9a 35 bc 31 21 e0 bc
       0.020496149 -0.0010088064 -0.011084172 -0.027359577
000310 3b 25 c4 39 5b ef 49 3c a6 09 76 3c ed 46 97 3c
       0.00037411772 0.012325133 0.015016949 0.018466437
000320 f0 df 5e bc 47 2c fc bc be f4 8c 3d 7c 14 c6 3a
       -0.013603196 -0.030782832 0.06882618 0.0015112306
000330 76 11 a8 bc 5a 42 9e 3c ec ff ca 3c 0d dd 48 3c
       -0.020516139 0.019318748 0.024780236 0.012259734
000340 76 2e e0 3b 05 f6 73 bc 2a 68 fc 3c 46 cd ba 3c
       0.006841476 -0.014890199 0.030811388 0.02280296
000350 6d 80 63 bb c0 4b 1a bc b1 46 65 bc f3 d7 32 bd
       -0.0034714 -0.009417474 -0.013993905 -0.043662976
000360 90 2e 5d 3b b8 e9 8a bc 2b 71 54 bc 58 01 3b bc
       0.0033749677 -0.016957149 -0.0129664345 -0.011413895
000370 7b 8c a2 3b 5d bd 41 bd b0 d2 bb bb 2f 48 46 bd
       0.0049605942 -0.04729973 -0.005731903 -0.048408683
000380 45 da f1 ba ff 6d dc bc e1 b7 8d 3c c2 90 d1 3b
       -0.001845189 -0.026907919 0.017299594 0.0063954303
000390 c9 40 c0 bb cd 0d a9 3c a2 f0 13 3c 37 79 15 3d
       -0.005867098 0.020636464 0.009029539 0.036492553
0003a0 80 11 38 bb a4 dc 4e bc c0 ab 49 3c 5a b8 22 bc
       -0.0028086603 -0.012625847 0.012309015 -0.009931648
0003b0 2e 49 1f b9 9e 1d bc 3c eb 85 b0 bc 43 17 fb bb
       -0.00015190683 0.022963341 -0.021548232 -0.007662685
0003c0 6a e8 35 3d 89 a0 2d 3c 15 f7 27 bc b2 e4 2f bd
       0.0444111 0.010597357 -0.01025178 -0.04294271
0003d0 d0 63 0f bd 23 f7 a0 3a 38 a4 ed 3b fe 87 f7 bc
       -0.035007298 0.0012280684 0.0072522424 -0.030216213
0003e0 a0 8f be 3c 2f 24 54 3c 50 d4 81 bc 46 04 11 bc
       0.023261845 0.01294808 -0.015848309 -0.0088511165
0003f0 99 d8 87 3c 07 73 3a 3d 3d 21 11 bc c2 d4 de bc
       0.016582774 0.045519855 -0.008858022 -0.02720106

action_model._continuous_distribution.mu.bias f4 [48]
000000 c6 33 f9 ba 35 32 d9 3a c5 9b a7 3b 02 7a c9 3a
       -0.0019012622 0.0016570749 0.0051150047 0.0015371444
000010 c1 fc 3d 3a 60 8f e0 3a 26 cc 42 3b f5 d5 fb ba
       0.0007247441 0.0017132573 0.0029723733 -0.0019213544
000020 fa 02 00 bb 75 88 78 3b 55 06 07 bb 7c 22 fc 39
       -0.0019533024 0.0037923132 -0.002060314 0.00048090878
000030 d2 51 9d bb c1 08 62 b9 1c 7f 10 ba 09 10 32 3b
       -0.0048010135 -0.000215563 -0.0005512105 0.0027170202
000040 f2 be 25 3a 9f 1d 00 3c ed 92 3c 3b 56 e2 1c 3b
       0.00063227036 0.007819562 0.0028774098 0.0023938618
000050 d2 24 d9 3b 4b 68 3a bb 42 d9 20 3a 1f 1d 19 b9
       0.006626704 -0.002844351 0.00061358896 -0.00014602065
000060 a1 f8 97 bb c0 f7 cf 3a 8a c8 22 3b 78 ed 6b 3b
       -0.004637793 0.0015866682 0.002483877 0.0035999697
000070 22 26 08 bb da b3 7f b8 06 75 22 3b ac 49 7e 3a
       -0.0020774682 -6.0964237e-05 0.002478899 0.0009700309
000080 bc cd 16 3b 94 23 de 3a 28 c4 89 bb 57 cc d1 3b
       0.002301081 0.0016947859 -0.004204292 0.006402533
000090 62 c9 0d bc fa 4f e9 3b bf 4f 5b ba a2 e6 ee 3a
       -0.00865397 0.0071201297 -0.000836607 0.0018226693
0000a0 d5 df 33 3b 96 38 51 bb fb 69 07 bb 05 56 32 bb
       0.0027446647 -0.0031924597 -0.0020662535 -0.0027211916
0000b0 f7 81 26 39 76 1e ce 39 72 47 58 ba 6e 74 bd 3a
       0.0001587941 0.00039314077 -0.0008250392 0.0014454254

action_model._discrete_distribution.branches.0.weight f4 [1, 128]
000000 37 41 f8 3b cb 2a 5f 3c 1b 2d 89 bc 2d 2e 12 3c
       0.0075761336 0.0136210425 -0.01674514 0.008922142
000010 9d 7b 75 bb 2d 80 05 bc 6a ab cc 3a ef 93 43 3b
       -0.0037457712 -0.008148235 0.001561505 0.0029842814
000020 3b 48 fc bb 4a de c6 37 4b e5 65 3b 6a 3e af 3b
       -0.00769904 2.370695e-05 0.0035079296 0.0053480165
000030 2e 5f 41 bc 37 1a bd bb 58 f5 48 3c 46 0c 0c 3b
       -0.011802478 -0.0057709473 0.012265526 0.002136962
000040 ef bb d8 39 05 32 16 3c d0 50 39 3c 79 09 24 bc
       0.00041338752 0.009167199 0.011310771 -0.010012024
000050 83 ca b7 3a 39 79 89 ba cb 3e 88 3b 10 64 53 3c
       0.0014022145 -0.0010488398 0.004157876 0.012902275
000060 38 b0 45 3b bd be e9 3b a3 8b 4d 3c 6f 65 8b bb
       0.003016485 0.0071333335 0.012545499 -0.004254035
000070 13 d9 d6 bb 47 64 b2 3b b7 79 a3 3b ee b4 2e 3c
       -0.006556639 0.005444083 0.004988875 0.010663254
000080 d4 d1 a7 3a 6f 66 78 bb ab 1c 6d 3b 92 11 33 bb
       0.0012803623 -0.0037902852 0.0036180418 -0.0027323705
000090 a2 8e d7 bb 12 c9 e2 3b 68 c5 0d 3a ea f3 93 3b
       -0.0065782825 0.006920942 0.0005408139 0.004515161
0000a0 c7 10 b2 3b 28 3c 68 3b 1d f6 4d 3b 92 82 4f bc
       0.005434129 0.0035436247 0.0031427213 -0.012665408
0000b0 fe 83 34 38 de ef 24 3b 8d 23 ef 3b f5 e5 ce ba
       4.303827e-05 0.0025167386 0.007297939 -0.0015785085
0000c0 a7 cf e4 bb c2 d0 6a 3c 63 53 6e 3a 33 f4 8b 3b
       -0.006982762 0.014331998 0.0009091405 0.004271054
0000d0 6f de 9f bb 37 24 71 3b ce 1a 84 3b b4 ad ae bb
       -0.004878811 0.0036795267 0.0040315157 -0.0053307656
0000e0 d7 a7 be bb eb d9 28 bc ff 6a ff bb b5 d6 fc bb
       -0.005818348 -0.010305862 -0.0077947374 -0.0077160248
0000f0 b7 73 cc bb 86 20 2a 3c 93 c8 d0 bb 4a b8 17 bc
       -0.00623938 0.010383731 -0.0063715666 -0.0092602465
000100 62 48 6c 3b 56 ed 90 bb 78 38 4c bc df a5 ed 3b
       0.0036053886 -0.004422824 -0.012464635 0.0072524394
000110 20 d2 d7 3b b7 e9 49 3c 23 ed 19 3c da b3 4f ba
       0.006586328 0.012323788 0.009394917 -0.00079232233
000120 10 83 20 3c a2 6d d4 3b 8b 55 11 3c 85 f3 50 bc
       0.009796873 0.006482796 0.008870493 -0.012753372
000130 14 ad 1f 3b 53 35 d9 ba 07 b9 e7 b8 01 82 44 bb
       0.0024364637 -0.0016571678 -0.000110494024 -0.0029984715
000140 1c 47 a7 bb ad c5 21 bc 19 30 05 3c 4b a6 16 3c
       -0.0051049124 -0.00987379 0.008129143 0.009194921
000150 42 1d 6f 3c 2b ad 35 bc d6 26 cc ba a3 1e 95 3b
       0.014594378 -0.01108865 -0.0015575539 0.0045507713
000160 66 93 08 bc 4f af 86 3c 05 08 5d 3a 77 86 c0 3b
       -0.008335924 0.016441016 0.0008431676 0.0058754045
000170 ad fc 52 3c a3 23 d5 bb e3 ad a3 bc 33 7f de 3b
       0.012877625 -0.0065044924 -0.019980377 0.0067900657
000180 9f 6e 2c 3c 2f d3 13 3c e1 f3 47 3b d7 86 14 bc
       0.010524421 0.009022518 0.0030510353 -0.009065351
000190 b9 34 23 3b 58 e6 29 bb b7 03 14 bc 93 81 3a 3a
       0.0024903251 -0.002592465 -0.009034089 0.0007114645
0001a0 5a 2b a9 3c 35 4a 07 3c 20 50 be bb 05 2a b2 ba
       0.020650554 0.008257438 -0.0058078915 -0.0013592845
0001b0 55 b3 06 bc 97 5a 68 3c f3 7e 0a 3c 4d 56 a1 ba
       -0.008221467 0.014181755 0.008453119 -0.0012309045
0001c0 77 e4 47 ba 08 06 ce 3b 0f e2 41 3c ab c9 43 bc
       -0.00076252915 0.00628734 0.011833682 -0.011949937
0001d0 70 59 14 bb 32 e3 8b bb ea 6c 38 bc 4f 89 70 bb
       -0.0022636317 -0.004269027 -0.011256436 -0.0036702936
0001e0 96 0a 23 3c 0b cd 88 3b c3 fc 89 bb 78 60 b9 bb
       0.009951254 0.0041748337 -0.0042110397 -0.005657252
0001f0 5f e5 9f bb d0 2a 7b 3b c5 f3 20 3c df 70 10 bc
       -0.004879638 0.0038325079 0.009823744 -0.008815973
